model/GCN/set3/version_0/checkpoints/epoch=6-step=196.ckpt (torch, 55329 bytes, 29 tensors)

model.conv1.bias f4 [4]
0	0x3d7e768c	0.062124774
1	0xbb11763a	-0.0022195713
2	0xbd1cb3e8	-0.03825751
3	0x3bcb6661	0.006207273

model.conv1.lin.weight f4 [4, 4]
0	0xbecb2406	-0.3967592
1	0xbf44d8ef	-0.76893514
2	0x3f3551e8	0.70828104
3	0xbea68d3b	-0.32529625
4	0x3f358a0b	0.7091376
5	0x3f418296	0.75589883
6	0x3dff8cae	0.124780044
7	0xbf2e6997	-0.6812987
8	0xbd4feba2	-0.050761826
9	0xbea80b3a	-0.32821065
10	0x3e64a57d	0.22328754
11	0xbe5386ac	-0.20656842
12	0x3e9292e0	0.28627682
13	0x3b7cef93	0.0038594946
14	0xbeabacde	-0.33530325
15	0xbf2eac35	-0.6823152

model.conv2.bias f4 [8]
0	0x3c5341f4	0.012894142
1	0xb9d6f7be	-0.00041001843
2	0xbc99450b	-0.01870968
3	0xba326495	-0.0006805149
4	0x3d507caf	0.050900158
5	0xba177cad	-0.0005778771
6	0xbc4c5c40	-0.012473166
7	0x3cfa940d	0.030588174

model.conv2.lin.weight f4 [8, 4]
0	0x3e464ca7	0.19365178
1	0x3f044019	0.51660305
2	0x3cbc2751	0.022967966
3	0xbebdcdd2	-0.3707109
4	0x38843905	6.304871e-05
5	0xb9b4072e	-0.00034337625
6	0x3929e9b9	0.00016204164
7	0xb9b24ced	-0.0003400812
8	0x3f0dd1c9	0.5539823
9	0x3d91653c	0.07099387
10	0x3ef53821	0.47894385
11	0x3f46a5c5	0.77596694
12	0xbe809064	-0.2511016
13	0x3f1ce922	0.6129323
14	0x3df5c38b	0.120001875
15	0xbe266b6d	-0.16251917
16	0x3f2a4ac6	0.66520345
17	0xbf1d7ef7	-0.6152186
18	0xbef97db2	-0.4872871
19	0x3dce6294	0.10077396
20	0xb99766f1	-0.00028877662
21	0xba1d8e73	-0.00060103013
22	0xb8ba03c0	-8.8698696e-05
23	0xb9e680dd	-0.0004396503
24	0x3ed4022f	0.41407916
25	0x3ed409b3	0.4141365
26	0xbdf85d1e	-0.12127136
27	0xbed6c9d0	-0.41950846
28	0x3d7af2d2	0.061266728
29	0x3c85d940	0.016338944
30	0xbf0e0810	-0.5548105
31	0xbedac13f	-0.4272556

model.conv3.bias f4 [16]
0	0x3c1fc110	0.0097506195
1	0xb6efd466	-7.1474815e-06
2	0xbb89ed9d	-0.004209234
3	0xb9ef2940	-0.00045616366
4	0x3ce9cf9b	0.028541377
5	0x3cdd1d49	0.026991503
6	0xbb9e962e	-0.00483968
7	0x3b69c431	0.0035669918
8	0x3ab47c26	0.0013769909
9	0xb9bf9a0b	-0.0003654513
10	0xbc1a5889	-0.0094205225
11	0x3b42b22b	0.0029708247
12	0x3b652ac6	0.0034968122
13	0x3ce98faa	0.028510887
14	0xbc038e8b	-0.00802959
15	0x3c9befed	0.019035304

model.conv3.lin.weight f4 [16, 8]
0	0x3ed967e4	0.42462075
1	0xb98fd924	-0.00027436868
2	0x3e612bc6	0.21989354
3	0x3efebce8	0.497535
4	0xbe0fe8be	-0.14053628
5	0x3a16f7a6	0.00057589484
6	0xbedb0b41	-0.42782024
7	0x3cb84fc8	0.02249898
8	0xb2836090	-1.5294319e-08
9	0xaf06aa3b	-1.2247707e-10
10	0x32cb764d	2.3686107e-08
11	0x3269b61c	1.3603792e-08
12	0xb2b9e137	-2.163925e-08
13	0x8b7b175f	-4.8358424e-32
14	0xb2ca6b88	-2.3564795e-08
15	0x324ed8ec	1.20401005e-08
16	0xbd1a3dc7	-0.03765657
17	0xb92153b0	-0.00015385333
18	0x3e4d9380	0.20075798
19	0x3e308c31	0.17240979
20	0x3e9ff00b	0.31237826
21	0x3a858ae5	0.0010188489
22	0x3cd6b8b7	0.026211126
23	0xbe886a7d	-0.26643744
24	0xb9aa1d9c	-0.00032446987
25	0xb179fb0e	-3.6376977e-09
26	0xb80dde24	-3.3823904e-05
27	0xb9b3e035	-0.00034308588
28	0xb823a9a7	-3.902023e-05
29	0x2ea65303	7.563552e-11
30	0xb9789281	-0.000237057
31	0xb8445fa4	-4.6819114e-05
32	0x3dcff9b6	0.101550505
33	0x3a2a3f7e	0.00064944464
34	0xbea5a46e	-0.32352012
35	0x3ea151f3	0.31507835
36	0xbd82a2cf	-0.063787095
37	0xb9998a02	-0.00029285258
38	0x3e4e1dfc	0.20128626
39	0xbda7ac42	-0.081871524
40	0x3e503fe1	0.20336868
41	0x3984d122	0.00025332818
42	0xbde50d63	-0.11184194
43	0xbda631bf	-0.08114957
44	0x3db73197	0.089450054
45	0xba4abdb8	-0.0007733959
46	0xbe427740	-0.18990803
47	0x3ef2026f	0.47267482
48	0xbd5d83f1	-0.054080907
49	0xb94b599b	-0.00019392969
50	0x3ea29d73	0.3176075
51	0x3ead49a9	0.3384526
52	0x3e2e6948	0.17032349
53	0x3a3fd94f	0.0007318453
54	0xbdf967f2	-0.12178029
55	0x3c6d6738	0.014489941
56	0x3f036a20	0.5133381
57	0x3913de37	0.00014101794
58	0x3eab18cd	0.3341736
59	0x3e960b4e	0.293055
60	0xbee89d4f	-0.45432517
61	0xba4f3aa4	-0.00079051615
62	0x3de215a9	0.110392876
63	0x3e23278d	0.15933056
64	0x3c702483	0.014657143
65	0x3979cf01	0.00023823605
66	0xbe29365d	-0.16524644
67	0x3d8036c9	0.062604494
68	0x3e2025a6	0.15639362
69	0xba45db18	-0.0007547601
70	0x3ef91af3	0.48653373
71	0x3f00da2e	0.50332916
72	0xb9c62d18	-0.000377991
73	0xb18a3c5a	-4.02319e-09
74	0xba04207a	-0.000504024
75	0xb9af84f8	-0.0003347767
76	0xba002804	-0.00048887753
77	0x30790849	9.0597446e-10
78	0xb9c426ef	-0.0003741304
79	0xb9d6aa30	-0.0004094406
80	0xbeefccc0	-0.468359
81	0xb96c3974	-0.00022528117
82	0xbe4bf9ad	-0.19919463
83	0x3f019d3b	0.5063054
84	0xbeabb1fa	-0.33534223
85	0x3a1d5086	0.00060010736
86	0x3ee6638b	0.4499782
87	0xbe99e1e3	-0.3005515
88	0x3e6451a8	0.22296774
89	0xba0d2547	-0.0005384278
90	0x3caa4efe	0.02078962
91	0x3e85835f	0.2607679
92	0x3d8e7ac1	0.06957007
93	0xb9f3b5ed	-0.00046484117
94	0x3eb3b971	0.35102418
95	0xbed8ceba	-0.4234522
96	0x3e9c1863	0.30487356
97	0x37205eaf	9.558788e-06
98	0x3d1ac865	0.037788767
99	0xbee26445	-0.44217125
100	0x3e34a038	0.17639244
101	0xb9ed90b8	-0.00045311986
102	0x3ec4adce	0.38413852
103	0x3ee78ba0	0.45223713
104	0xbd7978d0	-0.06090623
105	0xb96499a4	-0.0002180101
106	0xbeb41c21	-0.3517771
107	0xbd915d62	-0.070978895
108	0x3f004e77	0.5011973
109	0x3a762fc8	0.0009391275
110	0xbc8e2585	-0.017351875
111	0x3e7e00ea	0.24805036
112	0xbed53806	-0.41644305
113	0x3a15586b	0.0005697074
114	0x3e3ae752	0.18252304
115	0x3ee68bdd	0.45028582
116	0xbe8aea82	-0.2713204
117	0x3a0ce926	0.0005375318
118	0x3e889c76	0.2668187
119	0xbe137742	-0.14400962
120	0x3b31c966	0.00271281
121	0x399bd621	0.00029723442
122	0x3eefecf0	0.46860456
123	0xbd428374	-0.047488645
124	0xbee3ea1e	-0.44514555
125	0xb9cfb7ba	-0.00039619004
126	0xbe4096c6	-0.18807516
127	0x3d0bee84	0.034163013

model.fc.0.weight f4 [128, 16]
0	0x3d3ced16	0.04612454
1	0xafeaf113	-4.2735646e-10
2	0xbdf1bc3d	-0.11803482
3	0xb4975990	-2.8191107e-07
4	0x3e1d7da8	0.15379965
5	0x3dbe34ea	0.09287436
6	0xbe3d9630	-0.18514323
7	0xbe2a71db	-0.16644995
8	0x3e17b660	0.14815664
9	0xb98e2567	-0.00027112218
10	0xbe62696e	-0.2211053
11	0x3e683e52	0.22680023
12	0x3e07b691	0.13253237
13	0x3db8d1d2	0.09024395
14	0x3dcd9bf9	0.10039515
15	0x3e576ff3	0.21038799
16	0xbc7fe9cb	-0.015619705
17	0xb2849d96	-1.5438484e-08
18	0x3dd65fe7	0.10467511
19	0xb2a4d716	-1.9189923e-08
20	0x3d50bd71	0.050961915
21	0xbdb10fbc	-0.08645579
22	0x3cce5c4f	0.0251905
23	0x3b64b7bc	0.0034899553
24	0xbd11d39d	-0.0356022
25	0x396b6956	0.00022450587
26	0x3e572196	0.21008906
27	0x3ca08bae	0.019597854
28	0x3de1ba60	0.11021876
29	0x3e0d9a5f	0.13828419
30	0x3d8cac39	0.06868786
31	0xbda33a06	-0.079700515
32	0x3dbce6fa	0.09223743
33	0xb2bada81	-2.1752614e-08
34	0xbe45efa6	-0.193297
35	0xb35c6b7a	-5.132049e-08
36	0x3e261ce4	0.16221958
37	0x3e39f7e6	0.18160972
38	0xbd825176	-0.06363194
39	0x3b89452d	0.0041891546
40	0x3e37c4e4	0.17946202
41	0xb976a422	-0.00023521532
42	0x3e575f6d	0.21032496
43	0x3dd376d3	0.10325398
44	0xbe4b45cc	-0.19850844
45	0xbd1aa9fd	-0.03775977
46	0xbe4bb7b0	-0.1989429
47	0xbdc0713e	-0.09396599
48	0xb7775cbe	-1.47439405e-05
49	0xa21e3798	-2.1442424e-18
50	0xb8eb78a0	-0.000112281414
51	0xafa100f6	-2.9286412e-10
52	0xb758c3d5	-1.2920199e-05
53	0xb8079379	-3.2323853e-05
54	0xb8804bca	-6.1176324e-05
55	0xb8329d88	-4.258522e-05
56	0xb8b1c0be	-8.475919e-05
57	0x32e9208b	2.7139569e-08
58	0xb78d3e98	-1.6837657e-05
59	0xb87f58f3	-6.0879578e-05
60	0xb978ff56	-0.00023746243
61	0xb8e4f467	-0.00010917411
62	0xb79c1896	-1.8608098e-05
63	0x3788768c	1.6267666e-05
64	0xbbc6164f	-0.00604514
65	0xb257b5d4	-1.255599e-08
66	0x3d645f42	0.055754907
67	0xb6dc6765	-6.5685476e-06
68	0xbc88760c	-0.016657852
69	0x3b980191	0.0046388586
70	0x3cbab670	0.022792071
71	0xbd1b12c7	-0.037859704
72	0xbc32fd73	-0.010924685
73	0x399ad50e	0.00029531907
74	0x3d311210	0.043230116
75	0xba0b4ee5	-0.00053141854
76	0x3b4cd28e	0.003125343
77	0x3d41fe4f	0.04736167
78	0x3d727f54	0.05920346
79	0xbd2758ec	-0.040856287
80	0x3e5dfcf3	0.21678524
81	0x3187d3ef	3.953111e-09
82	0xbe60018b	-0.21875589
83	0xb38e2df5	-6.62075e-08
84	0xbb82fbf2	-0.0039973194
85	0xbb6bf26a	-0.0036002644
86	0x3de13ee3	0.10998323
87	0xbce5d28e	-0.028054502
88	0xbd671040	-0.05641198
89	0xb7dfe6ca	-2.6691141e-05
90	0x3e2cb4f7	0.16865908
91	0xbe48903f	-0.19586276
92	0xbe0d0a02	-0.13773349
93	0x3e3add17	0.18248402
94	0x3e760bfc	0.24028009
95	0xbbc388a8	-0.0059672184
96	0x3e4f8a24	0.2026754
97	0xb17a13b9	-3.6391e-09
98	0x3e3df46b	0.1855027
99	0x2fa94716	3.079143e-10
100	0xbe7b6423	-0.24549918
101	0xba74a0dc	-0.0009331831
102	0x3e08b9b0	0.13352084
103	0x3d6e70bb	0.058212977
104	0xbd334386	-0.043765567
105	0xb8128a31	-3.4937813e-05
106	0xbd909d38	-0.07061237
107	0xbdb8913d	-0.09012077
108	0x3dd2f874	0.10301295
109	0xbcfe962a	-0.031077463
110	0xbe08f04c	-0.13372916
111	0x3d85e050	0.06536925
112	0xbc8cf75f	-0.0172078
113	0x31e245e8	6.585413e-09
114	0xbdd3a3df	-0.1033399
115	0xb2bbe399	-2.1873165e-08
116	0x3d3542ee	0.044253282
117	0x3d8d8c74	0.06911555
118	0x3e602904	0.21890646
119	0x3e71da5e	0.23618457
120	0x3cca0bcf	0.024663834
121	0x38f8a66f	0.00011856562
122	0xbe667e7f	-0.22509192
123	0xbdcfa93b	-0.101397
124	0x3aced819	0.0015780955
125	0x3dd26f58	0.102751434
126	0xbe4d310d	-0.20038243
127	0xbdb31904	-0.08745006
128	0xbe146b3e	-0.14494035
129	0x323edd46	1.1109767e-08
130	0x3e59dc59	0.21275462
131	0xb6d8f8a9	-6.4662495e-06
132	0x3e439265	0.19098814
133	0xbdd1497a	-0.10219093
134	0x3e560284	0.20899397
135	0xbdff092a	-0.1245292
136	0xbd8159e9	-0.06315977
137	0x39e905f9	0.00044445673
138	0x3e059c8d	0.13048
139	0xbe5ad599	-0.21370544
140	0x3e135363	0.14387278
141	0x3d0f1970	0.03493637
142	0x3e63285e	0.22183368
143	0x3d963369	0.073340245
144	0xb7297b36	-1.0101872e-05
145	0x221b1407	2.101702e-18
146	0xb8e20915	-0.000107782114
147	0xaf90cb1f	-2.6337774e-10
148	0xb70d09b7	-8.406517e-06
149	0xb7a5b48f	-1.9753612e-05
150	0xb86c11c1	-5.628332e-05
151	0xb8237298	-3.8968952e-05
152	0xb8addfc9	-8.290966e-05
153	0x32cfba45	2.4182677e-08
154	0xb73cc5f4	-1.1251763e-05
155	0xb8740ff9	-5.818901e-05
156	0xb975c3fb	-0.00023438029
157	0xb8b64ba2	-8.692524e-05
158	0xb75176f2	-1.2485065e-05
159	0x379dec95	1.8826026e-05
160	0xba028a13	-0.0004979681
161	0xa2b6db29	-4.9563244e-18
162	0xb6820f2f	-3.8760695e-06
163	0xafd590b1	-3.8847284e-10
164	0xb9fa18f6	-0.00047702313
165	0xb90bea79	-0.00013343421
166	0xb94986d5	-0.00019219083
167	0xb9e7615c	-0.00044132292
168	0xb956ea75	-0.00020495972
169	0x30bac63b	1.3589622e-09
170	0xb9bcee08	-0.000360355
171	0xb9b768d5	-0.00034982586
172	0x38f426e9	0.00011642074
173	0x3858d2d3	5.169476e-05
174	0xb9a4b78e	-0.00031417276
175	0xb6e8b494	-6.935161e-06
176	0xbd169512	-0.03676326
177	0xb2b66703	-2.1234433e-08
178	0x3d6259a7	0.05526128
179	0xb8dc94c0	-0.00010518124
180	0x3cf27c28	0.029600218
181	0xbd6b9550	-0.057515442
182	0xbd9866d0	-0.07441485
183	0xbe02abec	-0.12760895
184	0x3e1c52a3	0.15265898
185	0xb8e7fea7	-0.00011062371
186	0x3cf7c15b	0.030243566
187	0xbd86550e	-0.06559192
188	0x3d32aad5	0.04361995
189	0x3da78de8	0.08181363
190	0x3b5e499f	0.0033918393
191	0xbe43cb6d	-0.1912057
192	0xbdca97de	-0.098922476
193	0x33077cc6	3.1545618e-08
194	0x3d87799b	0.06614991
195	0x327a8e55	1.4584278e-08
196	0xbcd03876	-0.025417548
197	0xbe161242	-0.14655402
198	0x3e86bf8c	0.26318014
199	0xbde71c4e	-0.112846956
200	0x3e4e4fba	0.20147601
201	0x3967813b	0.00022078019
202	0x3d54c383	0.051944267
203	0xbbb6551d	-0.0055643455
204	0x3e085d8e	0.13316938
205	0xbe28217d	-0.16419025
206	0xbd72f63f	-0.05931687
207	0xbd368380	-0.044559002
208	0x3e49700e	0.19671652
209	0xb30661b3	-3.1288163e-08
210	0x3e8ef322	0.2791987
211	0xb7b77a39	-2.1872214e-05
212	0xbccfb5b7	-0.025355203
213	0xbd008c15	-0.031383593
214	0x3e84892f	0.25885913
215	0xbb132794	-0.002245401
216	0xbd64bc7e	-0.055843823
217	0x39125abe	0.00013957449
218	0xbd60bdbd	-0.05486845
219	0xbe617e8b	-0.22020929
220	0xbdcc41c3	-0.099734806
221	0xbddbe6d8	-0.10737389
222	0x3e6ee8e9	0.23331036
223	0x3e1d0acf	0.15336154
224	0xbb72e43f	-0.0037062315
225	0xb1e51679	-6.667332e-09
226	0x3d4f287e	0.050575726
227	0xb37e3304	-5.9185382e-08
228	0x3d808cb2	0.062768355
229	0x3decb939	0.11558766
230	0xbe6e6487	-0.23280536
231	0x3e2689b4	0.16263467
232	0x3e728be7	0.23686181
233	0x398659a6	0.00025625265
234	0x3e39d948	0.18149292
235	0xbdb05a9f	-0.086110346
236	0xbdac33ae	-0.084082946
237	0x3e0becd1	0.13664557
238	0x3da02c6d	0.078209735
239	0xbd83d11f	-0.06436371
240	0xbbc44180	-0.0059892535
241	0x31f6ff14	7.1885413e-09
242	0xbe413f0d	-0.18871708
243	0xb1c22d33	-5.6512817e-09
244	0x3da518c4	0.08061364
245	0x3e2b0d98	0.16704404
246	0xbe0a6b9a	-0.13517609
247	0x3e46052d	0.19337912
248	0xbe2d4e75	-0.1692446
249	0x3926550a	0.00015862673
250	0x3d3f0566	0.046636008
251	0x3e526586	0.2054654
252	0xbe0db064	-0.13836819
253	0xbe0306e8	-0.12795603
254	0xbd53929c	-0.05165349
255	0xbd53ef29	-0.051741753

model.fc.0.bias f4 [128]
0	0x3d463d2c	0.04839818
1	0xbdb857b9	-0.09001107
2	0xbe5623b8	-0.20912063
3	0xb5b6310e	-1.3574333e-06
4	0x398c4e33	0.00026761144
5	0xbd651d56	-0.05593618
6	0x3d8bd29f	0.06827282
7	0xbe13eb93	-0.14445333
8	0x3e73f454	0.23823673
9	0x360307ec	1.9525132e-06
10	0xb6d4af50	-6.3385014e-06
11	0xbd773b73	-0.06035943
12	0xbe1c054f	-0.152364
13	0x3d85502d	0.06509433
14	0xbb4304ac	-0.0029757423
15	0xbd86c699	-0.06580848
16	0x32c472b7	2.286957e-08
17	0xbe2eebf8	-0.17082202
18	0xbe065fa2	-0.13122419
19	0xbe2cc765	-0.16872938
20	0xbc06c499	-0.0082255835
21	0xbe2913ff	-0.16511534
22	0x3daadd8b	0.08343037
23	0xb7d177c1	-2.4970506e-05
24	0x3d9d6021	0.07684351
25	0xbdf811c2	-0.12112762
26	0xbe39916c	-0.1812188
27	0xbb245076	-0.0025072373
28	0xbd4f06d0	-0.050543606
29	0x3e3bbedf	0.1833453
30	0xbc581c02	-0.013190271
31	0xb4943fe7	-2.7613643e-07
32	0xbe538e4a	-0.20659748
33	0xbcafa79c	-0.021442227
34	0x3c7ae1bd	0.015312609
35	0xbd1d21d1	-0.038362328
36	0xba678ebc	-0.000883322
37	0x3d1b573f	0.037925
38	0x3c508185	0.012726192
39	0xbdfa981f	-0.12236046
40	0x3a5cc66f	0.0008421903
41	0xbd49ba0f	-0.049249705
42	0x3d5c9be1	0.053859595
43	0xbe058dc7	-0.13042365
44	0x3ded8e6b	0.1159943
45	0xb8f45b7b	-0.00011651866
46	0x3e6bafab	0.23016231
47	0xbe0f6774	-0.14004308
48	0x3e4d99e3	0.20078234
49	0x3df4e9a9	0.1195863
50	0xbb1cf2dd	-0.0023948469
51	0x3e20f683	0.15719037
52	0xbe477764	-0.19479138
53	0xbd940b8c	-0.07228765
54	0x3d616b81	0.055034164
55	0xbbecf699	-0.007231545
56	0x3ddfdee7	0.10931187
57	0xbccf3a3f	-0.025296329
58	0x3297673c	1.762566e-08
59	0x329c3835	1.818635e-08
60	0xbb84ae13	-0.0040490716
61	0x3e3e6a5d	0.18595262
62	0xb587d0a5	-1.0119007e-06
63	0xbdd28322	-0.10278918
64	0xb97fffb1	-0.00024413948
65	0xb2c49377	-2.2884462e-08
66	0x3e121972	0.14267519
67	0xbb4365a7	-0.0029815228
68	0xbdacb9ec	-0.08433899
69	0x32dd27cc	2.5745884e-08
70	0xb889ac6d	-6.564786e-05
71	0xbd25914c	-0.04042177
72	0x3dd53b71	0.10411728
73	0x3d8e6d91	0.06954492
74	0xbd181900	-0.037133217
75	0xbc60d136	-0.013721755
76	0x3e192b15	0.1495784
77	0x363fcdb3	2.858095e-06
78	0xbd66aeac	-0.056318924
79	0x3e1853f4	0.14875776
80	0x3c9bdab3	0.019025182
81	0xbe25e590	-0.16200852
82	0xbdd2ece0	-0.102990866
83	0x3dd21923	0.10258701
84	0x3e0dd2ad	0.13849898
85	0xbe34d1b5	-0.17658122
86	0xbbf52d68	-0.0074822195
87	0x3e01e20f	0.12683891
88	0xba117c1c	-0.0005549805
89	0xbe078fb5	-0.13238414
90	0x3bdc1906	0.00671685
91	0x3b54f10f	0.0032492315
92	0xbdf6c711	-0.12049688
93	0xbd90f433	-0.07077827
94	0xb58600a8	-9.983969e-07
95	0x3cb64836	0.02225123
96	0x3d1e01ea	0.038576044
97	0xb5d3ecad	-1.5789607e-06
98	0x3d7e9732	0.06215591
99	0x3d94e383	0.07269957
100	0x36968bf1	4.4866397e-06
101	0xb8127a6d	-3.492313e-05
102	0xbe508241	-0.20362188
103	0x3d3a45d3	0.045476746
104	0x3dd955d9	0.10612077
105	0x3dd584e0	0.104257345
106	0x3b7cf41a	0.0038597644
107	0x3ad143fd	0.0015965697
108	0x3c250ba8	0.01007358
109	0x3e1b59c3	0.1517096
110	0x3dd811b1	0.10550249
111	0xbcb16da1	-0.02165872
112	0xb314424f	-3.4519243e-08
113	0x3d5b5d0a	0.053555526
114	0x3dd38537	0.10328143
115	0x3d16b5b9	0.036794398
116	0x3dcbe720	0.09956193
117	0x3e6ab0bb	0.2291898
118	0xb909b720	-0.00013133558
119	0x3dcb8873	0.09938135
120	0x3d181e19	0.03713808
121	0x3dcd6243	0.100285076
122	0xbe4d5975	-0.20053656
123	0x329839b0	1.7721362e-08
124	0xbe11892b	-0.14212482
125	0x345a8e79	2.0354663e-07
126	0x3c8a1e1b	0.016860059
127	0x3e48ec15	0.19621308

model.fc.2.weight f4 [1, 128]
0	0x3db1a8b5	0.086747564
1	0xbcfdec19	-0.03099637
2	0x3d2e6e02	0.04258538
3	0xb91475e1	-0.00014158293
4	0xbe5d11c1	-0.21588804
5	0xbd89d23b	-0.067295514
6	0x3b54cd12	0.0032470864
7	0xbbffab6e	-0.0078024184
8	0xbee25a14	-0.4420935
9	0xb9209487	-0.0001531412
10	0x39d94fee	0.00041449018
11	0xbe9da55a	-0.30790216
12	0xbcd17ce5	-0.02557225
13	0xbd7f8053	-0.06237824
14	0xbd812fe4	-0.063079625
15	0xbc637497	-0.013882778
16	0x3986be7e	0.000257004
17	0xbd56ccf7	-0.052441563
18	0x3da00d5a	0.078150466
19	0x3d520da2	0.051282533
20	0x3d67af26	0.05656352
21	0xbc84ee89	-0.016227024
22	0x3dafdf5b	0.085875235
23	0xb9a5f631	-0.0003165468
24	0x3e67481c	0.22586101
25	0x3d750cfa	0.05982683
26	0xbec2cd5e	-0.38047308
27	0xbe485483	-0.19563489
28	0x3ba11093	0.004915306
29	0xbdb612b7	-0.08890288
30	0xbe9338bd	-0.28754225
31	0xb92228af	-0.0001546468
32	0x3e2d1291	0.16901614
33	0xbcb8f1a8	-0.022576168
34	0xbdb7b8ef	-0.0897082
35	0xbe832e4c	-0.2562126
36	0xba8721a7	-0.0010309712
37	0x3d1b3b00	0.037898064
38	0x3e39bda8	0.18138754
39	0xbea5211f	-0.32251832
40	0xbc9af293	-0.018914497
41	0x3c86097b	0.016361943
42	0x3d95be57	0.07311695
43	0xbe8b7a35	-0.27241674
44	0xbdc39caa	-0.09551366
45	0x39636d26	0.00021689068
46	0x3d7c8fc3	0.06166054
47	0x3cced967	0.02525015
48	0xbdbe1988	-0.092822134
49	0xbd58153f	-0.052754637
50	0x3cfa57e4	0.030559488
51	0x3d8b70a6	0.06808595
52	0x3ca4f21a	0.020134974
53	0xbe709a1d	-0.2349629
54	0xbcf6e9a1	-0.0301407
55	0xbcbafe35	-0.022826293
56	0xbec8dc92	-0.39230782
57	0x3ca28da0	0.019842923
58	0x3951a300	0.00019992515
59	0x3928463a	0.0001604789
60	0xbe6b927c	-0.23005098
61	0x3d622205	0.055208225
62	0xb9126b83	-0.00013963696
63	0xbded3aa6	-0.11583452
64	0x39ee9849	0.0004550836
65	0x39c57374	0.00037660787
66	0xbe0522e3	-0.1300159
67	0xbdb1d011	-0.08682264
68	0xbd77fb53	-0.060542416
69	0x39a0b344	0.0003065114
70	0x3a07ea20	0.00051847287
71	0xbd085889	-0.03328756
72	0x3d4caec4	0.049971357
73	0x3d098645	0.033575315
74	0xbd871d89	-0.0659743
75	0xbe32860a	-0.17433944
76	0xbd796a58	-0.060892433
77	0xb9201e8a	-0.00015270166
78	0xbde2d4b9	-0.1107573
79	0x3d2e242c	0.042514965
80	0xbd254103	-0.040345203
81	0xbca22009	-0.019790666
82	0x3ca3cef1	0.019996138
83	0x3e7f944c	0.24958915
84	0xbd98f4fc	-0.07468602
85	0x3cdf5b0a	0.02726509
86	0xbeb20ad0	-0.34773874
87	0xbdb6bd60	-0.08922839
88	0xba80e832	-0.0009834825
89	0xbd2cf638	-0.042227
90	0x3e0756c8	0.13216698
91	0xbd917fcd	-0.07104454
92	0xbe8aa939	-0.27082232
93	0x3cb720f6	0.022354584
94	0xb9172084	-0.00014412595
95	0x3e2be652	0.16787079
96	0xbdb02d79	-0.08602423
97	0xba2fc99d	-0.0006705763
98	0xbd6bb912	-0.057549544
99	0x3e9d40d0	0.3071351
100	0xb915be24	-0.0001428058
101	0xb963338d	-0.00021667611
102	0xbd00fdeb	-0.031492155
103	0x3c8c7c91	0.017149242
104	0xbcd44a5c	-0.025914364
105	0x3d736d59	0.059430454
106	0x3dffc13b	0.12488028
107	0xbb969a15	-0.0045960047
108	0xbe70c48f	-0.23512481
109	0x3d90fa32	0.07078971
110	0xbde080f5	-0.109620966
111	0x3d70d813	0.058799814
112	0xb9d90d93	-0.0004139958
113	0xbd586f7d	-0.0528407
114	0x3d49d4bc	0.049275145
115	0x3c3fd25b	0.0117078675
116	0xbebb0487	-0.36526892
117	0x3da2e4e0	0.07953811
118	0x3993d422	0.00028196076
119	0x3d832263	0.06403043
120	0xbeb3fd1e	-0.3515405
121	0x3d84fe9a	0.06493874
122	0xbd187a23	-0.037225854
123	0xb97f5188	-0.00024349068
124	0x3c832387	0.016008152
125	0x3962c657	0.00021626927
126	0x3d37056f	0.044682916
127	0xbd0457d1	-0.03231031

model.feature.0.weight f4 [128, 16]
0	0x3e1ddc14	0.15415984
1	0x3cf92f10	0.030417949
2	0x3e5e7494	0.21724159
3	0xbe18762e	-0.14888832
4	0x3db90304	0.09033778
5	0xbdd30ee4	-0.103055745
6	0x3e44bec2	0.19213393
7	0x3db13aa0	0.0865376
8	0xbd67d230	-0.056596935
9	0xbd856e88	-0.06515223
10	0xbca5ec70	-0.020254344
11	0x3e4909e2	0.19632676
12	0xbd9758e4	-0.073900014
13	0x3e399a0a	0.18125167
14	0xbe4a35dc	-0.19747108
15	0xbe1e424c	-0.15454978
16	0xbdab7ef0	-0.08373821
17	0x3e0e77de	0.13912913
18	0x3d7f06f8	0.062262505
19	0x3bbeebc0	0.0058264434
20	0x3d4a4748	0.049384385
21	0xbe39838c	-0.18116587
22	0xbd9fc364	-0.0780094
23	0x3dcab0a0	0.0989697
24	0x3d926e10	0.07149899
25	0x3e7204ac	0.23634595
26	0xbcc24310	-0.023713619
27	0x3db01044	0.085968524
28	0xbe1a6516	-0.15077624
29	0xbe4d7d38	-0.20067298
30	0x3e47600c	0.19470233
31	0x3e69550e	0.22786352
32	0xbd0cae68	-0.034346014
33	0xbe3d3232	-0.18476179
34	0x3e4d9dce	0.20079729
35	0xbd995c58	-0.07488316
36	0xbe49b9c4	-0.1969977
37	0x3d327f58	0.043578476
38	0xbb8271c0	-0.003980845
39	0xbd6059d8	-0.05477318
40	0x3e4b67ea	0.19863859
41	0xbbb273c0	-0.0054459274
42	0xbe1a5dac	-0.15074795
43	0x3e1c859c	0.15285343
44	0xbb28eb80	-0.0025775135
45	0xbd0b3e50	-0.033994973
46	0xbe3b0b2a	-0.18265978
47	0xbdad1e6c	-0.08453068
48	0xbe6a23d6	-0.22865233
49	0x3b3eeb00	0.002913177
50	0x3dd65ad8	0.10466546
51	0x3e65aebe	0.2242994
52	0xbe315892	-0.17318943
53	0xbe36141a	-0.17781106
54	0x3e215b3a	0.15757456
55	0xbe1f81d0	-0.15576863
56	0xbe15828c	-0.14600581
57	0x3e36a230	0.17835307
58	0x3e66f6a4	0.22555023
59	0xbe34f4e0	-0.17671537
60	0xbe2f8d1e	-0.17143676
61	0x3e4e7494	0.20161659
62	0xbb472780	-0.0030388534
63	0x3c169060	0.009189695
64	0x3e4189aa	0.18900171
65	0xbcd40870	-0.02588293
66	0xbe081980	-0.13290977
67	0x3e3cdcf6	0.18443665
68	0xbd8ec5b0	-0.069713
69	0xbdb52e9c	-0.08846781
70	0x3da76c9c	0.081750125
71	0xbdcfec40	-0.10152483
72	0xbde79e38	-0.11309475
73	0x3da0bec0	0.07848883
74	0x3dab4428	0.08362609
75	0x3e55a87a	0.2086505
76	0x3d8129ec	0.06306824
77	0xbbc7ac00	-0.006093502
78	0x3d2a0980	0.041512966
79	0x3e3f06a2	0.18654874
80	0x3e53d71e	0.2068753
81	0x3df7c998	0.12098998
82	0x3e617c42	0.22020057
83	0x3e1dce2e	0.15410683
84	0x3e3c8554	0.18410236
85	0xbe55f334	-0.20893556
86	0x3dd515c0	0.10404539
87	0xbe451bca	-0.19248882
88	0xbe4128cc	-0.18863219
89	0x3d98e4d4	0.074655205
90	0x3d093b60	0.03350389
91	0x3e64b4b4	0.22334558
92	0xbe38dc8e	-0.18052885
93	0xbe680914	-0.22659713
94	0xbe55d944	-0.20883662
95	0x3cc38b10	0.023870021
96	0x3d9f2a04	0.07771686
97	0xbe70df8c	-0.23522776
98	0x3da2f870	0.07957542
99	0x3de4bdbc	0.111690015
100	0xbe4ce042	-0.20007423
101	0xbd2f8858	-0.042854637
102	0x3d548008	0.051879913
103	0x3dbb95d4	0.09159437
104	0x3e4492ea	0.19196668
105	0xbe38c12e	-0.18042442
106	0xbe62cf0e	-0.22149298
107	0xbe034402	-0.12818912
108	0xbdd93ecc	-0.10607681
109	0x3e6d5c74	0.231798
110	0x3e1dd238	0.15412223
111	0x3dab3d30	0.0836128
112	0x3db7e72c	0.089796394
113	0xbe07aa70	-0.1324861
114	0xbd9a0a28	-0.075214684
115	0xbcf7ef50	-0.03026548
116	0x3df22ca8	0.11824924
117	0xbdb30cfc	-0.08742711
118	0xbd594e20	-0.05305302
119	0x3e7a9e26	0.24474391
120	0x3e07e7fa	0.13272086
121	0x3d627430	0.055286586
122	0x3cbcf390	0.023065358
123	0x3e7538e2	0.2394748
124	0x3c895d90	0.016768247
125	0xbd98503c	-0.074371785
126	0xbe2bbfa4	-0.16772324
127	0x3dc6aab4	0.09700528
128	0xbdf1378c	-0.11778173
129	0x3cd86380	0.026414633
130	0xbe021d9a	-0.12706605
131	0x3d8c0754	0.06837335
132	0xbda44fb4	-0.08023015
133	0x3db67ad0	0.089101434
134	0x3e767662	0.24068597
135	0x3cddab40	0.027059197
136	0xbdab4a30	-0.083637595
137	0x3e6c78ba	0.23092929
138	0xbd89aac8	-0.06722027
139	0x3e1948e6	0.14969215
140	0xbdbd1644	-0.092327625
141	0xbdd5aba0	-0.104331255
142	0xbddf7674	-0.10911265
143	0xbe074d64	-0.13213116
144	0xbdad9790	-0.08476174
145	0x3d262398	0.04056129
146	0x3e2cf636	0.16890797
147	0xbe712b3e	-0.23551652
148	0xbd379968	-0.044824034
149	0x3b21c480	0.0024683774
150	0xbb63a300	-0.0034734607
151	0xbd4a10e8	-0.04933253
152	0xbde92d68	-0.11385614
153	0x3e1efed2	0.15526894
154	0xbdbd7c44	-0.092522174
155	0x3d770e58	0.060316414
156	0x3e207892	0.15670994
157	0xbd8472f0	-0.06467235
158	0x3d90e5bc	0.07075068
159	0xbe5abbda	-0.21360722
160	0xbe43a4dc	-0.19105858
161	0xbd6cf438	-0.057850093
162	0xbe1236ac	-0.14278668
163	0xbd5a1ec8	-0.05325201
164	0x3ca72240	0.020402074
165	0xbca4b130	-0.02010402
166	0x3e7465ce	0.2386696
167	0x3e1cc44a	0.15309253
168	0xbe45471e	-0.1926541
169	0x3d9e4a40	0.07729006
170	0xbe343308	-0.17597592
171	0xbd06c8a8	-0.032906204
172	0x3d317d80	0.043332577
173	0x3d9cd070	0.07656944
174	0x3dd0aee4	0.10189608
175	0x3e0c42e4	0.13697392
176	0xbe580d18	-0.21098745
177	0x3cdfd390	0.02732256
178	0x3e23cd9c	0.15996403
179	0xbe4ea2e4	-0.20179325
180	0x3e464700	0.19363022
181	0xbe7bc800	-0.24588013
182	0xbdef2ea8	-0.11678821
183	0x3da1d294	0.07901493
184	0xbdc41364	-0.09574011
185	0x3daee00c	0.08538827
186	0x3d58b7f0	0.05290979
187	0xbe250c62	-0.16118005
188	0x3cb05250	0.021523625
189	0xbd1409d0	-0.03614217
190	0xbd6c1f48	-0.05764702
191	0xbd980a5c	-0.07423851
192	0xbe6e4334	-0.23267823
193	0x3e0422cc	0.12903899
194	0x3d64c800	0.055854797
195	0x3d311cb8	0.04324028
196	0x3e2eef6e	0.17083523
197	0xbe4ab26a	-0.19794622
198	0x3dcc0920	0.09962678
199	0x3ccc67c0	0.024951816
200	0x3e520f98	0.20513761
201	0x3df67f04	0.12035945
202	0xbe0e07c2	-0.13870147
203	0x3defa558	0.11701459
204	0xbe03fb96	-0.12888941
205	0x3e7528a0	0.23941278
206	0xbe3ffb84	-0.1874829
207	0xbe1c2832	-0.15249708
208	0xbc7ce440	-0.015435278
209	0x3dc57434	0.096413046
210	0x3d68c028	0.05682388
211	0x3dc256e0	0.09489226
212	0xbe2f687e	-0.17129704
213	0x3e414102	0.18872455
214	0x3b96dc40	0.0046038926
215	0x3dbb0d24	0.09133366
216	0xbe1239a0	-0.14279795
217	0x3e780b22	0.24222997
218	0x3de7d260	0.11319423
219	0x3e1c8f2e	0.15288994
220	0xbdce8b34	-0.10085145
221	0x3dde2f48	0.10848862
222	0xbd81e63c	-0.06342742
223	0xbd467cc8	-0.048458844
224	0x3da4f31c	0.08054182
225	0x3e131288	0.14362538
226	0x3e09a09a	0.13440171
227	0xbe1b2990	-0.15152574
228	0x3e4ecd2c	0.20195454
229	0x3e09ba04	0.13449866
230	0xbe439cc0	-0.19102764
231	0x3e04dc26	0.12974605
232	0xbe1eb20c	-0.15497607
233	0xbd93c05c	-0.07214424
234	0xbdc49360	-0.09598422
235	0xbe3007f0	-0.17190528
236	0x3d4e4660	0.050360084
237	0x3cb86440	0.02250874
238	0x3e37851e	0.17921874
239	0xbe5295e6	-0.20564994
240	0xbe2fdc34	-0.17173845
241	0x3cdbf150	0.026848465
242	0x3e4c4c94	0.19951087
243	0x3e79eaa6	0.24405918
244	0x3e1d6faa	0.15374628
245	0xbb5dd800	-0.003385067
246	0x3e423eb0	0.18969226
247	0xbdca455c	-0.098765105
248	0x3e5b597a	0.21420851
249	0xbdd8168c	-0.105511755
250	0xbe75a7d0	-0.23989797
251	0x3e6e8b14	0.23295242
252	0x3df52384	0.11969665
253	0xbe430080	-0.1904316
254	0xbe2cb2ce	-0.16865084
255	0x3d732b98	0.059367746

model.feature.0.bias f4 [128]
0	0xbd641690	-0.05568558
1	0x3e427128	0.18988478
2	0xbe4c9200	-0.1997757
3	0x3e2f7300	0.17133713
4	0x3d38e068	0.045135885
5	0x3e202c88	0.15641987
6	0x3df4a05c	0.119446486
7	0x3e0b3a90	0.13596559
8	0x3a13a000	0.0005631447
9	0x3e1135a8	0.14180624
10	0xbc6b4600	-0.014359951
11	0x3e6ecf24	0.23321205
12	0xbce5f2c0	-0.028069854
13	0xbd290ff8	-0.041274995
14	0xbe6cc57a	-0.23122206
15	0x3d0bba48	0.0341132
16	0xbd6fdb60	-0.05855882
17	0x3e1ab464	0.15107876
18	0x3e5db3f8	0.21650684
19	0xbe38bd54	-0.18040973
20	0x3e0127c0	0.1261282
21	0x3e26180e	0.16220114
22	0xbe44529c	-0.19172138
23	0x3d118430	0.035526454
24	0x3d4ead70	0.05045837
25	0x3e1b5314	0.1516841
26	0xbd176360	-0.036960006
27	0x3dd83114	0.10556236
28	0x3e74f902	0.23923114
29	0x3e2c7fbc	0.16845602
30	0x3e7b7d0c	0.2455942
31	0x3d8226a0	0.063550234
32	0x3da2d35c	0.0795047
33	0x3d98cb28	0.07460624
34	0xbb97bf80	-0.004630983
35	0xbe7f4834	-0.24929887
36	0xbddf0178	-0.10888952
37	0xbd5f7b50	-0.05456096
38	0x3d759e98	0.0599657
39	0xbe2b3c2e	-0.16722175
40	0x3db2d794	0.087325245
41	0x3e693e78	0.22777736
42	0xbe702f98	-0.23455656
43	0x3d8f5b10	0.06999791
44	0x3e32caaa	0.17460123
45	0xbe6ed260	-0.23322439
46	0x3d9faaa8	0.07796222
47	0x3e023a14	0.12717468
48	0x3e63b594	0.22237235
49	0xbe6b9ca6	-0.23008975
50	0xbe017aa8	-0.12644446
51	0x3e0d0dbe	0.13774773
52	0x3e2a6dca	0.16643444
53	0x3e277894	0.1635459
54	0x3e6a2b74	0.22868139
55	0xbe5a0ee8	-0.21294749
56	0xbe1256e0	-0.14290953
57	0x3e08f644	0.13375193
58	0x3e203ade	0.15647456
59	0xbdf4efac	-0.11959776
60	0xbda49c4c	-0.08037624
61	0x3d1e01a8	0.0385758
62	0x3e6c4a3e	0.23075196
63	0x3db92404	0.090400726
64	0x3e687b9e	0.22703406
65	0xbd44d810	-0.048057616
66	0x3d4c76b8	0.049917907
67	0x3da0b360	0.07846713
68	0xbd95c678	-0.073132455
69	0x3e0faa42	0.14029792
70	0x3d81d1d0	0.06338847
71	0xbd8c7ed8	-0.06860131
72	0xbd12ec30	-0.035869777
73	0xbe0cf01e	-0.13763472
74	0xbe5096e8	-0.20370066
75	0xbe011ab4	-0.12607843
76	0xbe64a1da	-0.22327366
77	0x3dbc5a54	0.09196916
78	0x3c508de0	0.012729138
79	0xbdc4d1c4	-0.09610322
80	0x3d600fb8	0.05470249
81	0xbb8105c0	-0.003937453
82	0x3e190124	0.14941841
83	0x3e7b626e	0.24549267
84	0x3e5d4882	0.21609691
85	0xbe6807d2	-0.22659233
86	0xbcf88f40	-0.030341744
87	0x3e612ec0	0.2199049
88	0xbde42fe8	-0.1114195
89	0xbe4ec072	-0.201906
90	0xbd3de7c0	-0.046363592
91	0xbd29a980	-0.041421413
92	0xbe274650	-0.16335416
93	0xbe6166f2	-0.22011927
94	0x3e42b6b2	0.19015005
95	0xbd231e78	-0.03982398
96	0xbe3ba44c	-0.18324393
97	0xbdb302f8	-0.087408006
98	0xbe6803c4	-0.22657686
99	0xbe511750	-0.2041905
100	0xbdc23120	-0.09482026
101	0xbdd95574	-0.10612002
102	0x3e6204b0	0.220721
103	0x3d61c530	0.055119693
104	0xbe143390	-0.14472795
105	0x3df0b4cc	0.11753234
106	0x3e614138	0.21997535
107	0x3d6ad9c8	0.0573366
108	0xbdd135dc	-0.10215351
109	0xbde1fea8	-0.110349
110	0xbe6a7dc2	-0.22899535
111	0xbe7ddccc	-0.24791259
112	0x3d84b230	0.06479299
113	0x3c1f0a00	0.009706974
114	0xbdbe57c0	-0.09294081
115	0x3e2297c6	0.1587821
116	0x3e4d0188	0.20020115
117	0xbe69e92c	-0.22842854
118	0x3d9e0b78	0.07717031
119	0xbdcecfe4	-0.10098246
120	0x3b67e580	0.0035384595
121	0xbd839f7c	-0.064269036
122	0xbe77494c	-0.24149054
123	0x3e5b5afe	0.2142143
124	0xbe35e9f0	-0.17765021
125	0x3e257e6a	0.16161504
126	0xbdd3ccac	-0.103417724
127	0x3c81fcf0	0.01586768

exp_avg f4 [4]
0	0x3c8433f8	0.016138062
1	0xbd05a657	-0.032629337
2	0xbc9a236c	-0.018815719
3	0xbd01034e	-0.031497292

exp_avg_sq f4 [4]
0	0x3b517145	0.0031958383
1	0x3beaac16	0.0071616275
2	0x3a5a0a84	0.0008317607
3	0x3b4a54ec	0.0030873371

exp_avg f4 [4, 4]
0	0x3b79e7a2	0.0038132449
1	0x3af0ce63	0.0018372055
2	0x3c01856d	0.007905346
3	0x3b2ec1cf	0.0026665812
4	0xbc50b418	-0.01273825
5	0xbc530a8c	-0.012880933
6	0xba902d7a	-0.0010999881
7	0xbbb1104f	-0.0054035555
8	0xbb5bf5e1	-0.0033563303
9	0xba09641b	-0.0005241052
10	0xbc43a884	-0.011942033
11	0xbb3fe121	-0.0029278474
12	0xbc97de2d	-0.018538559
13	0xbbf44796	-0.007454823
14	0xbb78b7de	-0.003795139
15	0xbadaac16	-0.0016683366

exp_avg_sq f4 [4, 4]
0	0x386d404f	5.6565095e-05
1	0x380097b2	3.0658855e-05
2	0x3a597cd1	0.0008296492
3	0x39b4d5ae	0.0003449148
4	0x3a1801cc	0.00057986076
5	0x39fae041	0.00047850798
6	0x3a75cf68	0.0009376914
7	0x399c001d	0.00029754723
8	0x37a4eb14	1.965979e-05
9	0x354611eb	7.378682e-07
10	0x39b72cf6	0.00034937978
11	0x381aa20d	3.6867383e-05
12	0x3a409e8f	0.0007347846
13	0x39ed4c95	0.0004526122
14	0x380eb2b7	3.402188e-05
15	0x369a61ae	4.600929e-06

exp_avg f4 [8]
0	0x3dd06542	0.101755634
1	0xb330260a	-4.101279e-08
2	0xbaaae77e	-0.0013038961
3	0xbe812ed8	-0.2523105
4	0xbd378eb4	-0.044813827
5	0xb3784196	-5.780165e-08
6	0x3df89890	0.12138474
7	0x3e69d9d9	0.22837009

exp_avg_sq f4 [8]
0	0x3d4b1dc1	0.049588922
1	0x32a7eb8e	1.9548477e-08
2	0x3bb08bd3	0.005387762
3	0x3e38807d	0.18017764
4	0x3d33b827	0.043876793
5	0x3273fb0f	1.4201546e-08
6	0x3d942a00	0.07234573
7	0x3e4c7683	0.19967084

exp_avg f4 [8, 4]
0	0x3b99110a	0.0046712207
1	0x3cfa4e72	0.030554984
2	0x39a253b4	0.00030961412
3	0x3b23112e	0.0024882066
4	0x31d97a4b	6.3294343e-09
5	0xb313a983	-3.4380275e-08
6	0x3292d364	1.7092766e-08
7	0xb3148b7e	-3.4585803e-08
8	0xbb4c71e0	-0.0031195804
9	0xbb383d0f	-0.0028112566
10	0xb9ee64ed	-0.00045470093
11	0xb96b5025	-0.00022441203
12	0xbc2be168	-0.010490753
13	0xbda5f284	-0.08102897
14	0xba582cd4	-0.0008246426
15	0xbbe6ff15	-0.007049451
16	0xbbcef203	-0.006315471
17	0xbb9794d1	-0.0046258946
18	0xb9ea503c	-0.00044691737
19	0xb80fe7e0	-3.4309807e-05
20	0xb2f8dbdc	-2.897098e-08
21	0xb3814959	-6.0203725e-08
22	0xb21efe08	-9.25457e-09
23	0xb34221f1	-4.5200014e-08
24	0x3c296548	0.010339089
25	0x3d13d8fe	0.03609561
26	0x3a8e449d	0.0010854189
27	0x3b505342	0.0031787907
28	0x3c6b7fcc	0.014373731
29	0x3d8712d0	0.06595385
30	0x3aa825f2	0.0012828691
31	0x3b885676	0.0041606976

exp_avg_sq f4 [8, 4]
0	0x39c67575	0.00037853015
1	0x3b17de29	0.002317319
2	0x3607fd63	2.0264058e-06
3	0x374958f7	1.2001247e-05
4	0x2ef8d3c0	1.1315349e-10
5	0x309540a7	1.0859552e-09
6	0x2b3ec107	6.776944e-13
7	0x2cda92f7	6.212249e-12
8	0x3888d5f2	6.524836e-05
9	0x39bed564	0.00036398612
10	0x34e46b8e	4.2546566e-07
11	0x363e6785	2.8372463e-06
12	0x39911565	0.00027672495
13	0x3c844d1c	0.01615005
14	0x359d185b	1.17045e-06
15	0x38f779ab	0.0001180054
16	0x3a8492c9	0.0010114546
17	0x395e6da1	0.0002121241
18	0x36c8de56	5.986348e-06
19	0x32b41bea	2.0967452e-08
20	0x2f306615	1.6043374e-10
21	0x3022f4ab	5.928295e-10
22	0x2b92a417	1.0419468e-12
23	0x2c260f51	2.3598521e-12
24	0x39e2c480	0.00043252483
25	0x3b96fd08	0.0046078004
26	0x362a42ce	2.537086e-06
27	0x37f106ef	2.8732667e-05
28	0x3a57ff30	0.0008239625
29	0x3c4bd17f	0.0124400845
30	0x368f587d	4.2720335e-06
31	0x38208630	3.8271945e-05

exp_avg f4 [16]
0	0xbe21e0f9	-0.15808477
1	0xb09c713f	-1.138268e-09
2	0xbdba7c01	-0.09105683
3	0xb344ba97	-4.580451e-08
4	0x3d4426a9	0.04788843
5	0x3e53bcef	0.20677541
6	0xbe5c3c22	-0.21507314
7	0x3c25d324	0.010121141
8	0x3e1dbf96	0.15405115
9	0xb31d0157	-3.655563e-08
10	0xbdbdcb48	-0.092672884
11	0x3d090ec3	0.033461343
12	0x3e140f78	0.14459026
13	0xbde4063f	-0.11134004
14	0x3be3fc67	0.006957579
15	0x3e7affec	0.24511689

exp_avg_sq f4 [16]
0	0x3e01cfb5	0.1267689
1	0x28dd495c	2.4567743e-14
2	0x3d9c5ae2	0.07634522
3	0x2edd6985	1.00686605e-10
4	0x3c42c3cb	0.011887501
5	0x3e514e1c	0.20439953
6	0x3e2c8555	0.16847737
7	0x3cdd7da2	0.027037445
8	0x3dc162ad	0.09442649
9	0x3289d1f0	1.6044368e-08
10	0x3c88f40b	0.016717931
11	0x3bc6f616	0.006071816
12	0x3d8603d3	0.06543698
13	0x3dd5a1cf	0.10431253
14	0x3a8b2e29	0.0010618615
15	0x3e324183	0.17407803

exp_avg f4 [16, 8]
0	0xbce8b3fb	-0.028406134
1	0xb2ec299b	-2.7492936e-08
2	0xbc27268b	-0.01020206
3	0xbce50c0c	-0.027959846
4	0xbb344be9	-0.0027511066
5	0x3377e7e5	5.7720076e-08
6	0xbcacf5cd	-0.0211133
7	0xbb83897e	-0.004014193
8	0x2c057ac5	1.8968588e-12
9	0x280c113b	7.7752974e-15
10	0x2b9c077d	1.1086545e-12
11	0xabc04d7b	-1.3663926e-12
12	0xaa1cf965	-1.394211e-13
13	0x83c8b7d4	-1.1797148e-36
14	0xac05d10a	-1.9016477e-12
15	0x2aa9536c	3.0078316e-13
16	0xbc820064	-0.015869327
17	0xb28497da	-1.5435877e-08
18	0xbbd08bca	-0.0063643204
19	0xbc780448	-0.0151377395
20	0xbb3d937e	-0.0028927024
21	0x33db71b6	1.0218666e-07
22	0xbc463e46	-0.012099808
23	0xbb207b92	-0.0024487716
24	0xb3102ee4	-3.357026e-08
25	0x29f45c87	1.08518277e-13
26	0xb194e2d7	-4.3331556e-09
27	0xb3179fdf	-3.530283e-08
28	0xb1ac0b5b	-5.00715e-09
29	0x2618d6c5	5.302666e-16
30	0xb2d7ff12	-2.5145287e-08
31	0xb1c7f026	-5.818964e-09
32	0x3c065053	0.008197862
33	0x338cc2e3	6.554708e-08
34	0x3aeb767b	0.0017964387
35	0x3c071b17	0.008246205
36	0x3a0b1e5d	0.00053069537
37	0xb2fead51	-2.9648307e-08
38	0x3bc10bbe	0.0058912924
39	0x3ac17c7e	0.0014761833
40	0x3d150922	0.036385663
41	0x32da0110	2.5379023e-08
42	0x3c549e4c	0.012977194
43	0x3d107e16	0.035276495
44	0x3b9e38b6	0.004828538
45	0xb3a669f6	-7.7492516e-08
46	0x3cdee3ea	0.027208287
47	0x3bb6fb3b	0.005584148
48	0xbd13b930	-0.03606528
49	0xb2a6e606	-1.9429546e-08
50	0xbc5976d6	-0.013272962
51	0xbd0ccec1	-0.034376863
52	0xbbb83706	-0.0056217937
53	0x339d848d	7.334993e-08
54	0xbcddfed6	-0.027099054
55	0xbbc15e8d	-0.005901164
56	0x3a67a6c1	0.0008836799
57	0x32741f1e	1.42097445e-08
58	0x39e07674	0.00042812864
59	0x3a92474e	0.0011160166
60	0x39a5b5ae	0.00031606614
61	0xb3aa8b3b	-7.941568e-08
62	0x39d368da	0.00040323177
63	0x3932f90f	0.00017068184
64	0x3cd80ede	0.026374277
65	0x32cd2daf	2.3885915e-08
66	0x3c21dbb9	0.009879046
67	0x3cd034ac	0.02541574
68	0x3b76b2e2	0.0037643244
69	0xb3a29c9f	-7.572202e-08
70	0x3ca2296f	0.019795148
71	0x3b8654b2	0.004099452
72	0xb322bb00	-3.788864e-08
73	0xa9a0f73c	-7.148316e-14
74	0xb359c264	-5.0701047e-08
75	0xb3102c19	-3.356772e-08
76	0xb3538e09	-4.9256446e-08
77	0xa83afb21	-1.0379529e-14
78	0xb3212fd7	-3.7529244e-08
79	0xb331c5b1	-4.1390823e-08
80	0xbc89c8cf	-0.016819386
81	0xb2c2bd3b	-2.2670624e-08
82	0xbb72c473	-0.0037043362
83	0xbc94f94f	-0.018185286
84	0xb9afb414	-0.0003351277
85	0x3381cc0c	6.0441465e-08
86	0xbc3ba136	-0.01145201
87	0xbb2091c8	-0.0024500955
88	0x3bc87286	0.006117168
89	0xb369e28c	-5.4455583e-08
90	0x3b2e9cce	0.0026643756
91	0x3bc82b26	0.0061086593
92	0x3a95b658	0.001142214
93	0xb349400d	-4.6857213e-08
94	0x3b977dd7	0.0046231556
95	0x3a3f1785	0.00072895765
96	0x3cd1c6fe	0.025607582
97	0x3083b885	9.583948e-10
98	0x3c0b7793	0.008512395
99	0x3ccdfe95	0.025145808
100	0x3b28cac8	0.0025755633
101	0xb3433b1a	-4.5455728e-08
102	0x3c9ad763	0.018901533
103	0x3b7fc70f	0.003902856
104	0xbc783473	-0.015149224
105	0xb2bbc7ab	-2.1860464e-08
106	0xbbad7e13	-0.0052945702
107	0xbc50b87a	-0.012739295
108	0xbb805023	-0.003915803
109	0x33ca2837	9.413673e-08
110	0xbc402950	-0.0117286
111	0xbb73d41e	-0.003720529
112	0x3aa1f0ac	0.0012355051
113	0x337b2e91	5.8482843e-08
114	0x39ed2200	0.00045229495
115	0x3ab173ab	0.00135385
116	0x37b75a5b	2.1857375e-05
117	0x336da067	5.5326748e-08
118	0x3a77a6bc	0.00094471476
119	0x392cd51f	0.00016482592
120	0x3d2a8699	0.04163227
121	0x32ffcc07	2.9778688e-08
122	0x3c4d558a	0.012532601
123	0x3d2c8311	0.042117182
124	0x3b575855	0.0032859046
125	0xb32a824e	-3.969972e-08
126	0x3cf3771b	0.02971988
127	0x3bd467af	0.0064820866

exp_avg_sq f4 [16, 8]
0	0x3b35bd3b	0.0027731198
1	0x2fdf1898	4.0580939e-10
2	0x39b1ec56	0.00033936155
3	0x3b298775	0.0025868092
4	0x3936018d	0.0001735745
5	0x2fb43438	3.2778913e-10
6	0x3ac405cf	0.0014955344
7	0x38e7d015	0.00011053697
8	0x25f540e9	4.254471e-16
9	0x1dad036b	4.5796253e-21
10	0x255486fe	1.8433806e-16
11	0x2588c439	2.3725205e-16
12	0x25082f6d	1.1812188e-16
13	0x00000000	0.0
14	0x25b0a313	3.0641637e-16
15	0x23dd77eb	2.4011655e-17
16	0x3a999e12	0.0011720082
17	0x2f2d9101	1.5785774e-10
18	0x3993766a	0.0002812625
19	0x3a54ef4f	0.0008122818
20	0x39922d8e	0.0002788123
21	0x2f558119	1.9418102e-10
22	0x3a40bd27	0.00073524046
23	0x389fec9c	7.625783e-05
24	0x2bdf96c8	1.5886953e-12
25	0x21b7a82e	1.2445079e-18
26	0x29669d80	5.120687e-14
27	0x2c1c81b5	2.2240935e-12
28	0x29647fea	5.0737118e-14
29	0x1b9fc034	2.6428552e-22
30	0x2b1e9f26	5.635374e-13
31	0x298ace74	6.164245e-14
32	0x394ac6fc	0.00019338349
33	0x2db25055	2.0271932e-11
34	0x37bf04b8	2.2771172e-05
35	0x3933f678	0.00017162587
36	0x37a82480	2.0044157e-05
37	0x2d49ef68	1.1478686e-11
38	0x38d37c8a	0.00010084461
39	0x373b59a4	1.116694e-05
40	0x3b860f3d	0.004091172
41	0x300bba1b	5.0832377e-10
42	0x3a0a38fb	0.0005272773
43	0x3b6e4ea1	0.0036362784
44	0x39a2ea21	0.00031073487
45	0x2fece529	4.3090978e-10
46	0x3b12aa59	0.0022379367
47	0x394037f3	0.0001833139
48	0x3b6ba281	0.0035955014
49	0x30027ca0	4.747083e-10
50	0x39f91f39	0.00047516244
51	0x3b56279a	0.0032677413
52	0x39821880	0.00024813786
53	0x2fb5c21d	3.3061634e-10
54	0x3b00f931	0.001967978
55	0x39198f96	0.00014644707
56	0x39b25a4f	0.0003401809
57	0x2e023132	2.9602272e-11
58	0x38f99fe5	0.00011903028
59	0x3942a009	0.000185609
60	0x391ddd45	0.00015055116
61	0x2eb2008d	8.094601e-11
62	0x397bb721	0.00024005446
63	0x37f94183	2.971362e-05
64	0x3b1de8b0	0.0024094991
65	0x2f88a702	2.4856922e-10
66	0x39974b5d	0.00028857114
67	0x3b1dd061	0.0024080502
68	0x38c63d9b	9.452851e-05
69	0x2f3008a7	1.601018e-10
70	0x3aa7179d	0.0012748126
71	0x38982726	7.255217e-05
72	0x2fa63546	3.0233077e-10
73	0x216a1770	7.9313303e-19
74	0x2e57feba	4.9111583e-11
75	0x2f8122b2	2.3489616e-10
76	0x2e061bc0	3.049272e-11
77	0x201edb99	1.3455779e-19
78	0x2f422dfc	1.7660534e-10
79	0x2d81a9ad	1.4740953e-11
80	0x3a060f9e	0.00051140215
81	0x2e3dbefd	4.3143256e-11
82	0x37d7214e	2.5645506e-05
83	0x3a1d9f1b	0.0006012783
84	0x348d4aa4	2.6317605e-07
85	0x2e13c517	3.359898e-11
86	0x397b2164	0.00023949664
87	0x37482744	1.1930071e-05
88	0x38d45277	0.00010124308
89	0x2d6ed3c8	1.3575759e-11
90	0x379d44e3	1.8747936e-05
91	0x38b0d4f0	8.431997e-05
92	0x379d3e68	1.8744919e-05
93	0x2ded13a5	2.6952504e-11
94	0x38727919	5.7810077e-05
95	0x36c4401b	5.848718e-06
96	0x3abba54e	0.0014316232
97	0x2f7d5a42	2.3042282e-10
98	0x3928f853	0.00016114236
99	0x3ab11eee	0.0013513246
100	0x38aafe1f	8.1535654e-05
101	0x2f396644	1.6861984e-10
102	0x3a478a6f	0.0007611876
103	0x386d43e7	5.6568442e-05
104	0x3a981878	0.0011603972
105	0x2f7b4cfc	2.2855667e-10
106	0x399224a9	0.00027874604
107	0x3a28a4c0	0.0006433241
108	0x39cdaca6	0.0003922928
109	0x2fa40594	2.983539e-10
110	0x3a422f17	0.00074075296
111	0x38fb6d8d	0.00011989018
112	0x380923b9	3.2696615e-05
113	0x2c3907f0	2.6294487e-12
114	0x360fa016	2.1401843e-06
115	0x3819b509	3.6646645e-05
116	0x33858327	6.2171516e-08
117	0x2c1986db	2.1817468e-12
118	0x3786ce85	1.6070213e-05
119	0x355ed075	8.300479e-07
120	0x3b80fa20	0.003936067
121	0x30069330	4.895808e-10
122	0x39c7f8d6	0.00038141635
123	0x3b82fcd9	0.003997427
124	0x383e6fcd	4.5403653e-05
125	0x2fdda4cc	4.031676e-10
126	0x3afedbf4	0.0019444213
127	0x3908d83f	0.00013050529

exp_avg f4 [128, 16]
0	0x3c4202bf	0.011841475
1	0x2c3e3791	2.703147e-12
2	0x3b49a826	0.003077039
3	0xacebb17b	-6.698806e-12
4	0x3c232a1e	0.009958772
5	0x3b4ec76c	0.003155197
6	0x3b9b3b49	0.004737292
7	0x3c866d40	0.016409516
8	0x3c045aa3	0.00807825
9	0xb2ea69f7	-2.7289373e-08
10	0x3b4ef098	0.003157651
11	0x3c3fae10	0.011699215
12	0x3b9a3a8e	0.0047066873
13	0x3a68c998	0.00088801375
14	0x3b4daf5a	0.0031385035
15	0x3a385090	0.0007031048
16	0xbb89e902	-0.004208685
17	0xab371dee	-6.5056196e-13
18	0xba8e6a46	-0.0010865412
19	0x2c985dc8	4.3305116e-12
20	0xbb67427e	-0.0035287435
21	0xba93823e	-0.0011254025
22	0xbadd257d	-0.0016872134
23	0xbbbf4ea1	-0.0058382307
24	0xbb3bf7c7	-0.0028681622
25	0x32c47166	2.286897e-08
26	0xba915e62	-0.001109075
27	0xbb87e9ad	-0.0041477294
28	0xbad8f54a	-0.0016552594
29	0xb99b5b7c	-0.00029632065
30	0xba90d90b	-0.0011051012
31	0xb98351d7	-0.00025047243
32	0x3bbeeb63	0.0058264
33	0xaa913d94	-2.5799903e-13
34	0x3ac4152c	0.0014959923
35	0x2c4881b9	2.849372e-12
36	0x3ba0aa4b	0.004903113
37	0x3acce77a	0.001563295
38	0x3b18a0bd	0.0023289167
39	0x3c043dc5	0.008071368
40	0x3b825980	0.0039779544
41	0xb2ccc465	-2.3838036e-08
42	0x3acfa360	0.0015841536
43	0x3bbc4a7d	0.0057461844
44	0x3b158be3	0.0022818975
45	0x39dfa3a7	0.00042655805
46	0x3ac6f309	0.0015178631
47	0x39aaba57	0.0003256376
48	0xb0cbcfd1	-1.4829259e-09
49	0x9a7cf3bb	-5.2309262e-23
50	0xb2446431	-1.1431482e-08
51	0x28884ba5	1.5131839e-14
52	0xb0b2c0d1	-1.3006006e-09
53	0xb16152d3	-3.278889e-09
54	0xb1d4f6c6	-6.198067e-09
55	0xb192ede0	-4.2762025e-09
56	0xb212a533	-8.5358804e-09
57	0xa89d588a	-1.74689e-14
58	0xb0ed020f	-1.7244605e-09
59	0xb1d259af	-6.1220002e-09
60	0xb2cdefed	-2.3974247e-08
61	0xb23fd194	-1.1165316e-08
62	0xb10328f2	-1.9086284e-09
63	0x30fb9243	1.8304224e-09
64	0x3a2b2b03	0.00065295416
65	0x2a016df9	1.1495656e-13
66	0xb8199075	-3.661258e-05
67	0xb08f6dea	-1.0435859e-09
68	0x3a6ca5d4	0.0009027396
69	0x3a5b4b26	0.0008365385
70	0x38af3139	8.353819e-05
71	0x3a4796a3	0.0007613694
72	0x3a441de5	0.0007481261
73	0x3300a59b	2.995294e-08
74	0xb7c038cd	-2.2914634e-05
75	0x39d79330	0.0004111766
76	0x3a22eebe	0.0006215385
77	0x3a35fb4c	0.0006942048
78	0xb866f820	-5.5067358e-05
79	0x386b6499	5.6122055e-05
80	0xbbbd2a09	-0.0057728332
81	0xa9b394e3	-7.9750246e-14
82	0xbaa0b21a	-0.001226011
83	0xad67b2b9	-1.3170514e-11
84	0xbba32320	-0.0049785525
85	0xbaded70d	-0.0017001346
86	0xbb08f98f	-0.0020900702
87	0xbbfc6c3f	-0.0077033336
88	0xbb73d65e	-0.003720663
89	0xb13b726b	-2.727712e-09
90	0xbacdf6cf	-0.0015713813
91	0xbbaf4543	-0.005348833
92	0xbaf6c877	-0.0018828054
93	0xba097a7a	-0.00052443857
94	0xbac2fdf8	-0.0014876714
95	0xb9a9f73f	-0.00032418405
96	0x3a1d11ba	0.0005991716
97	0xaa87d39a	-2.4127645e-13
98	0x3927d80b	0.00016006843
99	0xa882c520	-1.4518389e-14
100	0x39f61547	0.0004693663
101	0x39246bb5	0.00015680383
102	0x3979ce43	0.00023823329
103	0x3a50f36b	0.00079708424
104	0x39ca94e1	0.00038639366
105	0xb1978d35	-4.410732e-09
106	0x3923bb76	0.00015614726
107	0x3a10efc2	0.0005528891
108	0x396af57d	0.0002240743
109	0x383cbce9	4.499863e-05
110	0x3912ef0e	0.000140127
111	0x38115918	3.465367e-05
112	0xba897ad1	-0.0010488873
113	0x2a0b7e5b	1.2389518e-13
114	0xb994604e	-0.00028300512
115	0xab8a4440	-9.824433e-13
116	0xba655d28	-0.0008749538
117	0xb98db160	-0.0002702577
118	0xb9d0e3aa	-0.00039842475
119	0xbabb6874	-0.0014298097
120	0xba3a13ff	-0.00070983166
121	0x325c6a9f	1.2829928e-08
122	0xb99f4598	-0.00030378695
123	0xba88afa1	-0.0010428318
124	0xb9d8d9b2	-0.00041360926
125	0xb889c40d	-6.5691864e-05
126	0xb99ba65d	-0.00029687854
127	0xb89106aa	-6.91538e-05
128	0xbab7fbb5	-0.0014036807
129	0x2be0a66b	1.5962348e-12
130	0xba975949	-0.0011546995
131	0xb08d66d4	-1.0288326e-09
132	0xba7d55b1	-0.0009663953
133	0xba2674c4	-0.0006349797
134	0xba99f24b	-0.0011745183
135	0xbaf0d93d	-0.0018375289
136	0xbabe3133	-0.0014510512
137	0x33413d0e	4.4991843e-08
138	0xb9bf2ebf	-0.00036465187
139	0xbaeedf89	-0.0018224578
140	0xbab9198b	-0.0014121992
141	0xba6eae94	-0.00091049937
142	0xb9dc6ac8	-0.00042041228
143	0xb8e8aee8	-0.00011095201
144	0xb08b9e58	-1.0158585e-09
145	0x1a77ef0d	5.1271507e-23
146	0xb23c6cda	-1.096779e-08
147	0x289bfde8	1.7318571e-14
148	0xb06890c8	-8.4606855e-10
149	0xb109a3dd	-2.002927e-09
150	0xb1c3db6c	-5.7001923e-09
151	0xb1866fa7	-3.9126067e-09
152	0xb20f6a93	-8.347928e-09
153	0xab2249bf	-5.7656305e-13
154	0xb09e4445	-1.1515416e-09
155	0xb1c90598	-5.850506e-09
156	0xb2cb3534	-2.3656504e-08
157	0xb2189fb5	-8.883878e-09
158	0xb0afde0a	-1.2796033e-09
159	0x3110f59c	2.109437e-09
160	0xb35981ca	-5.0642292e-08
161	0x9b122c0b	-1.2091068e-22
162	0xafe1d6e8	-4.1079962e-10
163	0xa9039883	-2.9220126e-14
164	0xb350d5c8	-4.8623207e-08
165	0xb26e687a	-1.38771785e-08
166	0xb2ac0db3	-2.0029665e-08
167	0xb33fe8fd	-4.4682555e-08
168	0xb2b3d0db	-2.0933319e-08
169	0x2a62d0d5	2.0145285e-13
170	0xb3264ae5	-3.8718003e-08
171	0xb318d7ee	-3.5586645e-08
172	0x324d66be	1.1955931e-08
173	0x31bbc4e8	5.464802e-09
174	0xb311c2a0	-3.3937454e-08
175	0xb093ba8c	-1.0748678e-09
176	0xba938e52	-0.0011257625
177	0xab0e541f	-5.0565276e-13
178	0xba459c63	-0.0007538257
179	0xb24d8d63	-1.1964718e-08
180	0xbaa2221f	-0.0012369788
181	0xbab8fc00	-0.0014113188
182	0xba490ed7	-0.0007669753
183	0xbacdf430	-0.0015713032
184	0xbae7dad1	-0.0017689114
185	0xb24641ea	-1.1540104e-08
186	0xb8982ad5	-7.255903e-05
187	0xbab6e230	-0.0013952907
188	0xbb023787	-0.0019869523
189	0xbac633f1	-0.0015121681
190	0xb86a7fcf	-5.590898e-05
191	0xb8bb4ee6	-8.931551e-05
192	0xba1f0e0b	-0.0006067461
193	0x2af6056f	4.3702149e-13
194	0xb9a5049b	-0.00031474684
195	0xab5b7b6a	-7.79757e-13
196	0xb9e6b79e	-0.00044005824
197	0xb9049809	-0.00012645138
198	0xb9b26905	-0.0003402905
199	0xba73b314	-0.0009296399
200	0xb9f8c690	-0.00047450187
201	0x32ca6784	2.3562968e-08
202	0xb93e58fa	-0.00018152958
203	0xba41404f	-0.00073719484
204	0xb9d40d36	-0.00040445634
205	0xb89bc666	-7.4279305e-05
206	0xb950ce83	-0.00019913357
207	0xb87d45c9	-6.0384893e-05
208	0xbc1f9757	-0.009740672
209	0xac392100	-2.63084e-12
210	0xbb49a1c3	-0.0030766584
211	0xb1483b01	-2.913737e-09
212	0xbc0818a7	-0.008306659
213	0xbb56a41b	-0.0032751623
214	0xbb8c7691	-0.004286595
215	0xbc6159f9	-0.013754361
216	0xbbf5f61f	-0.0075061466
217	0x32725dc0	1.410757e-08
218	0xbb20856f	-0.0024493595
219	0xbc257155	-0.010097821
220	0xbbacab52	-0.0052694464
221	0xbade7acc	-0.0016973852
222	0xbb1e8bd8	-0.002419224
223	0xba21116e	-0.000614426
224	0xbc0c936f	-0.008580073
225	0x2bf916d3	1.7698849e-12
226	0xbb125617	-0.0022329146
227	0x2d1e883e	9.011512e-12
228	0xbbebf27b	-0.007200537
229	0xbb149021	-0.0022668915
230	0xbb636564	-0.0034697885
231	0xbc42cfb5	-0.0118903415
232	0xbbbeafc6	-0.0058192937
233	0x32de1ab4	2.5856345e-08
234	0xbb15da53	-0.0022865727
235	0xbc0accbe	-0.008471666
236	0xbb5f5a92	-0.0034081084
237	0xba22b0ed	-0.00062061736
238	0xbb141aa0	-0.0022598878
239	0xba0350b2	-0.0005009278
240	0xbaf4863b	-0.0018655726
241	0xa943efd3	-4.3506712e-14
242	0xba020f73	-0.00049614086
243	0xabc65946	-1.4093525e-12
244	0xbaccd841	-0.0015628414
245	0xb9fae6c6	-0.00047855655
246	0xba45e0ff	-0.00075484806
247	0xbb28b6a7	-0.0025743635
248	0xbaa84dbf	-0.0012840553
249	0x328efd64	1.6646204e-08
250	0xba01029f	-0.000492135
251	0xbaee1006	-0.0018162734
252	0xba449924	-0.00074996264
253	0xb9139a79	-0.00014076558
254	0xba0134d6	-0.00049288326
255	0xb8ec1918	-0.00011258031
