model/GCN/set1/version_0/checkpoints/epoch=93-step=2632.ckpt (torch, 55393 bytes, 29 tensors)

model.conv1.bias f4 [4]
000000 80 50 4f 3d 5c ba 18 ba 22 67 3b bd 6e 82 9d 3b
       0.05061388 -0.00058261096 -0.045752652 0.004806808

model.conv1.lin.weight f4 [4, 4]
000000 79 cd db be 0d 6a 4d bf 88 86 32 3f 46 d4 a4 be
       -0.429302 -0.80239946 0.6973653 -0.32193202
000010 16 06 3a 3f 7c 4f 3c 3f 5e 74 0e 3e aa fb 30 bf
       0.72665536 0.73558784 0.13911578 -0.6913401
000020 b8 d3 0f bd 22 44 ac be f8 03 5b 3e 70 57 64 be
       -0.03511402 -0.3364573 0.21388233 -0.2229898
000030 e5 ea 8c 3e af 62 8e 3b cf 92 9c be e2 7b 33 bf
       0.2752296 0.00434526 -0.30580756 -0.70110905

model.conv2.bias f4 [8]
000000 ec 3b 16 3c 9a 46 48 b9 db e0 2d bc 70 07 e6 ba
       0.00916956 -0.00019099787 -0.010612692 -0.0017549824
000010 0a 8d 46 3d c7 37 ac 9c a2 24 0f bc bd dc e4 3c
       0.04847435 -1.1396423e-21 -0.008736761 0.027937287

model.conv2.lin.weight f4 [8, 4]
000000 9e af 3e 3e c8 17 05 3f de 8e 05 3c f7 6b b3 be
       0.1862168 0.5198941 0.008151738 -0.35043308
000010 09 9b 33 88 66 4b 78 b8 da d7 00 00 d4 55 25 9e
       -5.4048096e-34 -5.9198028e-05 7.7433e-41 -8.752776e-21
000020 ab 56 0c 3f 93 26 87 3d 55 56 ef 3e 0a 3b 38 3f
       0.54819745 0.06599154 0.46745554 0.71965086
000030 9e f5 80 be f6 c1 1c 3f c0 2c 01 3e 1e e3 33 be
       -0.2518739 0.6123346 0.12614727 -0.17567107
000040 52 5d 29 3f 01 f2 1d bf 8a c6 f6 be 2d 9f 25 3e
       0.6615802 -0.61697394 -0.48198348 0.16174002
000050 0c f4 00 00 91 bd 06 83 70 69 00 00 4d c7 00 80
       8.7548e-41 -3.9596672e-37 3.7824e-41 -7.1496e-41
000060 84 6c d7 3e 75 a8 d5 3e 80 0a f6 bd 3a aa d0 be
       0.42074978 0.41730085 -0.120137215 -0.40754873
000070 40 c5 6f 3d d2 27 55 3c 8e 6c 11 bf ee 93 d7 be
       0.05853772 0.013009982 -0.56806266 -0.4210505

model.conv3.bias f4 [16]
000000 a3 64 ef 3b be 66 9a b9 5b 9d 46 bb a2 f0 6d b9
       0.007305698 -0.00029449718 -0.0030306194 -0.00022691724
000010 9b 61 bc 3c 56 53 d5 3c d7 48 3f bb c1 2b f6 3b
       0.02299576 0.026040714 -0.0029187703 0.00751254
000020 71 5b 83 3a 25 a8 42 b9 71 ad b1 bb 79 0d 5f 3a
       0.0010021758 -0.0001856392 -0.005422287 0.00085087825
000030 49 60 bc 3a d1 5b d7 3c db ab 27 bc 44 41 7a 3c
       0.0014371957 0.026288899 -0.010233845 0.01527435

model.conv3.lin.weight f4 [16, 8]
000000 2d 38 d9 3e 2e 28 00 80 5c 0d 5f 3e a3 25 ff 3e
       0.4242567 -1.4414e-41 0.2178244 0.49833402
000010 fb 86 14 be 03 4e 00 00 fc 50 db be 15 27 a1 3c
       -0.14504616 2.7985e-41 -0.42835224 0.019671956
000020 d9 74 55 b7 c9 39 00 80 52 8a 64 b1 a7 c7 7c b7
       -1.2722995e-05 -2.073e-41 -3.3256993e-09 -1.5066856e-05
000030 9c 08 f4 9d 20 e3 00 00 5c 74 83 b6 19 01 73 a6
       -6.4595164e-21 8.1477e-41 -3.9176502e-06 -8.430905e-16
000040 c8 95 14 bd fc db 00 80 54 2d 4d 3e 72 56 2e 3e
       -0.036275655 -7.8916e-41 0.20036823 0.17025164
000050 fc 40 9e 3e 29 4e 00 80 e7 4b f4 3c 8b d3 86 be
       0.30908954 -2.8039e-41 0.02982135 -0.2633327
000060 29 d9 87 b6 f0 3a 01 00 85 1f bd ae 0b b9 ae b6
       -4.0485943e-06 1.12978e-40 -8.600324e-11 -5.207146e-06
000070 5a 83 fe 92 ec ec 00 80 e7 b5 64 b5 2f 24 86 9f
       -1.6062034e-27 -8.4992e-41 -8.520132e-07 -5.681107e-20
000080 85 2a da 3d 27 26 01 00 3f 44 9c be 36 ad a3 3e
       0.10652641 1.05522e-40 -0.30520818 0.31968087
000090 d8 74 60 bd 61 0d 00 00 e9 51 56 3e 41 a8 b6 bd
       -0.05479893 4.8e-42 0.20929684 -0.08918811
0000a0 37 ff 50 3e 20 c7 00 80 8b 77 e1 bd b9 23 a5 bd
       0.20409857 -7.1433e-41 -0.11009129 -0.08063454
0000b0 23 0f c0 3d 99 ac 00 00 37 e2 41 be c7 cf f1 3e
       0.09377887 6.1916e-41 -0.1893395 0.47228834
0000c0 0c 5d 5d bd 6e 7e 00 00 72 9e 9f 3e 11 9e ad 3e
       -0.054043815 4.5354e-41 0.31175572 0.33909658
0000d0 e8 8c 28 3e 2c c9 00 00 21 37 fa bd e4 6f 93 3c
       0.16460001 7.2167e-41 -0.12217546 0.01799769
0000e0 1f 3b 02 3f 80 6e 01 00 35 60 a6 3e c5 c2 96 3e
       0.5087146 1.31475e-40 0.32495275 0.29445472
0000f0 70 70 e9 be c9 bc 00 80 61 d7 cf 3d 08 62 25 3e
       -0.45593596 -6.7723e-41 0.10148502 0.16150677
000100 ee 53 7e 3c 81 26 00 00 01 5d 23 be ec c8 81 3d
       0.01552294 1.3813e-41 -0.15953447 0.06337151
000110 8e 3d 25 3e 73 cb 00 80 1f c9 f9 3e 18 9c 00 3f
       0.16136762 -7.2984e-41 0.48786256 0.5023818
000120 eb 46 a8 b7 b4 84 01 00 7a cd 9d 37 21 9e 53 b8
       -2.0060184e-05 1.3944e-40 1.8811541e-05 -5.045359e-05
000130 62 9d 01 37 f5 97 00 00 5e bd 86 35 13 ca e3 b5
       7.725643e-06 5.4512e-41 1.0038891e-06 -1.6971629e-06
000140 04 7e f0 be 2b 21 00 80 39 5a 4c be 3e 9e 00 3f
       -0.46971142 -1.1898e-41 -0.19956292 0.5024146
000150 bb 64 b1 be a7 38 00 00 3f 24 e7 3e e8 f4 95 be
       -0.34647164 2.0323e-41 0.4514484 -0.2928841
000160 ba 37 66 3e 80 b8 00 00 dd c5 32 3c f6 70 88 3e
       0.22482195 6.6186e-41 0.010911432 0.26648682
000170 84 61 87 3d f4 35 00 80 8e e1 b3 3e c9 93 dc be
       0.066103965 -1.9355e-41 0.35133022 -0.430815
000180 60 42 9d 3e 83 66 00 80 18 f5 2c 3d 74 e2 e1 be
       0.30714703 -3.6774e-41 0.042225927 -0.44118083
000190 66 78 34 3e 0a 69 00 80 be 4c c6 3e 8c 62 e7 3e
       0.17624053 -3.7681e-41 0.38730425 0.45192373
0001a0 04 dd 8a bd 99 0a 00 80 3f 15 b8 be 20 3d 9c bd
       -0.06780437 -3.802e-42 -0.3595371 -0.07628846
0001b0 4f 1a fe 3e 6d e0 00 00 26 e0 d2 bc da 2a 79 3e
       0.49629447 8.0509e-41 -0.025741648 0.24332753
0001c0 17 38 d9 be 8b 72 00 00 d5 bd 24 3e 5b a9 e5 3e
       -0.42425606 4.109e-41 0.1608804 0.4485577
0001d0 d6 3e ac be 7e 69 01 80 1d 2d 85 3e 08 dd 15 be
       -0.3364169 -1.29679e-40 0.2601098 -0.14635098
0001e0 41 6c 0a ba af 60 00 00 ce 71 ee 3e 5c 3b 53 bd
       -0.00052804133 3.4684e-41 0.465712 -0.05157028
0001f0 70 5c de be 1c 22 00 00 d3 b9 43 be f8 12 0b 3d
       -0.434299 1.2236e-41 -0.19113855 0.033953637

model.fc.0.weight f4 [128, 16]
000000 bd a6 3f 3d 52 17 52 ad 7a a8 f0 bd ff b5 36 b0
       0.046789873 -1.1942296e-11 -0.11750884 -6.6469846e-10
000010 e7 31 1e 3e de 19 bf 3d 11 17 3d be d1 2b 2a be
       0.15448724 0.09331106 -0.1846583 -0.16618277
000020 e3 75 18 3e c9 2d d1 36 fc 55 63 be bb 3b 69 3e
       0.1488872 6.2340155e-06 -0.22200769 0.22776692
000030 73 8f 07 3e 2e 3e b5 3d d8 1e d0 3d 9b 81 55 3e
       0.13238315 0.088497505 0.10162133 0.20850222
000040 97 c7 7e bc 2e a8 9e 0a 48 26 d8 3d 02 9e a5 19
       -0.015550516 1.5278109e-32 0.105541766 1.7124419e-23
000050 4a 6c 52 3d 82 6d b1 bd 25 01 ce 3c ff 3e 7b 3b
       0.051372804 -0.08663465 0.02514703 0.003833711
000060 52 78 11 bd 30 70 b1 b2 39 20 5a 3e 1e 38 a1 3c
       -0.035515137 -2.0656529e-08 0.21301354 0.01968008
000070 4a a2 e5 3d 90 01 13 3e 2d 50 8e 3d a5 7c 9e bd
       0.11212595 0.14356065 0.06948886 -0.07738618
000080 56 e8 be 3d 97 c3 60 9d 48 7d 46 be 2d 11 df a4
       0.09321658 -2.974727e-21 -0.19383729 -9.673993e-17
000090 96 34 27 3e 3b 68 3b 3e 89 e3 80 bd f1 1b 9b 3b
       0.16328654 0.1830148 -0.06293399 0.0047335555
0000a0 56 ec 38 3e 1c 26 3d 34 cb 08 59 3e 8b a0 d5 3d
       0.18058905 1.7615861e-07 0.2119476 0.10431012
0000b0 8f c6 4c be 82 41 26 bd 52 99 4c be c5 d1 d6 bd
       -0.19997619 -0.040589817 -0.19980362 -0.10489229
0000c0 a7 17 17 b6 70 90 01 00 8a 6c a2 ab 31 a5 00 80
       -2.251452e-06 1.4365e-40 -1.1540918e-12 -5.926e-41
0000d0 ae 83 8c b5 e2 43 1d ab b4 7d d4 b0 f7 41 41 b7
       -1.0469137e-06 -5.587181e-13 -1.5460757e-09 -1.1519055e-05
0000e0 02 0c 9e b4 e6 62 01 00 8d d4 76 af 87 f4 1c b6
       -2.943853e-07 1.27314e-40 -2.2449083e-10 -2.3388145e-06
0000f0 34 63 09 af d3 9e 95 00 45 68 cd ab 86 a9 00 80
       -1.2495321e-10 1.3740464e-38 -1.4595067e-12 -6.0814e-41
000100 00 f3 01 bc 17 22 00 00 cb 3a 58 3d 82 b8 00 80
       -0.007931471 1.2229e-41 0.052790444 -6.6189e-41
000110 82 35 86 bc 15 18 ca 3a 3e 4b 9d 3c 39 80 0e bd
       -0.016382936 0.0015418554 0.019200917 -0.03479025
000120 ef ef 24 bc 4c fb 08 ae 4d 00 e3 3c d8 a7 00 3a
       -0.01006697 -3.1146016e-11 0.027710104 0.0004907823
000130 c3 26 b4 3b 23 d2 20 3d 0f 8b 28 3d 78 f4 f9 bc
       0.005497785 0.039262902 0.04114824 -0.03051208
000140 ba f3 61 3e d4 0b 82 2a 6b 87 58 be d4 dc ee 2d
       0.2206563 2.3100846e-13 -0.21145408 2.7155535e-11
000150 ad 0f db ba 1f 37 a7 3b a4 c7 ef 3d d3 ea d0 bc
       -0.0016713046 0.0051030065 0.11708 -0.025502598
000160 43 10 59 bd 36 0a c6 b6 32 79 2e 3e e4 1c 46 be
       -0.052994024 -5.9020485e-06 0.1703842 -0.19346958
000170 b8 98 05 be dc a2 5b 3e cd c3 7a 3e d9 74 8f 3c
       -0.13046539 0.21448845 0.24488755 0.017511772
000180 27 91 58 3e 89 db 00 00 57 ce 53 3e d6 62 00 80
       0.21149121 7.8754e-41 0.20684181 -3.5456e-41
000190 26 9e 7e be de fe 78 3b c8 50 15 3e 1e a3 80 3d
       -0.24865016 0.003799371 0.14581597 0.06281112
0001a0 2b 92 28 bd f7 76 fa 16 bd 3f 98 bd 32 5d b5 bd
       -0.04115502 4.0464756e-25 -0.07434032 -0.08855666
0001b0 be 27 e6 3d dc df 04 bd 5c 5e 14 be 2a bd d7 3d
       0.11238049 -0.03244005 -0.1448912 0.10534127
0001c0 10 3c 80 bc 43 14 00 80 96 43 da bd cc b3 00 00
       -0.01565364 -7.269e-42 -0.10657422 6.4499e-41
0001d0 e5 93 3f 3d 55 82 97 3d eb 47 68 3e e6 09 76 3e
       0.046771903 0.07397906 0.22683685 0.24027213
0001e0 b6 4c dd 3c 5f 74 89 9a fc 02 6e be 01 cf ce bd
       0.027014118 -5.684988e-23 -0.23243326 -0.100980766
0001f0 ab a0 93 3b a7 93 ea 3d d8 5a 56 be 04 95 d3 bd
       0.004505237 0.11453944 -0.20933092 -0.10331157
000200 7b e6 15 be 74 89 27 8b 00 e5 54 3e eb 22 2c 1c
       -0.14638703 -3.2266438e-32 0.20790482 5.6955157e-22
000210 8c bd 47 3e 74 5c c7 bd c3 e0 50 3e 18 35 f8 bd
       0.195059 -0.09734431 0.2039824 -0.12119502
000220 ee ae 78 bd 6b d1 9b b4 7e 52 ce 3d 39 b9 5b be
       -0.0607137 -2.9023371e-07 0.10074328 -0.21457376
000230 11 e8 18 3e bf b1 08 3d 07 e6 45 3e 62 82 af 3d
       0.14932276 0.033372637 0.1932603 0.085697904
000240 1e a8 e5 b4 3e dd 00 80 29 68 2c b5 40 cf 00 80
       -4.2776895e-07 -7.9367e-41 -6.4226566e-07 -7.4347e-41
000250 21 4a e9 b4 d1 e2 aa b1 91 4a 52 b5 61 12 9a b5
       -4.3453568e-07 -4.973437e-09 -7.8339605e-07 -1.1479243e-06
000260 cd 79 e5 b5 10 cc 01 00 e2 0b d7 33 46 27 a9 b5
       -1.7097278e-06 1.6504e-40 1.0013879e-07 -1.2602911e-06
000270 c4 38 1d b6 7b 57 01 36 2c 62 1e b2 c3 8b 2b 34
       -2.3427865e-06 1.9273418e-06 -9.219132e-09 1.5976461e-07
000280 2c e2 69 b5 bb a5 00 00 91 9e ea a8 d6 97 01 00
       -8.712839e-07 5.9453e-41 -2.6047986e-14 1.46304e-40
000290 e5 80 b8 b4 ba 40 0b a8 d0 a8 24 af b4 a8 c9 b6
       -3.4366454e-07 -7.730085e-15 -1.4975687e-10 -6.0099064e-06
0002a0 33 58 9f b3 39 c1 00 00 f3 93 81 ad c1 87 74 b5
       -7.420058e-08 6.9315e-41 -1.4731305e-11 -9.109463e-07
0002b0 c8 83 e5 ac 2a 18 00 00 a4 63 18 a9 9f 26 00 00
       -6.523202e-12 8.668e-42 -3.3837204e-14 1.3855e-41
0002c0 bd 6d 06 bd 86 ee 00 80 c9 1e 5f 3d e2 cb 00 00
       -0.0328195 -8.5566e-41 0.05447272 7.314e-41
0002d0 c0 08 04 3d f7 d9 73 bd 69 de 99 bd d4 91 f5 bd
       0.032234907 -0.05953404 -0.075131245 -0.11990705
0002e0 0f 50 1e 3e 59 d6 4f b2 fb 38 80 3c 72 6d 7d bd
       0.15460227 -1.2097723e-08 0.01565217 -0.061871953
0002f0 79 ff 3c 3d 1a 1e 9a 3d 4a 5b 61 bb 74 8a 32 be
       0.046142075 0.07525273 -0.0034386688 -0.17435628
000300 b0 5a cb bd e3 37 01 80 d4 ca 70 3d a0 f0 00 00
       -0.09929407 -1.11884e-40 0.058787182 8.632e-41
000310 eb c5 ae bc 0e 60 1d be a2 fb 85 3e 2d de e2 bd
       -0.021334609 -0.15368673 0.26168543 -0.11077533
000320 4c 2f 53 3e c8 cd eb 2e 87 db 7d 3d 7b 1f 7a bb
       0.20623511 1.0723117e-10 0.061976936 -0.0038165736
000330 e6 23 09 3e 2b 52 3c be 67 65 7b bd 2d 87 b2 bd
       0.133926 -0.1839072 -0.061376 -0.08717189
000340 e0 98 47 3e ea 82 11 29 d5 8d 8b 3e 2a c1 fa 2c
       0.19491911 3.2310018e-14 0.27256647 7.126873e-12
000350 d6 5a db bc f1 9e 0e bd 4b 4c 82 3e 91 02 b9 bb
       -0.026776712 -0.034819547 0.25448832 -0.005646058
000360 94 e4 76 bd 2b 0e 4f 33 ad 0a 5c bd 27 fa 65 be
       -0.060276583 4.820883e-08 -0.05372112 -0.22458707
000370 6b bd e2 bd 48 bf e6 bd 63 1e 6f 3e ee a4 15 3e
       -0.11071285 -0.11266953 0.23351435 0.14613697
000380 91 55 7d bb af 41 0f 28 0c 25 4e 3d 1c ae 50 2c
       -0.0038655738 7.9523375e-15 0.0503283 2.9655228e-12
000390 a0 b2 80 3d 92 71 ee 3d 97 c1 6f be 9e c8 26 3e
       0.0628407 0.116427556 -0.23413692 0.16287467
0003a0 be ff 72 3e 87 46 c3 b5 27 55 3b 3e 18 23 b1 bd
       0.2373037 -1.4549158e-06 0.18294202 -0.08649272
0003b0 d7 e0 aa bd d4 dc 0f 3e b5 7f a0 3d 93 b8 72 bd
       -0.08343666 0.14049083 0.07836858 -0.059258055
0003c0 de 85 f8 bb 7f 8a 00 00 aa 5f 4b be 0c b7 00 80
       -0.0075843176 4.9683e-41 -0.19860712 -6.5665e-41
0003d0 99 28 a3 3d f9 7a 2a 3e b5 d1 0f be 99 e1 44 3e
       0.07966728 0.16648473 -0.1404484 0.19226684
0003e0 e9 70 32 be fb 6e ad a8 66 c2 48 3d 49 4d 51 3e
       -0.17425884 -1.9254988e-14 0.049013518 0.20439638
0003f0 71 cd 16 be 86 e4 0c be 1c 65 57 bd 70 80 62 bd
       -0.14726807 -0.1375905 -0.05258666 -0.05529827

model.fc.0.bias f4 [128]
000000 27 f7 48 3d bc 55 c0 bd ca fb 5e be 1a b1 00 80
       0.049063828 -0.093913525 -0.21775737 -6.3532e-41
000010 21 23 00 bb cb c1 47 bd 3f 04 e3 3d 5f ce 34 be
       -0.0019552188 -0.0487688 0.11084794 -0.1765685
000020 d0 f3 7e 3e ec d1 80 34 64 a1 00 80 77 21 80 bd
       0.24897695 2.3994596e-07 -5.7896e-41 -0.06256383
000030 12 ea 39 be 5d 03 81 3d 09 33 17 bb 1f 14 a0 bd
       -0.18155697 0.062994696 -0.002307119 -0.07816338
000040 4c 65 1f 11 8c c8 33 be db 86 09 be 1a a1 32 be
       1.2574103e-28 -0.17556971 -0.1343035 -0.17444268
000050 59 f5 34 bb e4 e9 39 be df a8 ad 3d a7 03 10 25
       -0.002761206 -0.18155628 0.08479475 1.2491246e-16
000060 3d 3b af 3d 9d 77 ff bd 41 53 3a be ae 82 70 ba
       0.08556221 -0.12473986 -0.18195821 -0.0009174746
000070 b3 6b 8b bd 60 a4 40 3e 86 cd 02 bc 5d 8a 10 80
       -0.06807651 0.18812704 -0.007983571 -1.519003e-39
000080 18 0f 4d be 99 df b2 bc b7 89 57 3c 1e f6 f2 bc
       -0.20025289 -0.021835135 0.013155392 -0.029658373
000090 8c e2 72 07 75 49 11 3d 96 55 93 3b 77 38 f3 bd
       1.8272633e-34 0.035470445 0.0044962866 -0.11876004
0000a0 de 2c 42 bc cb 5d 5c bd 78 21 6f 3d 91 fd 07 be
       -0.0118515175 -0.053800385 0.058381528 -0.13280322
0000b0 0d 18 f3 3d 69 c1 00 80 38 ef 71 3e 8e 2c 19 be
       0.11869822 -6.9382e-41 0.23626411 -0.14958403
0000c0 f1 07 52 3e 4b 7b fe 3d 38 7e 1f bb 5e 4c 26 3e
       0.20510842 0.1242586 -0.0024336707 0.1624007
0000d0 e6 6d 58 be 61 46 a0 bd 64 96 6f 3d 3e 27 d7 bb
       -0.21135673 -0.07825924 0.058493033 -0.0065659573
0000e0 d4 31 f7 3d 95 25 f6 bc 78 40 00 00 96 fe 00 00
       0.12070051 -0.030047217 2.3127e-41 9.1328e-41
0000f0 1a 00 1f bc a0 0b 44 3e d7 ff a7 ae c9 67 d4 bd
       -0.009704614 0.1914506 -7.639727e-11 -0.10371358
000100 79 97 00 80 63 c2 e6 b9 de e2 1a 3e e1 56 3f 3b
       -5.4338e-41 -0.00044013848 0.15125605 0.002919607
000110 b4 ef b0 bd 25 b5 00 00 8a 02 01 80 ac ca 31 bd
       -0.0863947 6.4982e-41 -9.2746e-41 -0.043406174
000120 70 2d dc 3d de 71 8d 3d 44 f6 18 bd d4 ce f3 bb
       0.10750854 0.06906484 -0.037344232 -0.0074404273
000130 d9 5b 1c 3e 18 5a 01 00 f2 c4 6a bd 56 e7 1b 3e
       0.15269412 1.24155e-40 -0.057316728 0.15224966
000140 f0 d3 a9 3c d6 2f 33 be e0 4a f5 bd 2b ad de 3d
       0.020730942 -0.17498717 -0.11977172 0.10872873
000150 b3 bf 11 3e b8 30 40 be d0 94 0f bc 10 fa 00 3e
       0.14233284 -0.18768585 -0.008763507 0.12595391
000160 e3 05 00 00 63 af 0d be ce 79 4b 3c f6 47 f5 39
       2.112e-42 -0.13836436 0.012419177 0.00046783657
000170 cb 5c ff bd 51 53 9b bd fa 0a 00 80 56 43 a5 3c
       -0.12468871 -0.07584251 -3.938e-42 0.02017371
000180 72 03 09 3d 4f 10 00 00 bd a2 84 3d 25 ad 99 3d
       0.03345055 5.85e-42 0.06476352 0.07503728
000190 40 29 00 00 f3 90 00 80 5e e0 5a be 24 e8 4e 3d
       1.4798e-41 -5.1998e-41 -0.21374652 0.050514355
0001a0 5e 02 ea 3d 98 06 d5 3d e8 48 1f 3c 45 77 e4 3b
       0.11426233 0.10401648 0.009721972 0.006972226
0001b0 0e 85 35 3c 86 34 25 3e d8 c6 e9 3d 1b 00 b8 bc
       0.011079086 0.16133317 0.114148796 -0.022460988
0001c0 dd 63 00 00 e8 c1 65 3d a4 65 da 3d 4c 24 31 3d
       3.5824e-41 0.056093127 0.10663918 0.043247506
0001d0 86 9d e1 3d 5f 13 6f 3e 17 24 00 80 ae 31 d1 3d
       0.11016373 0.23347233 -1.2947e-41 0.10214554
0001e0 e2 f7 2d 3d 78 45 d2 3d 04 ab 59 be 91 70 00 00
       0.042472728 0.10267156 -0.21256644 4.0381e-41
0001f0 0f a6 20 be 34 b9 00 80 b6 a1 8e 3c b3 c0 54 3e
       -0.15688346 -6.6438e-41 0.017411094 0.20776634

model.fc.2.weight f4 [1, 128]
000000 c8 a0 b2 3d f5 e6 00 bd 7e 67 32 3d 93 7a 39 b9
       0.08722073 -0.031470258 0.04355573 -0.00017688637
000010 90 c3 39 be c0 9e 9d bd 9b 73 a9 3b f1 61 fa bb
       -0.18141007 -0.07696295 0.005171252 -0.00764107
000020 72 46 cd be f7 6f 90 b6 93 d5 3d b9 13 67 86 be
       -0.40092808 -4.304569e-06 -0.00018104007 -0.26250514
000030 82 b8 df bc f7 1c 7d bd e0 f4 81 bd 99 e4 59 bc
       -0.02730966 -0.0617952 -0.06345534 -0.013299131
000040 5d 96 d3 38 39 4f 57 bd f0 a2 a2 3d 77 72 54 3d
       0.000100892714 -0.052565787 0.07941234 0.051866975
000050 12 3c ff 3a 1c c1 85 bc bb 38 b1 3d 9a 16 52 3a
       0.0019472858 -0.016327433 0.086533986 0.0008014232
000060 6c 84 2d 3e c6 59 77 3d f0 2e 98 be d7 7f b6 bd
       0.16945046 0.06038835 -0.2972331 -0.08911102
000070 1d 8c a1 3b 07 d1 b4 bd 0b de 66 be 1a 19 00 80
       0.004930033 -0.08828931 -0.2254564 -9.005e-42
000080 59 2c bc 3d 22 99 ba bc c5 3f a8 bd c3 d8 4e be
       0.09188146 -0.022778098 -0.08215288 -0.20199876
000090 b0 47 ce b9 dd d7 1b 3d fc 25 8a 3d 8c 9c 8e be
       -0.00039344793 0.03804766 0.06745526 -0.2785381
0000a0 9f 14 d3 3a af e5 8f 3c 5c 7a 12 3d ff 25 80 be
       0.0016104168 0.017565576 0.035761222 -0.2502899
0000b0 11 ce c3 bd 95 1b 39 b9 be 3e 7e 3d 9d 93 d3 3c
       -0.095607884 -0.0001765325 0.062071554 0.025827223
0000c0 1c a9 bc bd a0 a9 54 bd 40 16 00 3d ff 8b 8f 3d
       -0.092119426 -0.05191958 0.03127122 0.07009124
0000d0 d6 8f a6 3c bf 0f 5a be 25 57 f7 bc 35 c4 bb bc
       0.020332258 -0.21295069 -0.030192921 -0.022920707
0000e0 09 51 a1 be 46 65 65 3c e2 ec 41 b9 01 50 18 36
       -0.31507137 0.014001196 -0.0001849416 2.2696333e-06
0000f0 3e f9 5f be 89 54 65 3d 7c 74 7b ba 9e fc ea bd
       -0.21872422 0.055988822 -0.00095922477 -0.11473964
000100 c1 41 3e b9 24 6c 94 ba e8 a8 b9 bd ff 7c 82 bd
       -0.00018144307 -0.0011323732 -0.090654194 -0.06371497
000110 84 ba 77 bd 84 ba 00 80 03 62 bf 92 a9 95 0c bd
       -0.06048061 -6.6909e-41 -1.2077956e-27 -0.034322415
000120 a4 af 50 3d ad eb f7 3c 52 95 87 bd bf 79 1a be
       0.050948754 0.030263746 -0.066202775 -0.15085505
000130 95 aa 80 bd f4 18 01 80 50 e6 a9 bd 78 34 2c 3d
       -0.06282536 -1.00787e-40 -0.08295882 0.042042226
000140 d6 5f 25 bd 55 28 a2 bc ec 88 54 3c 8d 50 6f 3e
       -0.0403746 -0.019794622 0.012972098 0.23370571
000150 5c eb 98 bd 32 13 e3 3c c3 87 85 be 37 e0 b6 bd
       -0.07466766 0.027719114 -0.2608014 -0.08929484
000160 cd c9 8a 38 4c 9d 2a bd 83 48 e3 3d 32 4a 3b bd
       6.617941e-05 -0.041653916 0.11097815 -0.045725055
000170 57 a4 82 be 3a 22 c5 3c 08 58 3e b9 c3 f8 d6 3d
       -0.25516006 0.024064172 -0.00018152606 0.10496666
000180 09 a6 82 bd 9c b7 49 b9 39 d9 6a bd 83 9e 3c 3e
       -0.06379325 -0.00019237254 -0.057336066 0.18419842
000190 64 ec 27 b8 00 dc f2 b8 b3 8e fe bc ca ce 95 3c
       -4.003606e-05 -0.000115804374 -0.031073904 0.018287081
0001a0 fd 53 d7 bc 21 c9 4a 3d 31 cd 3c 3d 14 c1 98 bb
       -0.026285166 0.049508218 0.046094123 -0.0046616886
0001b0 6a 2e 22 be 71 6b 50 3d f9 7d b9 bd e4 d6 74 3d
       -0.15838018 0.050883714 -0.090572305 0.05977525
0001c0 69 a3 0b 39 d2 c5 55 bd ee 3b 56 3d 8c 98 58 3c
       0.00013316948 -0.05219061 0.052303247 0.013219964
0001d0 84 f8 8a be 40 37 a5 3d 35 3e 00 00 a2 f1 82 3d
       -0.27142727 0.08067179 2.2316e-41 0.06393744
0001e0 d7 79 89 be af 11 86 3d 8c 8a 16 bd 25 af 3f b9
       -0.2685077 0.06546342 -0.036753222 -0.00018280426
0001f0 5f 32 8f 3c ee 26 37 b9 f1 e5 3a 3d a8 7c 05 bd
       0.017480073 -0.00017466742 0.045629445 -0.032589585

model.feature.0.weight f4 [128, 16]
000000 14 dc 1d 3e 10 2f f9 3c 94 74 5e 3e 2e 76 18 be
       0.15415984 0.030417949 0.21724159 -0.14888832
000010 04 03 b9 3d e4 0e d3 bd c2 be 44 3e a0 3a b1 3d
       0.09033778 -0.103055745 0.19213393 0.0865376
000020 30 d2 67 bd 88 6e 85 bd 70 ec a5 bc e2 09 49 3e
       -0.056596935 -0.06515223 -0.020254344 0.19632676
000030 e4 58 97 bd 0a 9a 39 3e dc 35 4a be 4c 42 1e be
       -0.073900014 0.18125167 -0.19747108 -0.15454978
000040 f0 7e ab bd de 77 0e 3e f8 06 7f 3d c0 eb be 3b
       -0.08373821 0.13912913 0.062262505 0.0058264434
000050 48 47 4a 3d 8c 83 39 be 64 c3 9f bd a0 b0 ca 3d
       0.049384385 -0.18116587 -0.0780094 0.0989697
000060 10 6e 92 3d ac 04 72 3e 10 43 c2 bc 44 10 b0 3d
       0.07149899 0.23634595 -0.023713619 0.085968524
000070 16 65 1a be 38 7d 4d be 0c 60 47 3e 0e 55 69 3e
       -0.15077624 -0.20067298 0.19470233 0.22786352
000080 68 ae 0c bd 32 32 3d be ce 9d 4d 3e 58 5c 99 bd
       -0.034346014 -0.18476179 0.20079729 -0.07488316
000090 c4 b9 49 be 58 7f 32 3d c0 71 82 bb d8 59 60 bd
       -0.1969977 0.043578476 -0.003980845 -0.05477318
0000a0 ea 67 4b 3e c0 73 b2 bb ac 5d 1a be 9c 85 1c 3e
       0.19863859 -0.0054459274 -0.15074795 0.15285343
0000b0 80 eb 28 bb 50 3e 0b bd 2a 0b 3b be 6c 1e ad bd
       -0.0025775135 -0.033994973 -0.18265978 -0.08453068
0000c0 d6 23 6a be 00 eb 3e 3b d8 5a d6 3d be ae 65 3e
       -0.22865233 0.002913177 0.10466546 0.2242994
0000d0 92 58 31 be 1a 14 36 be 3a 5b 21 3e d0 81 1f be
       -0.17318943 -0.17781106 0.15757456 -0.15576863
0000e0 8c 82 15 be 30 a2 36 3e a4 f6 66 3e e0 f4 34 be
       -0.14600581 0.17835307 0.22555023 -0.17671537
0000f0 1e 8d 2f be 94 74 4e 3e 80 27 47 bb 60 90 16 3c
       -0.17143676 0.20161659 -0.0030388534 0.009189695
000100 aa 89 41 3e 70 08 d4 bc 80 19 08 be f6 dc 3c 3e
       0.18900171 -0.02588293 -0.13290977 0.18443665
000110 b0 c5 8e bd 9c 2e b5 bd 9c 6c a7 3d 40 ec cf bd
       -0.069713 -0.08846781 0.081750125 -0.10152483
000120 38 9e e7 bd c0 be a0 3d 28 44 ab 3d 7a a8 55 3e
       -0.11309475 0.07848883 0.08362609 0.2086505
000130 ec 29 81 3d 00 ac c7 bb 80 09 2a 3d a2 06 3f 3e
       0.06306824 -0.006093502 0.041512966 0.18654874
000140 1e d7 53 3e 98 c9 f7 3d 42 7c 61 3e 2e ce 1d 3e
       0.2068753 0.12098998 0.22020057 0.15410683
000150 54 85 3c 3e 34 f3 55 be c0 15 d5 3d ca 1b 45 be
       0.18410236 -0.20893556 0.10404539 -0.19248882
000160 cc 28 41 be d4 e4 98 3d 60 3b 09 3d b4 b4 64 3e
       -0.18863219 0.074655205 0.03350389 0.22334558
000170 8e dc 38 be 14 09 68 be 44 d9 55 be 10 8b c3 3c
       -0.18052885 -0.22659713 -0.20883662 0.023870021
000180 04 2a 9f 3d 8c df 70 be 70 f8 a2 3d bc bd e4 3d
       0.07771686 -0.23522776 0.07957542 0.111690015
000190 42 e0 4c be 58 88 2f bd 08 80 54 3d d4 95 bb 3d
       -0.20007423 -0.042854637 0.051879913 0.09159437
0001a0 ea 92 44 3e 2e c1 38 be 0e cf 62 be 02 44 03 be
       0.19196668 -0.18042442 -0.22149298 -0.12818912
0001b0 cc 3e d9 bd 74 5c 6d 3e 38 d2 1d 3e 30 3d ab 3d
       -0.10607681 0.231798 0.15412223 0.0836128
0001c0 2c e7 b7 3d 70 aa 07 be 28 0a 9a bd 50 ef f7 bc
       0.089796394 -0.1324861 -0.075214684 -0.03026548
0001d0 a8 2c f2 3d fc 0c b3 bd 20 4e 59 bd 26 9e 7a 3e
       0.11824924 -0.08742711 -0.05305302 0.24474391
0001e0 fa e7 07 3e 30 74 62 3d 90 f3 bc 3c e2 38 75 3e
       0.13272086 0.055286586 0.023065358 0.2394748
0001f0 90 5d 89 3c 3c 50 98 bd a4 bf 2b be b4 aa c6 3d
       0.016768247 -0.074371785 -0.16772324 0.09700528
000200 8c 37 f1 bd 80 63 d8 3c 9a 1d 02 be 54 07 8c 3d
       -0.11778173 0.026414633 -0.12706605 0.06837335
000210 b4 4f a4 bd d0 7a b6 3d 62 76 76 3e 40 ab dd 3c
       -0.08023015 0.089101434 0.24068597 0.027059197
000220 30 4a ab bd ba 78 6c 3e c8 aa 89 bd e6 48 19 3e
       -0.083637595 0.23092929 -0.06722027 0.14969215
000230 44 16 bd bd a0 ab d5 bd 74 76 df bd 64 4d 07 be
       -0.092327625 -0.104331255 -0.10911265 -0.13213116
000240 90 97 ad bd 98 23 26 3d 36 f6 2c 3e 3e 2b 71 be
       -0.08476174 0.04056129 0.16890797 -0.23551652
000250 68 99 37 bd 80 c4 21 3b 00 a3 63 bb e8 10 4a bd
       -0.044824034 0.0024683774 -0.0034734607 -0.04933253
000260 68 2d e9 bd d2 fe 1e 3e 44 7c bd bd 58 0e 77 3d
       -0.11385614 0.15526894 -0.092522174 0.060316414
000270 92 78 20 3e f0 72 84 bd bc e5 90 3d da bb 5a be
       0.15670994 -0.06467235 0.07075068 -0.21360722
000280 dc a4 43 be 38 f4 6c bd ac 36 12 be c8 1e 5a bd
       -0.19105858 -0.057850093 -0.14278668 -0.05325201
000290 40 22 a7 3c 30 b1 a4 bc ce 65 74 3e 4a c4 1c 3e
       0.020402074 -0.02010402 0.2386696 0.15309253
0002a0 1e 47 45 be 40 4a 9e 3d 08 33 34 be a8 c8 06 bd
       -0.1926541 0.07729006 -0.17597592 -0.032906204
0002b0 80 7d 31 3d 70 d0 9c 3d e4 ae d0 3d e4 42 0c 3e
       0.043332577 0.07656944 0.10189608 0.13697392
0002c0 18 0d 58 be 90 d3 df 3c 9c cd 23 3e e4 a2 4e be
       -0.21098745 0.02732256 0.15996403 -0.20179325
0002d0 00 47 46 3e 00 c8 7b be a8 2e ef bd 94 d2 a1 3d
       0.19363022 -0.24588013 -0.11678821 0.07901493
0002e0 64 13 c4 bd 0c e0 ae 3d f0 b7 58 3d 62 0c 25 be
       -0.09574011 0.08538827 0.05290979 -0.16118005
0002f0 50 52 b0 3c d0 09 14 bd 48 1f 6c bd 5c 0a 98 bd
       0.021523625 -0.03614217 -0.05764702 -0.07423851
000300 34 43 6e be cc 22 04 3e 00 c8 64 3d b8 1c 31 3d
       -0.23267823 0.12903899 0.055854797 0.04324028
000310 6e ef 2e 3e 6a b2 4a be 20 09 cc 3d c0 67 cc 3c
       0.17083523 -0.19794622 0.09962678 0.024951816
000320 98 0f 52 3e 04 7f f6 3d c2 07 0e be 58 a5 ef 3d
       0.20513761 0.12035945 -0.13870147 0.11701459
000330 96 fb 03 be a0 28 75 3e 84 fb 3f be 32 28 1c be
       -0.12888941 0.23941278 -0.1874829 -0.15249708
000340 40 e4 7c bc 34 74 c5 3d 28 c0 68 3d e0 56 c2 3d
       -0.015435278 0.096413046 0.05682388 0.09489226
000350 7e 68 2f be 02 41 41 3e 40 dc 96 3b 24 0d bb 3d
       -0.17129704 0.18872455 0.0046038926 0.09133366
000360 a0 39 12 be 22 0b 78 3e 60 d2 e7 3d 2e 8f 1c 3e
       -0.14279795 0.24222997 0.11319423 0.15288994
000370 34 8b ce bd 48 2f de 3d 3c e6 81 bd c8 7c 46 bd
       -0.10085145 0.10848862 -0.06342742 -0.048458844
000380 1c f3 a4 3d 88 12 13 3e 9a a0 09 3e 90 29 1b be
       0.08054182 0.14362538 0.13440171 -0.15152574
000390 2c cd 4e 3e 04 ba 09 3e c0 9c 43 be 26 dc 04 3e
       0.20195454 0.13449866 -0.19102764 0.12974605
0003a0 0c b2 1e be 5c c0 93 bd 60 93 c4 bd f0 07 30 be
       -0.15497607 -0.07214424 -0.09598422 -0.17190528
0003b0 60 46 4e 3d 40 64 b8 3c 1e 85 37 3e e6 95 52 be
       0.050360084 0.02250874 0.17921874 -0.20564994
0003c0 34 dc 2f be 50 f1 db 3c 94 4c 4c 3e a6 ea 79 3e
       -0.17173845 0.026848465 0.19951087 0.24405918
0003d0 aa 6f 1d 3e 00 d8 5d bb b0 3e 42 3e 5c 45 ca bd
       0.15374628 -0.003385067 0.18969226 -0.098765105
0003e0 7a 59 5b 3e 8c 16 d8 bd d0 a7 75 be 14 8b 6e 3e
       0.21420851 -0.105511755 -0.23989797 0.23295242
0003f0 84 23 f5 3d 80 00 43 be ce b2 2c be 98 2b 73 3d
       0.11969665 -0.1904316 -0.16865084 0.059367746

model.feature.0.bias f4 [128]
000000 90 16 64 bd 28 71 42 3e 00 92 4c be 00 73 2f 3e
       -0.05568558 0.18988478 -0.1997757 0.17133713
000010 68 e0 38 3d 88 2c 20 3e 5c a0 f4 3d 90 3a 0b 3e
       0.045135885 0.15641987 0.119446486 0.13596559
000020 00 a0 13 3a a8 35 11 3e 00 46 6b bc 24 cf 6e 3e
       0.0005631447 0.14180624 -0.014359951 0.23321205
000030 c0 f2 e5 bc f8 0f 29 bd 7a c5 6c be 48 ba 0b 3d
       -0.028069854 -0.041274995 -0.23122206 0.0341132
000040 60 db 6f bd 64 b4 1a 3e f8 b3 5d 3e 54 bd 38 be
       -0.05855882 0.15107876 0.21650684 -0.18040973
000050 c0 27 01 3e 0e 18 26 3e 9c 52 44 be 30 84 11 3d
       0.1261282 0.16220114 -0.19172138 0.035526454
000060 70 ad 4e 3d 14 53 1b 3e 60 63 17 bd 14 31 d8 3d
       0.05045837 0.1516841 -0.036960006 0.10556236
000070 02 f9 74 3e bc 7f 2c 3e 0c 7d 7b 3e a0 26 82 3d
       0.23923114 0.16845602 0.2455942 0.063550234
000080 5c d3 a2 3d 28 cb 98 3d 80 bf 97 bb 34 48 7f be
       0.0795047 0.07460624 -0.004630983 -0.24929887
000090 78 01 df bd 50 7b 5f bd 98 9e 75 3d 2e 3c 2b be
       -0.10888952 -0.05456096 0.0599657 -0.16722175
0000a0 94 d7 b2 3d 78 3e 69 3e 98 2f 70 be 10 5b 8f 3d
       0.087325245 0.22777736 -0.23455656 0.06999791
0000b0 aa ca 32 3e 60 d2 6e be a8 aa 9f 3d 14 3a 02 3e
       0.17460123 -0.23322439 0.07796222 0.12717468
0000c0 94 b5 63 3e a6 9c 6b be a8 7a 01 be be 0d 0d 3e
       0.22237235 -0.23008975 -0.12644446 0.13774773
0000d0 ca 6d 2a 3e 94 78 27 3e 74 2b 6a 3e e8 0e 5a be
       0.16643444 0.1635459 0.22868139 -0.21294749
0000e0 e0 56 12 be 44 f6 08 3e de 3a 20 3e ac ef f4 bd
       -0.14290953 0.13375193 0.15647456 -0.11959776
0000f0 4c 9c a4 bd a8 01 1e 3d 3e 4a 6c 3e 04 24 b9 3d
       -0.08037624 0.0385758 0.23075196 0.090400726
000100 9e 7b 68 3e 10 d8 44 bd b8 76 4c 3d 60 b3 a0 3d
       0.22703406 -0.048057616 0.049917907 0.07846713
000110 78 c6 95 bd 42 aa 0f 3e d0 d1 81 3d d8 7e 8c bd
       -0.073132455 0.14029792 0.06338847 -0.06860131
000120 30 ec 12 bd 1e f0 0c be e8 96 50 be b4 1a 01 be
       -0.035869777 -0.13763472 -0.20370066 -0.12607843
000130 da a1 64 be 54 5a bc 3d e0 8d 50 3c c4 d1 c4 bd
       -0.22327366 0.09196916 0.012729138 -0.09610322
000140 b8 0f 60 3d c0 05 81 bb 24 01 19 3e 6e 62 7b 3e
       0.05470249 -0.003937453 0.14941841 0.24549267
000150 82 48 5d 3e d2 07 68 be 40 8f f8 bc c0 2e 61 3e
       0.21609691 -0.22659233 -0.030341744 0.2199049
000160 e8 2f e4 bd 72 c0 4e be c0 e7 3d bd 80 a9 29 bd
       -0.1114195 -0.201906 -0.046363592 -0.041421413
000170 50 46 27 be f2 66 61 be b2 b6 42 3e 78 1e 23 bd
       -0.16335416 -0.22011927 0.19015005 -0.03982398
000180 4c a4 3b be f8 02 b3 bd c4 03 68 be 50 17 51 be
       -0.18324393 -0.087408006 -0.22657686 -0.2041905
000190 20 31 c2 bd 74 55 d9 bd b0 04 62 3e 30 c5 61 3d
       -0.09482026 -0.10612002 0.220721 0.055119693
0001a0 90 33 14 be cc b4 f0 3d 38 41 61 3e c8 d9 6a 3d
       -0.14472795 0.11753234 0.21997535 0.0573366
0001b0 dc 35 d1 bd a8 fe e1 bd c2 7d 6a be cc dc 7d be
       -0.10215351 -0.110349 -0.22899535 -0.24791259
0001c0 30 b2 84 3d 00 0a 1f 3c c0 57 be bd c6 97 22 3e
       0.06479299 0.009706974 -0.09294081 0.1587821
0001d0 88 01 4d 3e 2c e9 69 be 78 0b 9e 3d e4 cf ce bd
       0.20020115 -0.22842854 0.07717031 -0.10098246
0001e0 80 e5 67 3b 7c 9f 83 bd 4c 49 77 be fe 5a 5b 3e
       0.0035384595 -0.064269036 -0.24149054 0.2142143
0001f0 f0 e9 35 be 6a 7e 25 3e ac cc d3 bd f0 fc 81 3c
       -0.17765021 0.16161504 -0.103417724 0.01586768

exp_avg f4 [4]
000000 ad 60 25 3d fc 60 90 bd 5a e1 ae bc 0d bb 83 bd
       0.0403754 -0.07049748 -0.02134769 -0.064321615

exp_avg_sq f4 [4]
000000 32 d1 7e 3c 63 76 11 3d a0 6f 22 3b 6d 1c c5 3c
       0.015552806 0.035513293 0.0024785772 0.024061406

exp_avg f4 [4, 4]
000000 89 4e a6 3b 88 c4 83 3b 15 a0 aa 3c 69 9b 30 3c
       0.00507528 0.004021231 0.020828286 0.01077924
000010 ae fe a4 bc f7 fe c4 bc 8e 5c 62 bc 95 24 47 bc
       -0.020140972 -0.024047358 -0.013816012 -0.012154718
000020 0b cf 5e bb ea b2 17 ba f5 8f 61 bc 78 f5 5d bb
       -0.003399792 -0.0005786853 -0.013767232 -0.0033868235
000030 14 40 f5 bc f0 f6 d9 bc a5 9a b5 bb ef 38 dc ba
       -0.029937781 -0.026607007 -0.0055421167 -0.0016801636

exp_avg_sq f4 [4, 4]
000000 10 fc 17 39 a6 66 15 39 09 e4 89 3b 14 66 db 3a
       0.00014494383 0.00014247987 0.004208092 0.0016738796
000010 27 b9 40 3b 87 c8 29 3b 67 ab 7e 3b 32 8a b2 3a
       0.0029407234 0.0025906877 0.0038859488 0.0013621508
000020 bb 54 9f 38 f8 07 bc 35 46 36 8c 3a d0 92 9e 38
       7.597493e-05 1.4009411e-06 0.0010697327 7.561373e-05
000030 d3 83 a8 3b f5 e9 7a 3b bf ca ac 39 e9 24 9a 37
       0.005142668 0.0038286422 0.00032957454 1.8375418e-05

exp_avg f4 [8]
000000 2e 14 ef 3d 8e 51 a5 b2 a6 c6 fa bd 39 a6 b7 be
       0.11673771 -1.9245615e-08 -0.122449204 -0.35869005
000010 29 59 f2 ba cb 80 65 96 52 dd 63 3e 38 39 b4 3e
       -0.0018489707 -1.8539113e-25 0.22252396 0.35199904

exp_avg_sq f4 [8]
000000 f1 1b 90 3e c9 f2 e3 2e 11 f1 90 3d 3e e7 7b 3f
       0.28146318 1.0365892e-10 0.0707723 0.9839972
000010 79 f1 07 3e ce c8 c7 29 e0 73 ad 3e 96 b4 91 3f
       0.13275708 8.872209e-14 0.33877468 1.1383235

exp_avg f4 [8, 4]
000000 d6 93 e4 3a 84 62 39 3d a6 74 ca 38 40 b7 82 3b
       0.0017439078 0.045259967 9.653838e-05 0.0039891303
000010 dc 3f d2 81 3b c3 ce b1 01 00 00 00 26 14 d1 97
       -7.723345e-38 -6.017584e-09 1e-45 -1.3511395e-24
000020 1c 31 b4 bb 1c 27 1f bd 64 4b 96 b9 bc ba 2a bb
       -0.0054990184 -0.038855657 -0.000286664 -0.0026051244
000030 d2 a1 59 bc ca 39 f6 bd 97 45 35 ba 58 da 1b bc
       -0.01328321 -0.12022741 -0.0006914972 -0.009512506
000040 0c 56 ef 39 b0 a0 5a 39 4e 7a 17 b8 30 ce a3 b7
       0.00045649742 0.00020849961 -3.611511e-05 -1.9527128e-05
000050 03 00 00 80 11 f2 00 80 04 00 00 00 03 00 00 00
       -4e-45 -8.6837e-41 6e-45 4e-45
000060 5b 23 5e 3c 01 be 7a 3d 06 ad 45 3a fa 49 83 3b
       0.013558234 0.061216358 0.0007540736 0.0040066214
000070 6c 43 8b 3c 03 73 d6 3d 31 3a 78 3a 13 77 c2 3b
       0.016999923 0.104711555 0.00094691204 0.005934605

exp_avg_sq f4 [8, 4]
000000 87 c3 a6 3a e3 cf 88 3c 4b 67 90 36 de 39 bc 38
       0.0012723067 0.01670069 4.3035593e-06 8.975317e-05
000010 71 af 38 29 9c f8 c8 2d 70 43 07 24 50 ab da 29
       4.100838e-14 2.2847772e-11 2.933058e-17 9.710863e-14
000020 37 ed 53 39 aa 14 ef 3b c5 5e 37 35 e6 71 01 38
       0.00020210897 0.0072961645 6.831072e-07 3.0862073e-05
000030 c6 fc 83 3a 43 20 b6 3d 62 67 51 36 2f 6b 17 3a
       0.0010069839 0.08892872 3.1203604e-06 0.00057761645
000040 ff 19 3a 3b b2 53 0d 3a 74 ac 3d 37 02 08 31 33
       0.0028396843 0.0005391195 1.130543e-05 4.1218307e-08
000050 70 fb fb 25 f2 ef 13 29 2f 04 71 28 ed cf ba 27
       4.371194e-16 3.2848676e-14 1.3379095e-14 5.1850804e-15
000060 6f c2 8d 3a d4 43 b6 3c 98 bb 77 36 59 6d ea 38
       0.0010815392 0.02224914 3.6915062e-06 0.00011178357
000070 f9 58 4c 3b 07 04 94 3d a2 e7 32 37 0f 95 38 39
       0.0031180962 0.07227331 1.0663558e-05 0.00017603136

exp_avg f4 [16]
000000 c5 1a 82 be 94 0c fe b2 be 3a 92 bd df fd c3 b2
       -0.2541105 -2.9575212e-08 -0.071401104 -2.2816435e-08
000010 c1 c2 72 3c 89 ad 9e 3e 33 c2 95 be 93 69 8b 3c
       0.014816941 0.30991772 -0.29249725 0.017018115
000020 17 63 7b 3e 29 9a 9f b2 84 3a d8 bd 17 a7 e1 3b
       0.24549519 -1.858014e-08 -0.10558036 0.0068863737
000030 05 89 55 3e e2 fd b1 bd b3 8c 99 bc b7 d1 d7 3d
       0.2085305 -0.086910024 -0.018743848 0.10538047

exp_avg_sq f4 [16]
000000 1e b5 ec 3e b5 cb b4 2f cf bb b2 3e 8c 54 5a 2f
       0.4623193 3.2886552e-10 0.34908912 1.9857022e-10
000010 0a e3 46 3d 12 bc 8e 3f 39 dd 43 3f b2 b5 9a 3d
       0.048556365 1.1151145 0.76509434 0.07554187
000020 52 ed f7 3e 1e cd 04 32 26 8d f8 3d 95 a2 95 3c
       0.4842325 7.7300495e-09 0.12136297 0.018266002
000030 a9 a7 c3 3e da 70 cc 3e e9 f6 77 3b 36 f3 90 3e
       0.38213852 0.3992985 0.003783638 0.28310555

exp_avg f4 [16, 8]
000000 48 ae 29 bd 04 00 00 00 0f bd 62 bc 7c d0 26 bd
       -0.041425973 6e-45 -0.01383902 -0.04072617
000010 bd 2c c7 bb 04 00 00 00 0b 8b 04 bd 8e 77 db bb
       -0.0060783313 6e-45 -0.032359164 -0.0066976016
000020 be df b3 b0 04 00 00 80 09 a3 ce aa 9d b4 d4 b0
       -1.3087555e-09 -6e-45 -3.670608e-13 -1.5476364e-09
000030 69 02 9c 97 03 00 00 00 52 a8 df af 32 d4 00 a0
       -1.0081872e-24 4e-45 -4.0683062e-10 -1.0912231e-19
000040 cb ca 7c bc 03 00 00 00 67 1c 8d bb 32 4e 91 bc
       -0.015429209 4e-45 -0.0043063643 -0.017737482
000050 4f d9 4b ba 04 00 00 00 54 88 35 bc 05 96 a7 ba
       -0.0007776217 6e-45 -0.011079866 -0.0012785798
000060 3f 07 e7 af 03 00 00 80 f7 e8 30 a8 13 4c 14 b0
       -4.2023804e-10 -4e-45 -9.820479e-15 -5.3950194e-10
000070 80 14 f8 8d 03 00 00 80 64 f4 c4 ae 72 c6 23 99
       -1.5289115e-30 -4e-45 -8.9564606e-11 -8.466978e-24
000080 63 d8 86 3b 00 00 00 80 93 36 50 3a 5c 7f a2 3b
       0.004115151 -0.0 0.00079427025 0.00495903
000090 55 8a a9 b9 03 00 00 00 b2 e3 3c 3b a7 e0 5d 39
       -0.00032337257 4e-45 0.002882224 0.00021159892
0000a0 84 47 5c 3d 03 00 00 00 50 12 88 3c d8 b6 62 3d
       0.05377914 4e-45 0.016610295 0.055350155
0000b0 37 7c d4 3b 04 00 00 80 65 a5 27 3d df a0 fa 3b
       0.006484534 -6e-45 0.040929217 0.007648572
0000c0 45 7a 4d bd 04 00 00 80 ba 24 85 bc f3 e9 52 bd
       -0.050165433 -6e-45 -0.016252864 -0.051492643
0000d0 1b e7 d6 bb 03 00 00 00 c1 e3 1c bd 30 6f e9 bb
       -0.0065583116 4e-45 -0.03830314 -0.0071238503
0000e0 bf a1 9a 3b 01 00 00 80 47 91 ac b8 f2 e6 dd 3b
       0.0047189887 -1e-45 -8.228659e-05 0.0067719156
0000f0 6b 31 9d ba 04 00 00 00 b5 65 2b 3b 98 24 fd 38
       -0.0011992877 6e-45 0.0026153151 0.00012070796
000100 28 1b 2d 3d 04 00 00 00 2c 6e 6c 3c 03 b5 2e 3d
       0.042262226 6e-45 0.014430564 0.042653095
000110 ed 15 c4 3b 02 00 00 80 95 43 06 3d 4d 15 c7 3b
       0.005984059 -3e-45 0.032779295 0.0060755373
000120 3d b9 0a b1 02 00 00 00 da c5 03 31 9d 73 ae b1
       -2.0186939e-09 3e-45 1.9175475e-09 -5.07721e-09
000130 17 7f 5a 30 04 00 00 80 07 89 de 2e da 2c 41 af
       7.9488544e-10 -6e-45 1.0119732e-10 -1.7569182e-10
000140 b4 bb b1 bc 03 00 00 00 e7 8b af bb 4d f5 c4 bc
       -0.02169595 4e-45 -0.005357254 -0.02404275
000150 e4 ab eb b9 04 00 00 80 1f ca 80 bc e6 64 19 bb
       -0.0004495076 -6e-45 -0.015721379 -0.0023406087
000160 01 68 d9 3a 03 00 00 00 d7 55 87 39 16 60 e7 3a
       0.0016586782 4e-45 0.00025813162 0.0017652537
000170 ec 03 17 39 04 00 00 80 fa f3 aa 3a c9 85 4e 39
       0.00014401943 -6e-45 0.0013042681 0.0001969553
000180 09 d1 0f 3d 04 00 00 80 c6 f1 41 3c 43 29 0e 3d
       0.03511146 -6e-45 0.011837428 0.03470732
000190 ec e8 a2 3b 03 00 00 80 8d 4e e0 3c 87 82 b1 3b
       0.004971614 -4e-45 0.027381206 0.0054171714
0001a0 0d 25 19 bc 04 00 00 00 f5 87 72 bb 01 67 fa bb
       -0.0093472125 6e-45 -0.0037007306 -0.0076416736
0001b0 4c 65 6e bb 01 00 00 00 c3 da fb bb 18 55 30 bb
       -0.0036376296 1e-45 -0.0076859905 -0.0026906189
0001c0 ac e9 5b bb 04 00 00 00 4c 95 40 ba 78 f1 61 bb
       -0.0033556027 6e-45 -0.0007346466 -0.0034476202
0001d0 55 f5 f6 b8 01 00 00 00 9b 92 1f bb 31 df 00 ba
       -0.00011775891 1e-45 -0.0024348858 -0.00049160706
0001e0 27 03 ae 3c 04 00 00 00 df 2f 16 3c d7 a5 af 3c
       0.021241738 6e-45 0.009166687 0.021441383
0001f0 ab 9e 04 3b 04 00 00 00 50 e9 88 3c a4 65 11 3b
       0.0020236175 6e-45 0.016712815 0.0022185827

exp_avg_sq f4 [16, 8]
000000 2d 26 21 3c ab 3b a2 25 c0 98 82 3a e4 6e 25 3c
       0.009835762 2.8142953e-16 0.0009963736 0.010097239
000010 a3 99 9b 39 ec 01 bb 26 2b f0 b9 3b eb 5d a4 39
       0.00029678372 1.2976253e-15 0.005674382 0.00031350492
000020 58 51 0b 2d 69 c8 e6 1b f1 e9 5a 2b 44 0e 1a 2d
       7.919297e-12 3.817982e-22 7.7773817e-13 8.757054e-12
000030 f8 19 d6 29 00 00 00 00 81 00 a0 2c b7 56 42 2a
       9.508014e-14 0.0 4.5475295e-12 1.7260747e-13
000040 a4 75 b2 3b 86 13 36 26 ca a8 92 3a f6 5f 96 3b
       0.0054461528 6.3170394e-16 0.0011189219 0.004589076
000050 b2 2e 62 3a be 31 d5 26 02 e2 6e 3b 3c 2c 90 39
       0.0008628174 1.4793327e-15 0.003645063 0.00027498777
000060 fb b9 a3 2c 26 c3 db 19 65 43 04 2b 41 4a b4 2c
       4.6533866e-12 2.2722889e-23 4.698935e-13 5.1241515e-12
000070 8e 50 94 29 00 00 00 00 be 77 3c 2c 2b f1 eb 29
       6.586494e-14 0.0 2.6782877e-12 1.04779324e-13
000080 0a 41 51 3a 44 62 34 25 43 1d cd 38 69 0a 49 3a
       0.0007982409 1.5645805e-16 9.780612e-05 0.0007669093
000090 66 b5 77 38 75 82 74 25 4c 30 f7 39 d6 18 16 38
       5.905833e-05 2.1207827e-16 0.00047147495 3.5785917e-05
0000a0 31 99 b4 3c 96 b7 21 27 df 1f 29 3b a6 cc b1 3c
       0.022045704 2.244276e-15 0.002580635 0.02170403
0000b0 3f 58 8d 3a d5 34 d5 25 0f fb 56 3c db 13 4d 3a
       0.0010783746 3.698541e-16 0.0131213805 0.0007823088
0000c0 52 db 82 3c f9 2f 5b 27 78 bc fc 3a da 75 82 3c
       0.01597372 3.0418361e-15 0.0019282242 0.015925337
0000d0 38 c2 44 3a 93 af 77 26 54 c6 1b 3c 6e fb 08 3a
       0.00075057475 8.5933287e-16 0.009507734 0.0005225454
0000e0 45 3a 46 3a bd 5b 9e 23 39 29 ad 39 a6 e6 da 39
       0.00075617834 1.7169247e-17 0.00033027845 0.00041752047
0000f0 bd cc cb 39 30 66 64 26 32 75 28 3a 7e f1 93 38
       0.0003887172 7.924188e-16 0.0006426155 7.054488e-05
000100 53 a7 39 3c b0 c8 74 26 c6 31 a0 3a 67 2f 43 3c
       0.011331397 8.492649e-16 0.0012221865 0.011913157
000110 5e 50 aa 39 81 e4 50 26 f8 6c d6 3b 82 24 a0 39
       0.00032484805 7.2474177e-16 0.006543752 0.0003054478
000120 b2 a4 25 2f 00 00 00 00 e5 f3 93 2d a6 f1 25 2f
       1.5065174e-10 0.0 1.6820276e-11 1.5092513e-10
000130 a0 23 09 2d 0a 9d b0 1d ed 37 cd 2e 6a c1 bc 2c
       7.795459e-12 4.6749187e-21 9.332255e-11 5.3647546e-12
000140 05 18 64 3b bf 61 de 25 5d 6c 54 39 db d3 86 3b
       0.0034804356 3.8577096e-16 0.00020258264 0.0041146106
000150 63 5c 0d 36 5c 6d 00 25 1d ea ef 3a 1f 9a 8e 38
       2.1064413e-06 1.1139283e-16 0.0018304024 6.799795e-05
000160 76 83 a7 39 80 75 dd 24 df 50 1d 38 52 b9 a5 39
       0.00031950668 9.6042525e-17 3.7507034e-05 0.00031609327
000170 70 8a b8 37 69 6e 1b 24 06 7a 43 39 8f d3 5d 37
       2.1998974e-05 3.370379e-17 0.00018642106 1.3221884e-05
000180 be c6 05 3c 2d 19 3a 26 09 9c 69 3a fc fa 08 3c
       0.00816506 6.4565833e-16 0.00089114957 0.008360621
000190 79 da a5 39 e4 5e b0 26 e0 d1 9b 3b 32 3d 86 39
       0.00031634027 1.2238173e-15 0.0047552437 0.00025604066
0001a0 59 9e 58 3b 45 96 23 25 1d b7 85 3a bf 3e f6 3a
       0.0033053367 1.418891e-16 0.0010201667 0.001878701
0001b0 b0 ff ad 3a 90 a5 ac 26 39 8d 23 3b 71 39 c7 39
       0.0013275053 1.1979773e-15 0.0024956001 0.00037999035
0001c0 82 af 00 39 38 3a 75 23 9a 02 14 37 94 43 19 39
       0.00012272413 1.3293805e-17 8.822093e-06 0.00014616392
0001d0 e6 23 c7 33 72 6a 29 23 99 19 8a 38 aa 57 07 36
       9.2731895e-08 9.184049e-18 6.585121e-05 2.0167595e-06
0001e0 10 74 bc 3b 1e 38 3b 25 fa a2 62 3a 9d 92 bc 3b
       0.0057511404 1.6238678e-16 0.0008645501 0.0057547824
0001f0 eb 83 a2 38 72 85 a3 26 42 55 59 3b d4 fc 25 39
       7.7493336e-05 1.1346567e-15 0.003316239 0.00015829812

exp_avg f4 [128, 16]
000000 ca 33 8b 3c 38 5d c8 a6 ae d3 a1 3b e5 bf a7 a9
       0.016992468 -1.3903055e-15 0.0049385643 -7.449578e-14
000010 15 f1 70 3c a6 9f 81 3b 36 16 ef 3b 30 01 c5 3c
       0.014705916 0.003955799 0.007296349 0.024048418
000020 10 5e 42 3c 44 87 2f 30 44 3f cd 3b 9f 5e 8e 3c
       0.011863247 6.3856853e-10 0.0062636454 0.017379103
000030 54 cd c2 3b 22 89 a4 3a 92 af 9e 3b d5 58 b0 39
       0.005944887 0.0012553076 0.004842707 0.0003363552
000040 a6 a6 c7 bb 66 dc b6 05 22 4d e7 ba e8 75 75 13
       -0.006092864 1.719616e-35 -0.0017646889 3.098148e-27
000050 4c 6d ac bb ba 7c ba ba ab bc 2b bb 83 5e 0d bc
       -0.0052620526 -0.0014227845 -0.0026204984 -0.00862849
000060 d7 4f 8b bb 89 f9 1b ac c3 56 12 bb 70 df cb bb
       -0.004251461 -2.2165345e-12 -0.0022329546 -0.006221704
000070 c4 9b 0a bb bc 81 e2 b9 85 47 e2 ba c0 53 fd b8
       -0.0021149972 -0.0004320274 -0.0017263746 -0.0001207958
000080 6f 66 0b 3c f2 d7 10 97 60 ec 20 3b 32 5a 73 9e
       0.008508309 -4.680147e-25 0.0024554953 -1.2882965e-20
000090 d7 5e f1 3b b3 8f 02 3b e3 56 6f 3b bc 3f 45 3c
       0.007366042 0.0019922077 0.0036520294 0.012039121
0000a0 87 c5 c2 3b e4 df a2 2d e3 7f 4f 3b ad 69 0e 3c
       0.0059439573 1.8516695e-11 0.003166192 0.008692187
0000b0 eb fa 40 3b f4 23 22 3a 4d 23 1d 3b 6f 6a 1a 39
       0.0029446434 0.0006185167 0.002397734 0.00014726234
0000c0 28 1b 81 af 01 00 00 80 2a 07 1f a5 04 00 00 80
       -2.348426e-10 -1e-45 -1.3793479e-16 -6e-45
0000d0 7e bb f1 ae 92 cb 9b a4 62 c2 41 aa d5 f2 a2 b0
       -1.09927165e-10 -6.7565396e-17 -1.7209284e-13 -1.1856068e-09
0000e0 3f 9c 09 ae 02 00 00 80 8f 83 e4 a8 61 0e 86 af
       -3.1288968e-11 -3e-45 -2.537014e-14 -2.4384675e-10
0000f0 4b 99 80 a8 64 08 00 00 37 d2 47 a5 03 00 00 80
       -1.4277335e-14 3.01e-42 -1.7331722e-16 -4e-45
000100 56 8c 8b 3a 04 00 00 00 e1 d6 13 3a 03 00 00 00
       0.0010646682 6e-45 0.00056396244 4e-45
000110 b1 f9 95 3a 97 95 6c 3a 0f 29 27 3a 5b 37 03 3b
       0.0011442212 0.0009024976 0.00063766626 0.0020022008
000120 0f a9 cd 3a 16 4a 7b a7 6d c7 f8 38 fa c4 b8 3a
       0.0015690642 -3.487341e-15 0.000118627075 0.001409679
000130 d1 37 cd 3a 0a 04 15 3a 23 99 82 38 cc 22 85 38
       0.0015656893 0.0005684501 6.227407e-05 6.3484156e-05
000140 94 2d 90 bc 7d 57 01 24 f6 22 a5 bb 84 1a 62 27
       -0.017599858 2.804652e-17 -0.005039568 3.1378175e-15
000150 8b 1e 7f bc dd 25 9c bb 05 34 f5 bb 17 e2 cd bc
       -0.015571247 -0.004765256 -0.007483008 -0.025132222
000160 9a ad 52 bc f5 88 27 b0 36 47 ce bb ce 7c 93 bc
       -0.012858773 -6.0948874e-10 -0.00629511 -0.018003847
000170 01 f3 dd bb 5f a1 da ba e4 b0 99 bb 97 8a a2 b9
       -0.006773353 -0.0016680172 -0.0046902765 -0.00031002305
000180 08 7e 89 3a 02 00 00 80 ac f0 a7 39 04 00 00 00
       0.0010489831 -3e-45 0.00032032037 6e-45
000190 c4 89 62 3a f7 95 7b 39 8a bc ef 39 14 b8 bf 3a
       0.00086417445 0.00023993092 0.00045726105 0.0014627003
0001a0 1d 06 3b 3a ac a4 cf 10 35 4c c3 39 1c 7f 88 3a
       0.0007134395 8.190082e-29 0.00037250077 0.0010413858
0001b0 b0 9b c2 39 f4 77 98 38 d8 80 91 39 df c6 f9 37
       0.0003711856 7.270268e-05 0.0002775255 2.977572e-05
0001c0 2a 94 bf ba 04 00 00 80 89 b7 e4 b9 04 00 00 80
       -0.00146163 -6e-45 -0.00043624293 -6e-45
0001d0 c9 d7 a4 ba 93 89 ad b9 7d e1 1e ba 11 f7 05 bb
       -0.0012576516 -0.00033099632 -0.0006060822 -0.0020441453
0001e0 32 0e 85 ba 3a 4c 3e 94 0d cd 13 ba 4a dd c4 ba
       -0.0010151325 -9.607582e-27 -0.000563816 -0.0015019563
0001f0 b7 58 05 ba 40 a7 c7 b8 8f f5 e4 b9 d7 c1 1c b8
       -0.0005086767 -9.520212e-05 -0.00043670504 -3.7373826e-05
000200 97 43 b1 39 92 b5 3f 04 16 bd 2b 39 03 29 e5 15
       0.0003381043 2.2535315e-36 0.00016378271 9.255707e-26
000210 3c 57 22 3a 34 16 23 3a e2 40 31 39 3f a5 cb 3a
       0.00061928085 0.0006221265 0.00016904206 0.0015536918
000220 f2 28 9e 3a 55 4d 06 ae 93 52 9a b9 30 1e 5a 3a
       0.0012066646 -3.0536757e-11 -0.00029434692 0.00083205383
000230 44 cd d0 3a 83 78 91 b7 4e 90 88 b9 1a 7e dd 38
       0.0015930315 -1.7341465e-05 -0.00026047457 0.000105615894
000240 c9 55 15 ae 03 00 00 80 cc 82 11 af 03 00 00 80
       -3.395487e-11 -4e-45 -1.3234142e-10 -4e-45
000250 d3 79 21 ae e4 af d4 ae 0d 9d e9 ae c6 f2 9a ae
       -3.6715363e-11 -9.671888e-11 -1.0623511e-10 -7.0462344e-11
000260 83 f6 1f af 00 00 00 00 63 0c 04 2e f9 e0 c9 ae
       -1.4548544e-10 0.0 3.0024327e-11 -9.180385e-11
000270 ec f8 88 af f9 45 a4 2e 5d 0f 41 2d ce 73 9f 2d
       -2.4915126e-10 7.470286e-11 1.0974191e-11 1.8127635e-11
000280 cd 6c c9 ae 04 00 00 80 38 66 6f a2 01 00 00 80
       -9.159749e-11 -6e-45 -3.2444654e-18 -1e-45
000290 be 2e 20 ae 12 ba 90 a1 80 74 99 a8 97 ee 2a b0
       -3.6421303e-11 -9.807072e-19 -1.7036936e-14 -6.2184696e-10
0002a0 1e 60 0c ad 03 00 00 00 e4 4d f6 a6 68 7a d2 ae
       -7.979421e-12 4e-45 -1.7090791e-15 -9.571438e-11
0002b0 5d 26 5d a6 04 00 00 00 40 61 9a a2 04 00 00 80
       -7.672677e-16 6e-45 -4.184475e-18 -6e-45
0002c0 1b 6d 92 3a 04 00 00 00 a1 0b 7d 3a 03 00 00 00
       0.0011171432 6e-45 0.0009652917 4e-45
0002d0 b1 2f 96 3a a3 5e 80 3a ed fd 71 3a a5 0e 21 3b
       0.0011458305 0.0009793829 0.00092312583 0.002457538
0002e0 e5 83 03 3b f8 05 bb ab db 02 5f b6 05 54 f5 3a
       0.002006763 -1.3288806e-12 -3.3231252e-06 0.0018717056
0002f0 cc 2e 18 3b be 10 31 3a 90 09 17 37 7c 55 ed 38
       0.0023221252 0.0006754509 9.002528e-06 0.00011316963
000300 0e 47 49 3a 01 00 00 00 1d 99 1e 39 00 00 00 80
       0.00076781295 1e-45 0.00015125093 -0.0
000310 04 57 5b 3a db 97 f3 39 5d 68 9a 39 a7 e8 9b 3a
       0.00083671534 0.00046461713 0.00029450926 0.0011894897
000320 fa 71 56 3a 27 52 5d 28 cd d1 47 39 09 1f 4d 3a
       0.0008180436 1.2285778e-14 0.00019056276 0.0007824754
000330 d3 a8 11 3a 97 c9 45 39 6a 21 9b 38 e3 98 ad b6
       0.0005556468 0.00018862482 7.3972e-05 -5.1736e-06
000340 ce cd 4d bc 05 b7 93 22 df 1a 79 bb 9b 3a 70 26
       -0.012561275 4.003821e-18 -0.0038010401 8.334615e-16
000350 ee f9 32 bc b3 fa 4b bb 3a 80 b4 bb 20 2d 94 bc
       -0.010923846 -0.003112477 -0.00550845 -0.018087924
000360 7e 2c 15 bc 6b ff b1 2c 3d d7 94 bb d1 46 56 bc
       -0.009104846 5.0589997e-12 -0.00454226 -0.013078407
000370 67 62 a1 bb 4b ca 8b ba a3 b2 62 bb 1d 16 8e b9
       -0.0049250606 -0.0010665146 -0.003459134 -0.00027100826
000380 e5 bb 49 bc 75 be 93 21 14 d3 6a bb 0b 04 ca 25
       -0.012312864 1.0011521e-18 -0.0035831379 3.5044154e-16
000390 2f 56 2e bc af 9c 3a bb 72 7f ae bb f0 bf 8e bc
       -0.010640665 -0.0028474738 -0.0053252513 -0.017425507
0003a0 1a 4c 0c bc de 5b 25 af bc b3 94 bb 07 40 4e bc
       -0.008563066 -1.50393e-10 -0.0045380276 -0.0125885075
0003b0 82 1e 8d bb fe f4 68 ba 8e 12 65 bb de e5 75 b9
       -0.0043066153 -0.00088866043 -0.0034953686 -0.00023450653
0003c0 03 34 27 bb 04 00 00 80 af f7 46 ba 04 00 00 00
       -0.002551318 -6e-45 -0.00075900083 6e-45
0003d0 75 b1 10 bb cb ba 1a ba a8 32 91 ba 0e f0 6d bb
       -0.002207843 -0.0005902468 -0.0011077719 -0.0036306414
0003e0 6c 1d ef ba 41 06 2f a2 0d 43 72 ba 3b 67 2a bb
       -0.0018243021 -2.3720233e-18 -0.0009241559 -0.0026001472
0003f0 b9 52 78 ba 6d a1 49 b9 27 17 3c ba 9a 0a 69 b8
       -0.0009472776 -0.0001922899 -0.0007175081 -5.5561402e-05
