model/GCN/set2/version_0/checkpoints/epoch=42-step=1204.ckpt (torch, 55393 bytes, 29 tensors)

model.conv1.bias f4 [4]
0	0x3d613b42	0.054988153
1	0xbb0adf85	-0.0021190357
2	0xbd2cb654	-0.04216607
3	0x3bc4d8e1	0.0060072993

model.conv1.lin.weight f4 [4, 4]
0	0xbed3e158	-0.4138286
1	0xbf4b7017	-0.7946791
2	0x3f336954	0.7008259
3	0xbea4c979	-0.3218496
4	0x3f3807c1	0.7188683
5	0x3f3df30f	0.74199003
6	0x3e09e2a2	0.1346536
7	0xbf30d041	-0.6906777
8	0xbd376461	-0.044773463
9	0xbeab2396	-0.33425587
10	0x3e5fca77	0.21854578
11	0xbe5873a5	-0.21137865
12	0x3e8e9349	0.27846745
13	0x3bae3d14	0.0053173397
14	0xbea04bbb	-0.31307778
15	0xbf325263	-0.6965696

model.conv2.bias f4 [8]
0	0x3c2c761a	0.0105262045
1	0xb981660a	-0.00024680822
2	0xbc3ce250	-0.0115285665
3	0xbb06fc00	-0.002059698
4	0x3d496c47	0.049175527
5	0xb2925209	-1.7033942e-08
6	0xbc1cf1d9	-0.009579145
7	0x3ce96862	0.028492156

model.conv2.lin.weight f4 [8, 4]
0	0x3e42c1cc	0.1901924
1	0x3f04eac0	0.519207
2	0x3c9b6a60	0.018971622
3	0xbeb4bfbe	-0.35302538
4	0x3897a3eb	7.230773e-05
5	0xba0d1ab7	-0.0005382704
6	0xae024d52	-2.9627252e-11
7	0xb680be2d	-3.8368366e-06
8	0x3f0cf504	0.55061364
9	0x3d8c9481	0.06864262
10	0x3ef0b80d	0.4701542
11	0x3f3cb08b	0.73706883
12	0xbe80946c	-0.25113237
13	0x3f1cbeeb	0.6122882
14	0x3df2ef7a	0.11862083
15	0xbe322874	-0.17398244
16	0x3f29bc9f	0.6630344
17	0xbf1db76d	-0.6160801
18	0xbef99f03	-0.4875413
19	0x3e190ed8	0.14947069
20	0x0c3db735	1.4615162e-31
21	0xac03a629	-1.8708457e-12
22	0x8acc76d4	-1.9689184e-32
23	0x8bf9eff4	-9.627235e-32
24	0x3ed5df24	0.41771805
25	0x3ed4f499	0.41592863
26	0xbdef78c0	-0.11692953
27	0xbed1e839	-0.40997484
28	0x3d6fa884	0.05851032
29	0x3c548c25	0.012972866
30	0xbf0f4e2d	-0.5597866
31	0xbed8e84f	-0.42364737

model.conv3.bias f4 [16]
0	0x3c041f92	0.008064168
1	0xb9e3f32e	-0.00043477997
2	0xbb52bcda	-0.0032156021
3	0xb681e8f9	-3.871621e-06
4	0x3cd1cd39	0.025610553
5	0x3cd8f5bd	0.026484365
6	0xbb806c1e	-0.0039191386
7	0x3bb91637	0.0056484
8	0x3ac4b22c	0.0015006713
9	0xb9be465c	-0.00036292046
10	0xbbe3d3c7	-0.006952736
11	0x3a08ed93	0.00052233896
12	0x3b33328c	0.002734336
13	0x3cd53199	0.026024627
14	0xbc29e9a0	-0.010370642
15	0x3c9019b4	0.017590381

model.conv3.lin.weight f4 [16, 8]
0	0x3ed96633	0.42460784
1	0xb9eda206	-0.0004532488
2	0x3e607fca	0.21923748
3	0x3efef06b	0.497928
4	0xbe0f8edc	-0.1401934
5	0x8bcaea1c	-7.815982e-32
6	0xbedadf0a	-0.4274829
7	0x3caebc67	0.021330072
8	0xb9f2a677	-0.00046281863
9	0x8d30f325	-5.452686e-31
10	0xb91e2f8c	-0.00015085767
11	0xba191311	-0.0005839328
12	0x380a959f	3.304111e-05
13	0x8428755e	-1.9802197e-36
14	0xb9ecde47	-0.00045179037
15	0xb85f5090	-5.3242373e-05
16	0xbd1532db	-0.036425453
17	0x38e52ac6	0.00010927538
18	0x3e4c34dd	0.1994204
19	0x3e2f9c0c	0.17149371
20	0x3e9ed3d7	0.31020996
21	0x8b9b2e62	-5.977362e-32
22	0x3cecb742	0.028895978
23	0xbe86e0b5	-0.26343313
24	0x1c38bb26	6.1122377e-22
25	0x869f2be1	-5.9873627e-35
26	0x0df44e9f	1.5056588e-30
27	0x9d37ebc1	-2.434173e-21
28	0x0cc3f009	3.0188973e-31
29	0x84c9c7d3	-4.7438382e-36
30	0x139a9b6a	3.9028316e-27
31	0x8d82901a	-8.04656e-31
32	0x3dd756e8	0.10514623
33	0x369a955e	4.6069463e-06
34	0xbe9fe849	-0.31231907
35	0x3ea34282	0.3188668
36	0xbd703add	-0.058649886
37	0x0956bffd	2.5849585e-33
38	0x3e53932f	0.20661615
39	0xbdb0e6f1	-0.086377986
40	0x3e506e94	0.20354682
41	0x398a2472	0.00026348565
42	0xbde30575	-0.11085025
43	0xbda53dc9	-0.08068425
44	0x3dba1d53	0.090876244
45	0x8c733d20	-1.8738433e-31
46	0xbe42a50e	-0.19008276
47	0x3ef1a02a	0.47192508
48	0xbd5d08c5	-0.05396344
49	0xb99cb4d5	-0.0002988937
50	0x3ea0210d	0.31275216
51	0x3ead7f09	0.33885983
52	0x3e2a58e9	0.16635479
53	0x8bbcf6d2	-7.278634e-32
54	0xbdf9a42a	-0.12189515
55	0x3c8a0236	0.016846757
56	0x3f027b02	0.50968945
57	0xb97243df	-0.00023104202
58	0x3ea8905d	0.3292264
59	0x3e95fab1	0.29292825
60	0xbee93bea	-0.45553523
61	0x8bdee48c	-8.585517e-32
62	0x3dd56d9b	0.10421296
63	0x3e2349c8	0.15946114
64	0x3c7ad0c2	0.015308561
65	0x39fc9693	0.00048177372
66	0xbe2409ed	-0.16019411
67	0x3d811a2f	0.06303822
68	0x3e23f851	0.16012694
69	0x8bf2a179	-9.3457966e-32
70	0x3ef993d4	0.48745596
71	0x3f00a1df	0.50246996
72	0xb9ca09c9	-0.00038535733
73	0x8b8f06a6	-5.50916e-32
74	0xb8153078	-3.556951e-05
75	0xb9f4d83c	-0.00046700414
76	0x392f2788	0.00016704027
77	0x84552362	-2.5054277e-36
78	0xb99b9d0f	-0.00029680922
79	0xb84b6519	-4.8493126e-05
80	0xbef08dad	-0.4698309
81	0xb94538f8	-0.00018808607
82	0xbe4f63a3	-0.20252852
83	0x3f00c4db	0.5030038
84	0xbeb0ea05	-0.34553543
85	0x0bd707e2	8.282685e-32
86	0x3ee6a1c7	0.450453
87	0xbe96e4f9	-0.29471567
88	0x3e666aab	0.22501628
89	0x37b4fdee	2.1575917e-05
90	0x3cab9eac	0.020949684
91	0x3e876e0d	0.2645115
92	0x3d90b898	0.070664585
93	0x8b8595c1	-5.145506e-32
94	0x3eb4e598	0.35331416
95	0xbedc7acd	-0.4306244
96	0x3e9cd8ef	0.30634257
97	0x39c384bc	0.00037292193
98	0x3d264358	0.040591568
99	0xbee2076d	-0.4414629
100	0x3e34e3ad	0.17664976
101	0x0bf48fd1	9.420177e-32
102	0x3ec59f12	0.38597924
103	0x3ee7a012	0.4523931
104	0xbd87c32a	-0.066290215
105	0x3896a963	7.184108e-05
106	0xbeb6809d	-0.35645
107	0xbd9bf66b	-0.0761536
108	0x3eff101b	0.49816975
109	0x8baec240	-6.7314637e-32
110	0xbcbe030a	-0.023194809
111	0x3e7a464a	0.24440876
112	0xbed928da	-0.4241398
113	0xaf1df559	-1.4366232e-10
114	0x3e24aa5c	0.16080612
115	0x3ee4cc4f	0.44687125
116	0xbea2b549	-0.31778935
117	0x896f0b40	-2.8773868e-33
118	0x3e84c6df	0.25932977
119	0xbe143a96	-0.14475474
120	0x3a9da7f6	0.0012028206
121	0x3a1b3051	0.00059199805
122	0x3eef5050	0.4674096
123	0xbd4a11af	-0.04933327
124	0xbee08932	-0.43854672
125	0x8b221651	-3.1216854e-32
126	0xbe42579b	-0.18978731
127	0x3d0a5d09	0.03378013

model.fc.0.weight f4 [128, 16]
0	0x3d3fad97	0.046796408
1	0x3928dceb	0.00016104027
2	0xbdf0b86a	-0.11753924
3	0x1ac5d863	8.182688e-23
4	0x3e1e219a	0.15442505
5	0x3dc054ad	0.093911506
6	0xbe3d30f5	-0.18475707
7	0xbe2a2e51	-0.16619231
8	0x3e18031d	0.14844938
9	0x389d1f89	7.492217e-05
10	0xbe6335f5	-0.22188552
11	0x3e68b14d	0.22723885
12	0x3e0775a8	0.13228476
13	0x3dba26f9	0.09089465
14	0x3dcf7af5	0.10130874
15	0x3e5b11fc	0.21393579
16	0xbc8140d5	-0.015777985
17	0xb77488a1	-1.4575345e-05
18	0x3dd75d53	0.10515847
19	0x0e8e1549	3.50262e-30
20	0x3d5153ed	0.05110543
21	0xbdb2d1ff	-0.0873146
22	0x3ccdb262	0.025109474
23	0x3b6fb7b7	0.0036578008
24	0xbd10b161	-0.03532541
25	0xb5ee6b71	-1.7763651e-06
26	0x3e5968e3	0.21231417
27	0x3ca2f97c	0.019894354
28	0x3de4b9c7	0.11168247
29	0x3e0f5cd1	0.1400025
30	0x3d8db53b	0.069193326
31	0xbda9de26	-0.082943246
32	0x3dbeb62e	0.09312092
33	0x382a4ff5	4.0605624e-05
34	0xbe46408b	-0.19360559
35	0x8ff3b416	-2.4031017e-29
36	0x3e2704cb	0.16310422
37	0x3e3bb2f1	0.1832998
38	0xbd814677	-0.06312268
39	0x3b97b0e1	0.00462924
40	0x3e38550d	0.18001194
41	0x3715968f	8.916147e-06
42	0x3e586e93	0.2113593
43	0x3dd47424	0.103737146
44	0xbe4c82c1	-0.19971754
45	0xbd1b20a3	-0.03787292
46	0xbe4c474b	-0.19949071
47	0xbdc4b2ff	-0.09604453
48	0xb72ff9b5	-1.0488952e-05
49	0x00012090	1.03517e-40
50	0xaf649450	-2.078917e-10
51	0x00008084	4.6103e-41
52	0xb661fac1	-3.367357e-06
53	0x1c55d8c6	7.075596e-22
54	0xb3482747	-4.660185e-08
55	0xb803199a	-3.1256677e-05
56	0xb4c86d6d	-3.733252e-07
57	0x0007ddf8	7.22476e-40
58	0xb1de295a	-6.4657515e-09
59	0xb71e5f1c	-9.439678e-06
60	0xa96e6cc4	-5.2940955e-14
61	0x8aede654	-2.290891e-32
62	0xb00d2284	-5.134455e-10
63	0x0cc0a960	2.9684223e-31
64	0xbc017e79	-0.007903689
65	0x37d723fe	2.5646757e-05
66	0x3d5595dd	0.052144874
67	0x8bedf7b2	-9.166177e-32
68	0xbc83296b	-0.01601096
69	0x3b42c4ce	0.0029719356
70	0x3c9c53df	0.019082962
71	0xbd187497	-0.037220564
72	0xbc30809e	-0.010772852
73	0x36964024	4.4778153e-06
74	0x3d0bed9a	0.03416214
75	0xba9857e4	-0.0011622873
76	0x3b65051d	0.0034945675
77	0x3d2f642d	0.042820144
78	0x3d3e541b	0.046466928
79	0xbd24a90e	-0.040200286
80	0x3e5f4793	0.21804647
81	0xb924eebf	-0.00015729199
82	0xbe5cbf7f	-0.21557425
83	0x8fb53c8b	-1.7871298e-29
84	0xbb61bd41	-0.003444508
85	0x3a6cb090	0.00090289954
86	0x3de7e2f8	0.11322588
87	0xbce11ce8	-0.027479604
88	0xbd61cde8	-0.055128008
89	0xb8062512	-3.1982614e-05
90	0x3e2cad9b	0.168631
91	0xbe4833b2	-0.1955097
92	0xbe08f9cb	-0.13376538
93	0x3e4cef56	0.20013174
94	0x3e772f89	0.24139227
95	0x3b80c1e4	0.0039293636
96	0x3e5680ff	0.20947646
97	0xa235df38	-2.4648245e-18
98	0x3e4ec042	0.20190528
99	0x0cd909ed	3.3440118e-31
100	0xbe7dee3a	-0.24797907
101	0x3b646e0c	0.0034855632
102	0x3e12384f	0.14279293
103	0x3d7c6d8b	0.061627906
104	0xbd2cabc6	-0.042156003
105	0x16693f82	1.884163e-25
106	0xbd977d02	-0.0739689
107	0xbdb72101	-0.08941842
108	0x3de14e4b	0.11001261
109	0xbcf3547d	-0.029703373
110	0xbe11ee53	-0.1425107
111	0x3dc65754	0.09684625
112	0xbc85f207	-0.01635076
113	0xad8de854	-1.6133019e-11
114	0xbdd8bdb1	-0.10583056
115	0x8d06d3ea	-4.154702e-31
116	0x3d3bc27e	0.04583978
117	0x3d92d19a	0.071688846
118	0x3e65bf93	0.22436361
119	0x3e74ad88	0.23894322
120	0x3cd9042b	0.026491245
121	0x22208432	2.1754027e-18
122	0xbe6baaf6	-0.23014435
123	0xbdcea12f	-0.10089337
124	0x3b733c73	0.0037114888
125	0x3dde9a3d	0.10869262
126	0xbe538944	-0.20657831
127	0xbdcf0f85	-0.10110382
128	0xbe1661e1	-0.14685775
129	0x39267702	0.00015875328
130	0x3e531797	0.20614468
131	0x0bac47dd	6.636012e-32
132	0x3e46dd94	0.19420463
133	0xbdc5c8ae	-0.09657417
134	0x3e4fbe07	0.20287333
135	0xbdff9182	-0.12478925
136	0xbd80a9fd	-0.06282423
137	0x38880954	6.486723e-05
138	0x3ddd54c3	0.10807183
139	0xbe5e71f4	-0.21723157
140	0x3e14d1b5	0.14533122
141	0x3d15c567	0.03656521
142	0x3e4b8373	0.19874363
143	0x3d98a4b0	0.07453287
144	0xb68d295d	-4.206943e-06
145	0x841e6c3c	-1.862251e-36
146	0x21dacd4c	1.4826596e-18
147	0x871ba946	-1.1710649e-34
148	0xb5f710bd	-1.8407806e-06
149	0x21944c1a	1.0049014e-18
150	0xafc87d82	-3.6468967e-10
151	0xb76e2748	-1.4195051e-05
152	0xb3f21866	-1.1273441e-07
153	0x82ac7241	-2.5338707e-37
154	0xaf969818	-2.739291e-10
155	0xb632abad	-2.6623995e-06
156	0x9c7d7297	-8.385878e-22
157	0x0aa0ddd5	1.5490883e-32
158	0xab41c261	-6.883713e-13
159	0x8cd66213	-3.3030947e-31
160	0xb9762738	-0.00023474998
161	0x0cc35f49	3.0101855e-31
162	0xb8076407	-3.2279666e-05
163	0x8a14a0f2	-7.156211e-33
164	0xb94e1c0c	-0.00019656139
165	0xb7e0c4b4	-2.6794478e-05
166	0xb8b2ec78	-8.531747e-05
167	0xb98c6ed0	-0.00026785443
168	0xb8f961af	-0.0001189144
169	0x0d085b45	4.2018097e-31
170	0xb8b7d9a3	-8.766658e-05
171	0xb9600174	-0.00021362846
172	0xb7bca863	-2.2489758e-05
173	0xb49b67f4	-2.8946636e-07
174	0xb85d2999	-5.2729247e-05
175	0xad9df3c6	-1.795709e-11
176	0xbd00c50e	-0.031437926
177	0x37ef2f52	2.8513055e-05
178	0x3d5e9abd	0.05434679
179	0x0ca77c6f	2.5805315e-31
180	0x3d0d35f3	0.034475278
181	0xbd644bbc	-0.05573629
182	0xbd983aec	-0.074331135
183	0xbdf82026	-0.12115507
184	0x3e1f144e	0.1553509
185	0x364793c0	2.9739313e-06
186	0x3cc77243	0.024346476
187	0xbd80051a	-0.06250973
188	0x3d3ac783	0.045600425
189	0x3da50fa0	0.08059621
190	0x3acd89a7	0.0015681282
191	0xbe399ad6	-0.18125471
192	0xbdc5c553	-0.09656777
193	0x2d81c1c7	1.4751656e-11
194	0x3d7ffb92	0.062495776
195	0x8d3e055a	-5.855471e-31
196	0xbca40ad8	-0.020024702
197	0xbe191fa6	-0.14953479
198	0x3e875be5	0.26437297
199	0xbdde925d	-0.1086776
200	0x3e53fcae	0.20701858
201	0xa1d0f409	-1.4159224e-18
202	0x3d7c03dc	0.061527118
203	0xbb04a473	-0.002023962
204	0x3e0a60f9	0.13513555
205	0xbe342b67	-0.17594682
206	0xbd69a0c6	-0.05703809
207	0xbd9000ee	-0.07031427
208	0x3e479222	0.19489339
209	0xb8abfb4e	-8.2007246e-05
210	0x3e8c934b	0.27456126
211	0x8f64075f	-1.12426875e-29
212	0xbcdc66d5	-0.026904503
213	0xbd127d38	-0.03576395
214	0x3e82cbcb	0.25546107
215	0xbba51e47	-0.0050390097
216	0xbd72c573	-0.059270333
217	0xb819fa31	-3.671105e-05
218	0xbd5ca271	-0.053865854
219	0xbe64df2e	-0.22350761
220	0xbddd24f4	-0.10798064
221	0xbdeeaf71	-0.116545565
222	0x3e6ed84a	0.23324695
223	0x3e124dac	0.14287442
224	0xbb83e35a	-0.004024905
225	0xb8cb4a84	-9.693674e-05
226	0x3d4de820	0.0502702
227	0x9331720c	-2.239677e-27
228	0x3d805b41	0.06267405
229	0x3dec679b	0.11543199
230	0xbe6f683d	-0.23379607
231	0x3e26a2dc	0.16273063
232	0x3e7316a7	0.2373911
233	0xb80ebc5f	-3.4030872e-05
234	0x3e3b0a72	0.18265703
235	0xbdb06a64	-0.086140424
236	0xbdaafe86	-0.08349328
237	0x3e0cb31c	0.137402
238	0x3da048f2	0.07826413
239	0xbd86eb14	-0.06587806
240	0xbbe66bf9	-0.0070319143
241	0xb4375b9d	-1.7076532e-07
242	0xbe46c1ba	-0.19409838
243	0x8d6006ed	-6.9033666e-31
244	0x3da3f552	0.080057755
245	0x3e29e6a3	0.16591887
246	0xbe0d7416	-0.13813815
247	0x3e45bd72	0.19310549
248	0xbe2ff28c	-0.17182368
249	0xb0c3648d	-1.4216696e-09
250	0x3d477c95	0.048702795
251	0x3e527c31	0.20555188
252	0xbe1254be	-0.14290139
253	0xbe0c10e6	-0.13678321
254	0xbd559e6d	-0.05215304
255	0xbd6c049d	-0.057621587

model.fc.0.bias f4 [128]
0	0x3d4b1e3c	0.04958938
1	0xbdbf6e1a	-0.09347172
2	0xbe5b78d5	-0.21432813
3	0x0d98d1f5	9.418269e-31
4	0xbac01530	-0.0014654752
5	0xbd58abed	-0.052898336
6	0x3dcd4885	0.10023598
7	0xbe2aac76	-0.16667351
8	0x3e7c699e	0.24649665
9	0x8d0b68ee	-4.2958986e-31
10	0xb1c06676	-5.599584e-09
11	0xbd736444	-0.059421793
12	0xbe2f5408	-0.17121899
13	0x3d7df278	0.061998814
14	0xbb541ea0	-0.0032366887
15	0xbd990a73	-0.07472696
16	0x8dc069ff	-1.1858431e-30
17	0xbe331206	-0.17487344
18	0xbe07d8ff	-0.13266371
19	0xbe302239	-0.17200555
20	0xbb357fdf	-0.0027694625
21	0xbe354eb9	-0.17705812
22	0x3dae4f33	0.085112
23	0xad07bd71	-7.715926e-12
24	0x3daabfde	0.08337377
25	0xbdfbc65c	-0.122936934
26	0xbe3b0208	-0.18262494
27	0xbb1aa567	-0.0023597123
28	0xbd7bf57a	-0.0615134
29	0x3e3df482	0.18550304
30	0xbc1f563e	-0.009725152
31	0xb122236e	-2.3594242e-09
32	0xbe4fb085	-0.2028218
33	0xbcb7e32e	-0.022447195
34	0x3c3f1864	0.01166353
35	0xbcf38e4b	-0.029730937
36	0xb319938e	-3.575729e-08
37	0x3d1a9cd4	0.03774722
38	0x3c053863	0.008131119
39	0xbdf97a71	-0.12181557
40	0xbbf72d63	-0.0075432523
41	0xbd53d6e1	-0.051718596
42	0x3d6c32d3	0.057665657
43	0xbe05dd02	-0.13072589
44	0x3deff1ab	0.117160164
45	0xb52aff59	-6.3701515e-07
46	0x3e70cd93	0.2351592
47	0xbe155cfa	-0.14586249
48	0x3e4ff474	0.20308095
49	0x3dfa19c9	0.122119494
50	0xbadf1af0	-0.0017021578
51	0x3e254ff1	0.16143776
52	0xbe526403	-0.20545964
53	0xbd96c373	-0.07361498
54	0x3d679a2c	0.056543514
55	0xbbf5bafb	-0.0074990964
56	0x3dea9893	0.114548825
57	0xbd061587	-0.032735374
58	0xa3bf933a	-2.0770614e-17
59	0x8d84a842	-8.175635e-31
60	0xbc06acbd	-0.008219895
61	0x3e43191d	0.19052549
62	0xb5ffe250	-1.9064846e-06
63	0xbdd544a8	-0.10413486
64	0xa459e769	-4.7250386e-17
65	0x34132d2f	1.370688e-07
66	0x3e190295	0.14942391
67	0x39a027f1	0.00030547337
68	0xbdb11f60	-0.086485624
69	0x0e6e45c3	2.9369354e-30
70	0x0d5f1190	6.873832e-31
71	0xbd2e205e	-0.042511337
72	0x3ddb964f	0.107220285
73	0x3d8f0b8c	0.06984624
74	0xbd1bb02c	-0.038009807
75	0xbc02dc92	-0.007987158
76	0x3e1b135e	0.15144107
77	0xb4ca9eb1	-3.7740895e-07
78	0xbd68863f	-0.056768652
79	0x3e1b0ebc	0.1514234
80	0x3c9f9d2d	0.019484127
81	0xbe2fba17	-0.17160831
82	0xbdee2cca	-0.116296366
83	0x3dd9ebb2	0.106406584
84	0x3e0fd35b	0.1404547
85	0xbe3be05e	-0.18347308
86	0xbc0e52fb	-0.008686776
87	0x3e019df0	0.12657905
88	0xb30278b4	-3.0377763e-08
89	0xbe0c7edb	-0.13720267
90	0x3c366942	0.011133494
91	0x3b36102e	0.002778064
92	0xbdefbbbc	-0.11705729
93	0xbd96c5cc	-0.073619455
94	0xa44ce73d	-4.4431315e-17
95	0x3ca0cdc1	0.019629361
96	0x3d07c4bb	0.0331466
97	0xa3a2cdb0	-1.7651187e-17
98	0x3d81897e	0.06325053
99	0x3d97ce25	0.07412366
100	0xae034541	-2.984746e-11
101	0x0ca339b0	2.5148846e-31
102	0xbe58789b	-0.21139757
103	0x3d4bb395	0.04973181
104	0x3de3729b	0.11105844
105	0x3dd4f863	0.103989385
106	0x3bc3da24	0.005976932
107	0x3b919b45	0.0044435584
108	0x3c2264e1	0.009911747
109	0x3e21b899	0.15793075
110	0x3de603b0	0.11231172
111	0xbcb01cf7	-0.021498187
112	0x0ce7e374	3.5728079e-31
113	0x3d5fa140	0.05459714
114	0x3dd9ddb1	0.106379874
115	0x3d2c36f1	0.042044584
116	0x3dd72588	0.105052054
117	0x3e6e82dd	0.23292108
118	0xb1d6bbc4	-6.249566e-09
119	0x3dd13309	0.10214812
120	0x3d1b227c	0.037874684
121	0x3dd24a8e	0.102681264
122	0xbe5567bd	-0.20840354
123	0xa433c2ac	-3.897933e-17
124	0xbe1b370d	-0.15157719
125	0xb30c0627	-3.2601886e-08
126	0x3c933323	0.01796872
127	0x3e504c52	0.20341614

model.fc.2.weight f4 [1, 128]
0	0x3db2efd3	0.08737149
1	0xbd00702a	-0.031356968
2	0x3d317c2e	0.043331318
3	0x9d9987ae	-4.0639052e-21
4	0xbe4939d4	-0.19650966
5	0xbd8cba28	-0.06871444
6	0x3baafe90	0.0052183345
7	0xbbf5985d	-0.0074949698
8	0xbed3e944	-0.41388905
9	0xb918db40	-0.00014577527
10	0x399e9126	0.00030244252
11	0xbe8ede28	-0.27903867
12	0xbcbf12a6	-0.023324322
13	0xbd7d53f4	-0.061847642
14	0xbd8162d5	-0.06317679
15	0xbc5c8866	-0.013460254
16	0xb859d4b6	-5.1934934e-05
17	0xbd55e5b4	-0.052221015
18	0x3da189ea	0.07887633
19	0x3d53a5ad	0.051671673
20	0x3bbf6d41	0.0058418815
21	0xbc852cfd	-0.016256804
22	0x3db0995f	0.08623003
23	0x39e740ff	0.0004410818
24	0x3e43d6ba	0.1912488
25	0x3d76ec62	0.060284026
26	0xbea1346b	-0.31485304
27	0xbdfc77b1	-0.12327517
28	0x3ba40ecd	0.005006647
29	0xbdb53405	-0.088478126
30	0xbe753a08	-0.23947918
31	0x3a9c9216	0.0011945392
32	0x3debfc23	0.11522701
33	0xbcb79f45	-0.022414813
34	0xbda49541	-0.080362804
35	0xbe562660	-0.20913076
36	0x39051d98	0.00012694893
37	0x3d187af0	0.037226617
38	0x3df817b4	0.12113896
39	0xbe945ddb	-0.28977856
40	0x3adafab8	0.00167068
41	0x3c8dc69d	0.01730662
42	0x3d34f686	0.044180416
43	0xbe84bbf0	-0.25924635
44	0xbdc383a5	-0.095465936
45	0x38d2deb1	0.0001005506
46	0x3d7eb077	0.06218001
47	0x3cd0e68f	0.025500564
48	0xbdbca31f	-0.092108004
49	0xbd55fb52	-0.05224163
50	0x3d028ec5	0.031874437
51	0x3d8ec9b5	0.06972066
52	0x3cab0d9b	0.020880511
53	0xbe623764	-0.22091442
54	0xbcfabbaf	-0.030607073
55	0xbcbbd7ba	-0.022930015
56	0xbea88947	-0.32917234
57	0x3c5c07a7	0.013429559
58	0x39ce63c4	0.00039365713
59	0xac6db96a	-3.3782651e-12
60	0xbe64b28e	-0.22333738
61	0x3d645adf	0.055750724
62	0x39221ef9	0.00015461062
63	0xbde9fa63	-0.114247106
64	0x39d02188	0.00039697834
65	0xb788025b	-1.621356e-05
66	0xbdd337f2	-0.10313405
67	0xbd7bab16	-0.061442457
68	0xbd788248	-0.06067112
69	0xb2596625	-1.2654287e-08
70	0xb95ea4ee	-0.00021233011
71	0xbd03e948	-0.032204896
72	0x3d4fe460	0.050754905
73	0x3d007e00	0.031370163
74	0xbd87116b	-0.06595119
75	0xbe28ee16	-0.16497073
76	0xbd7aff86	-0.061278842
77	0x38af6c7d	8.364858e-05
78	0xbdb2b5f0	-0.08726108
79	0x3d2b649b	0.04184399
80	0xbd27149e	-0.040791146
81	0xbca3e9a0	-0.020008862
82	0x3c653d6c	0.013991695
83	0x3e7cd070	0.24688888
84	0xbd998b33	-0.07497253
85	0x3ce28b55	0.02765433
86	0xbe91c191	-0.28467992
87	0xbdb6565c	-0.089031905
88	0x390d86f3	0.0001349708
89	0xbd2ac538	-0.04169199
90	0x3dfd765c	0.12376091
91	0xbd62b52e	-0.055348568
92	0xbe890b46	-0.26766413
93	0x3cbe6f78	0.023246512
94	0x39cfde5b	0.00039647784
95	0x3e07b48a	0.13252464
96	0xbd8a715d	-0.067599036
97	0x39ce405c	0.00039339333
98	0xbd6bc85c	-0.057564124
99	0x3e6e6a80	0.23282814
100	0xae1086b4	-3.286145e-11
101	0xb8cbfff5	-9.72747e-05
102	0xbd00351d	-0.031300653
103	0x3c955ddd	0.018233234
104	0xbcd58208	-0.02606298
105	0x3d529f3c	0.05142139
106	0x3dab9438	0.0837788
107	0xbb9e6f26	-0.0048350273
108	0xbe3c5c7c	-0.18394655
109	0x3d63b8e9	0.055596266
110	0xbdbbce52	-0.09170212
111	0x3d740152	0.05957157
112	0xb92b14b7	-0.00016315548
113	0xbd552796	-0.052039705
114	0x3d516fdb	0.051132064
115	0x3c4a8fae	0.0123633575
116	0xbe9b9750	-0.3038888
117	0x3da48756	0.08033626
118	0x399f008d	0.00030327254
119	0x3d833486	0.064065024
120	0xbe91b49d	-0.2845811
121	0x3d86822f	0.06567799
122	0xbd178cbc	-0.03699945
123	0x39cf760e	0.00039570074
124	0x3c8fc359	0.017549204
125	0x3904696c	0.00012627774
126	0x3d38b515	0.04509457
127	0xbd05a034	-0.032623485

model.feature.0.weight f4 [128, 16]
0	0x3e1ddc14	0.15415984
1	0x3cf92f10	0.030417949
2	0x3e5e7494	0.21724159
3	0xbe18762e	-0.14888832
4	0x3db90304	0.09033778
5	0xbdd30ee4	-0.103055745
6	0x3e44bec2	0.19213393
7	0x3db13aa0	0.0865376
8	0xbd67d230	-0.056596935
9	0xbd856e88	-0.06515223
10	0xbca5ec70	-0.020254344
11	0x3e4909e2	0.19632676
12	0xbd9758e4	-0.073900014
13	0x3e399a0a	0.18125167
14	0xbe4a35dc	-0.19747108
15	0xbe1e424c	-0.15454978
16	0xbdab7ef0	-0.08373821
17	0x3e0e77de	0.13912913
18	0x3d7f06f8	0.062262505
19	0x3bbeebc0	0.0058264434
20	0x3d4a4748	0.049384385
21	0xbe39838c	-0.18116587
22	0xbd9fc364	-0.0780094
23	0x3dcab0a0	0.0989697
24	0x3d926e10	0.07149899
25	0x3e7204ac	0.23634595
26	0xbcc24310	-0.023713619
27	0x3db01044	0.085968524
28	0xbe1a6516	-0.15077624
29	0xbe4d7d38	-0.20067298
30	0x3e47600c	0.19470233
31	0x3e69550e	0.22786352
32	0xbd0cae68	-0.034346014
33	0xbe3d3232	-0.18476179
34	0x3e4d9dce	0.20079729
35	0xbd995c58	-0.07488316
36	0xbe49b9c4	-0.1969977
37	0x3d327f58	0.043578476
38	0xbb8271c0	-0.003980845
39	0xbd6059d8	-0.05477318
40	0x3e4b67ea	0.19863859
41	0xbbb273c0	-0.0054459274
42	0xbe1a5dac	-0.15074795
43	0x3e1c859c	0.15285343
44	0xbb28eb80	-0.0025775135
45	0xbd0b3e50	-0.033994973
46	0xbe3b0b2a	-0.18265978
47	0xbdad1e6c	-0.08453068
48	0xbe6a23d6	-0.22865233
49	0x3b3eeb00	0.002913177
50	0x3dd65ad8	0.10466546
51	0x3e65aebe	0.2242994
52	0xbe315892	-0.17318943
53	0xbe36141a	-0.17781106
54	0x3e215b3a	0.15757456
55	0xbe1f81d0	-0.15576863
56	0xbe15828c	-0.14600581
57	0x3e36a230	0.17835307
58	0x3e66f6a4	0.22555023
59	0xbe34f4e0	-0.17671537
60	0xbe2f8d1e	-0.17143676
61	0x3e4e7494	0.20161659
62	0xbb472780	-0.0030388534
63	0x3c169060	0.009189695
64	0x3e4189aa	0.18900171
65	0xbcd40870	-0.02588293
66	0xbe081980	-0.13290977
67	0x3e3cdcf6	0.18443665
68	0xbd8ec5b0	-0.069713
69	0xbdb52e9c	-0.08846781
70	0x3da76c9c	0.081750125
71	0xbdcfec40	-0.10152483
72	0xbde79e38	-0.11309475
73	0x3da0bec0	0.07848883
74	0x3dab4428	0.08362609
75	0x3e55a87a	0.2086505
76	0x3d8129ec	0.06306824
77	0xbbc7ac00	-0.006093502
78	0x3d2a0980	0.041512966
79	0x3e3f06a2	0.18654874
80	0x3e53d71e	0.2068753
81	0x3df7c998	0.12098998
82	0x3e617c42	0.22020057
83	0x3e1dce2e	0.15410683
84	0x3e3c8554	0.18410236
85	0xbe55f334	-0.20893556
86	0x3dd515c0	0.10404539
87	0xbe451bca	-0.19248882
88	0xbe4128cc	-0.18863219
89	0x3d98e4d4	0.074655205
90	0x3d093b60	0.03350389
91	0x3e64b4b4	0.22334558
92	0xbe38dc8e	-0.18052885
93	0xbe680914	-0.22659713
94	0xbe55d944	-0.20883662
95	0x3cc38b10	0.023870021
96	0x3d9f2a04	0.07771686
97	0xbe70df8c	-0.23522776
98	0x3da2f870	0.07957542
99	0x3de4bdbc	0.111690015
100	0xbe4ce042	-0.20007423
101	0xbd2f8858	-0.042854637
102	0x3d548008	0.051879913
103	0x3dbb95d4	0.09159437
104	0x3e4492ea	0.19196668
105	0xbe38c12e	-0.18042442
106	0xbe62cf0e	-0.22149298
107	0xbe034402	-0.12818912
108	0xbdd93ecc	-0.10607681
109	0x3e6d5c74	0.231798
110	0x3e1dd238	0.15412223
111	0x3dab3d30	0.0836128
112	0x3db7e72c	0.089796394
113	0xbe07aa70	-0.1324861
114	0xbd9a0a28	-0.075214684
115	0xbcf7ef50	-0.03026548
116	0x3df22ca8	0.11824924
117	0xbdb30cfc	-0.08742711
118	0xbd594e20	-0.05305302
119	0x3e7a9e26	0.24474391
120	0x3e07e7fa	0.13272086
121	0x3d627430	0.055286586
122	0x3cbcf390	0.023065358
123	0x3e7538e2	0.2394748
124	0x3c895d90	0.016768247
125	0xbd98503c	-0.074371785
126	0xbe2bbfa4	-0.16772324
127	0x3dc6aab4	0.09700528
128	0xbdf1378c	-0.11778173
129	0x3cd86380	0.026414633
130	0xbe021d9a	-0.12706605
131	0x3d8c0754	0.06837335
132	0xbda44fb4	-0.08023015
133	0x3db67ad0	0.089101434
134	0x3e767662	0.24068597
135	0x3cddab40	0.027059197
136	0xbdab4a30	-0.083637595
137	0x3e6c78ba	0.23092929
138	0xbd89aac8	-0.06722027
139	0x3e1948e6	0.14969215
140	0xbdbd1644	-0.092327625
141	0xbdd5aba0	-0.104331255
142	0xbddf7674	-0.10911265
143	0xbe074d64	-0.13213116
144	0xbdad9790	-0.08476174
145	0x3d262398	0.04056129
146	0x3e2cf636	0.16890797
147	0xbe712b3e	-0.23551652
148	0xbd379968	-0.044824034
149	0x3b21c480	0.0024683774
150	0xbb63a300	-0.0034734607
151	0xbd4a10e8	-0.04933253
152	0xbde92d68	-0.11385614
153	0x3e1efed2	0.15526894
154	0xbdbd7c44	-0.092522174
155	0x3d770e58	0.060316414
156	0x3e207892	0.15670994
157	0xbd8472f0	-0.06467235
158	0x3d90e5bc	0.07075068
159	0xbe5abbda	-0.21360722
160	0xbe43a4dc	-0.19105858
161	0xbd6cf438	-0.057850093
162	0xbe1236ac	-0.14278668
163	0xbd5a1ec8	-0.05325201
164	0x3ca72240	0.020402074
165	0xbca4b130	-0.02010402
166	0x3e7465ce	0.2386696
167	0x3e1cc44a	0.15309253
168	0xbe45471e	-0.1926541
169	0x3d9e4a40	0.07729006
170	0xbe343308	-0.17597592
171	0xbd06c8a8	-0.032906204
172	0x3d317d80	0.043332577
173	0x3d9cd070	0.07656944
174	0x3dd0aee4	0.10189608
175	0x3e0c42e4	0.13697392
176	0xbe580d18	-0.21098745
177	0x3cdfd390	0.02732256
178	0x3e23cd9c	0.15996403
179	0xbe4ea2e4	-0.20179325
180	0x3e464700	0.19363022
181	0xbe7bc800	-0.24588013
182	0xbdef2ea8	-0.11678821
183	0x3da1d294	0.07901493
184	0xbdc41364	-0.09574011
185	0x3daee00c	0.08538827
186	0x3d58b7f0	0.05290979
187	0xbe250c62	-0.16118005
188	0x3cb05250	0.021523625
189	0xbd1409d0	-0.03614217
190	0xbd6c1f48	-0.05764702
191	0xbd980a5c	-0.07423851
192	0xbe6e4334	-0.23267823
193	0x3e0422cc	0.12903899
194	0x3d64c800	0.055854797
195	0x3d311cb8	0.04324028
196	0x3e2eef6e	0.17083523
197	0xbe4ab26a	-0.19794622
198	0x3dcc0920	0.09962678
199	0x3ccc67c0	0.024951816
200	0x3e520f98	0.20513761
201	0x3df67f04	0.12035945
202	0xbe0e07c2	-0.13870147
203	0x3defa558	0.11701459
204	0xbe03fb96	-0.12888941
205	0x3e7528a0	0.23941278
206	0xbe3ffb84	-0.1874829
207	0xbe1c2832	-0.15249708
208	0xbc7ce440	-0.015435278
209	0x3dc57434	0.096413046
210	0x3d68c028	0.05682388
211	0x3dc256e0	0.09489226
212	0xbe2f687e	-0.17129704
213	0x3e414102	0.18872455
214	0x3b96dc40	0.0046038926
215	0x3dbb0d24	0.09133366
216	0xbe1239a0	-0.14279795
217	0x3e780b22	0.24222997
218	0x3de7d260	0.11319423
219	0x3e1c8f2e	0.15288994
220	0xbdce8b34	-0.10085145
221	0x3dde2f48	0.10848862
222	0xbd81e63c	-0.06342742
223	0xbd467cc8	-0.048458844
224	0x3da4f31c	0.08054182
225	0x3e131288	0.14362538
226	0x3e09a09a	0.13440171
227	0xbe1b2990	-0.15152574
228	0x3e4ecd2c	0.20195454
229	0x3e09ba04	0.13449866
230	0xbe439cc0	-0.19102764
231	0x3e04dc26	0.12974605
232	0xbe1eb20c	-0.15497607
233	0xbd93c05c	-0.07214424
234	0xbdc49360	-0.09598422
235	0xbe3007f0	-0.17190528
236	0x3d4e4660	0.050360084
237	0x3cb86440	0.02250874
238	0x3e37851e	0.17921874
239	0xbe5295e6	-0.20564994
240	0xbe2fdc34	-0.17173845
241	0x3cdbf150	0.026848465
242	0x3e4c4c94	0.19951087
243	0x3e79eaa6	0.24405918
244	0x3e1d6faa	0.15374628
245	0xbb5dd800	-0.003385067
246	0x3e423eb0	0.18969226
247	0xbdca455c	-0.098765105
248	0x3e5b597a	0.21420851
249	0xbdd8168c	-0.105511755
250	0xbe75a7d0	-0.23989797
251	0x3e6e8b14	0.23295242
252	0x3df52384	0.11969665
253	0xbe430080	-0.1904316
254	0xbe2cb2ce	-0.16865084
255	0x3d732b98	0.059367746

model.feature.0.bias f4 [128]
0	0xbd641690	-0.05568558
1	0x3e427128	0.18988478
2	0xbe4c9200	-0.1997757
3	0x3e2f7300	0.17133713
4	0x3d38e068	0.045135885
5	0x3e202c88	0.15641987
6	0x3df4a05c	0.119446486
7	0x3e0b3a90	0.13596559
8	0x3a13a000	0.0005631447
9	0x3e1135a8	0.14180624
10	0xbc6b4600	-0.014359951
11	0x3e6ecf24	0.23321205
12	0xbce5f2c0	-0.028069854
13	0xbd290ff8	-0.041274995
14	0xbe6cc57a	-0.23122206
15	0x3d0bba48	0.0341132
16	0xbd6fdb60	-0.05855882
17	0x3e1ab464	0.15107876
18	0x3e5db3f8	0.21650684
19	0xbe38bd54	-0.18040973
20	0x3e0127c0	0.1261282
21	0x3e26180e	0.16220114
22	0xbe44529c	-0.19172138
23	0x3d118430	0.035526454
24	0x3d4ead70	0.05045837
25	0x3e1b5314	0.1516841
26	0xbd176360	-0.036960006
27	0x3dd83114	0.10556236
28	0x3e74f902	0.23923114
29	0x3e2c7fbc	0.16845602
30	0x3e7b7d0c	0.2455942
31	0x3d8226a0	0.063550234
32	0x3da2d35c	0.0795047
33	0x3d98cb28	0.07460624
34	0xbb97bf80	-0.004630983
35	0xbe7f4834	-0.24929887
36	0xbddf0178	-0.10888952
37	0xbd5f7b50	-0.05456096
38	0x3d759e98	0.0599657
39	0xbe2b3c2e	-0.16722175
40	0x3db2d794	0.087325245
41	0x3e693e78	0.22777736
42	0xbe702f98	-0.23455656
43	0x3d8f5b10	0.06999791
44	0x3e32caaa	0.17460123
45	0xbe6ed260	-0.23322439
46	0x3d9faaa8	0.07796222
47	0x3e023a14	0.12717468
48	0x3e63b594	0.22237235
49	0xbe6b9ca6	-0.23008975
50	0xbe017aa8	-0.12644446
51	0x3e0d0dbe	0.13774773
52	0x3e2a6dca	0.16643444
53	0x3e277894	0.1635459
54	0x3e6a2b74	0.22868139
55	0xbe5a0ee8	-0.21294749
56	0xbe1256e0	-0.14290953
57	0x3e08f644	0.13375193
58	0x3e203ade	0.15647456
59	0xbdf4efac	-0.11959776
60	0xbda49c4c	-0.08037624
61	0x3d1e01a8	0.0385758
62	0x3e6c4a3e	0.23075196
63	0x3db92404	0.090400726
64	0x3e687b9e	0.22703406
65	0xbd44d810	-0.048057616
66	0x3d4c76b8	0.049917907
67	0x3da0b360	0.07846713
68	0xbd95c678	-0.073132455
69	0x3e0faa42	0.14029792
70	0x3d81d1d0	0.06338847
71	0xbd8c7ed8	-0.06860131
72	0xbd12ec30	-0.035869777
73	0xbe0cf01e	-0.13763472
74	0xbe5096e8	-0.20370066
75	0xbe011ab4	-0.12607843
76	0xbe64a1da	-0.22327366
77	0x3dbc5a54	0.09196916
78	0x3c508de0	0.012729138
79	0xbdc4d1c4	-0.09610322
80	0x3d600fb8	0.05470249
81	0xbb8105c0	-0.003937453
82	0x3e190124	0.14941841
83	0x3e7b626e	0.24549267
84	0x3e5d4882	0.21609691
85	0xbe6807d2	-0.22659233
86	0xbcf88f40	-0.030341744
87	0x3e612ec0	0.2199049
88	0xbde42fe8	-0.1114195
89	0xbe4ec072	-0.201906
90	0xbd3de7c0	-0.046363592
91	0xbd29a980	-0.041421413
92	0xbe274650	-0.16335416
93	0xbe6166f2	-0.22011927
94	0x3e42b6b2	0.19015005
95	0xbd231e78	-0.03982398
96	0xbe3ba44c	-0.18324393
97	0xbdb302f8	-0.087408006
98	0xbe6803c4	-0.22657686
99	0xbe511750	-0.2041905
100	0xbdc23120	-0.09482026
101	0xbdd95574	-0.10612002
102	0x3e6204b0	0.220721
103	0x3d61c530	0.055119693
104	0xbe143390	-0.14472795
105	0x3df0b4cc	0.11753234
106	0x3e614138	0.21997535
107	0x3d6ad9c8	0.0573366
108	0xbdd135dc	-0.10215351
109	0xbde1fea8	-0.110349
110	0xbe6a7dc2	-0.22899535
111	0xbe7ddccc	-0.24791259
112	0x3d84b230	0.06479299
113	0x3c1f0a00	0.009706974
114	0xbdbe57c0	-0.09294081
115	0x3e2297c6	0.1587821
116	0x3e4d0188	0.20020115
117	0xbe69e92c	-0.22842854
118	0x3d9e0b78	0.07717031
119	0xbdcecfe4	-0.10098246
120	0x3b67e580	0.0035384595
121	0xbd839f7c	-0.064269036
122	0xbe77494c	-0.24149054
123	0x3e5b5afe	0.2142143
124	0xbe35e9f0	-0.17765021
125	0x3e257e6a	0.16161504
126	0xbdd3ccac	-0.103417724
127	0x3c81fcf0	0.01586768

exp_avg f4 [4]
0	0x3cbdc835	0.023166755
1	0xbcb936af	-0.022609083
2	0xbc4b0115	-0.012390395
3	0xbc7ef102	-0.01556039

exp_avg_sq f4 [4]
0	0x3c3f3a9c	0.011671688
1	0x3cfe5ee7	0.031051112
2	0x3b0b06d2	0.0021213782
3	0x3c520678	0.012818925

exp_avg f4 [4, 4]
0	0x3b0354b2	0.0020039496
1	0x3ac4c539	0.001501239
2	0x3c3bff78	0.011474483
3	0x3c0991ed	0.008396608
4	0xbb944579	-0.0045248833
5	0xbc03e8c4	-0.008051101
6	0xbbc435ab	-0.005987843
7	0xbb811712	-0.003939518
8	0xbad07f07	-0.0015906998
9	0xb9412eb2	-0.0001842331
10	0xbc02f897	-0.007993839
11	0xbb2f391b	-0.0026736918
12	0xbc10fd27	-0.008849419
13	0xbba48f2a	-0.0050219493
14	0xbad2d45e	-0.0016085019
15	0xb7f6046b	-2.9327543e-05

exp_avg_sq f4 [4, 4]
0	0x39132827	0.0001403397
1	0x38dc9c2d	0.000105195075
2	0x3b487d87	0.0030592398
3	0x3aa952cb	0.0012918351
4	0x3b38e869	0.00282147
5	0x3b1f1890	0.0024276115
6	0x3b47cef3	0.0030488342
7	0x3a9a735d	0.0011783649
8	0x3850fadd	4.98247e-05
9	0x35bc231b	1.4017309e-06
10	0x3a6fc8e5	0.0009147062
11	0x38b24eed	8.5024025e-05
12	0x3b2a48a7	0.0025983246
13	0x3b0c0949	0.002136784
14	0x393c5f0b	0.00017964483
15	0x374c0628	1.2160781e-05

exp_avg f4 [8]
0	0x3c6698c9	0.014074513
1	0xb2d43e43	-2.4708362e-08
2	0xbd0996f9	-0.033591244
3	0xbde881b9	-0.11352868
4	0x3cfcd761	0.03086442
5	0xac0c4a12	-1.9936314e-12
6	0x3dbf272e	0.09333645
7	0x3ddd739a	0.10813065

exp_avg_sq f4 [8]
0	0x3e469e98	0.19396436
1	0x3175107e	3.5661567e-09
2	0x3cd2f434	0.02575121
3	0x3f407134	0.75172734
4	0x3dff50bb	0.1246657
5	0x2a96a28f	2.675815e-13
6	0x3e520512	0.20509747
7	0x3f4b779a	0.7947937

exp_avg f4 [8, 4]
0	0xbaae1efa	-0.0013284378
1	0x3c25b60c	0.010114204
2	0xb927f4cc	-0.00016017555
3	0x3ab1a70a	0.001355381
4	0x31fc6bd5	7.3464244e-09
5	0xb3683982	-5.4069012e-08
6	0xa78a8653	-3.844833e-15
7	0xafe327aa	-4.1319242e-10
8	0xbb1984e0	-0.0023425147
9	0xbc4ae647	-0.012384004
10	0xb92a44f4	-0.0001623815
11	0xbab0e45d	-0.0013495792
12	0xbbba5d13	-0.005687365
13	0xbd0b6dee	-0.034040384
14	0xb9b4619e	-0.00034405006
15	0xbb68547d	-0.003545075
16	0x3b0364d9	0.0020049124
17	0x399f6b08	0.00030406588
18	0x39090570	0.00013067364
19	0x37c3584a	2.3286924e-05
20	0x0549918d	9.477708e-36
21	0xa597eb5f	-2.6353818e-16
22	0x03924279	8.59637e-37
23	0x07e2437a	3.404436e-34
24	0x3be0538a	0.006845896
25	0x3cb079c8	0.021542445
26	0x39e532ad	0.0004371604
27	0x3ada9027	0.0016675041
28	0x3c0424a8	0.00806538
29	0x3cd5ab04	0.026082523
30	0x39d8b226	0.0004133146
31	0x3a935b0f	0.0011242348

exp_avg_sq f4 [8, 4]
0	0x3a84f6e9	0.0010144386
1	0x3c36240c	0.011116993
2	0x368bb908	4.1640633e-06
3	0x387a019a	5.9606136e-05
4	0x2da0df60	1.8289092e-11
5	0x2f748019	2.223718e-10
6	0x2a0fd3a6	1.2774382e-13
7	0x2b88f21a	9.730578e-13
8	0x39311939	0.00016889432
9	0x3b0b4534	0.0021250965
10	0x3543b7b5	7.291049e-07
11	0x370879fc	8.134633e-06
12	0x3a583f3e	0.000824917
13	0x3d8b0277	0.067875795
14	0x3646d7da	2.9629941e-06
15	0x39f13ffd	0.00046014777
16	0x3b2bfcba	0.0026243166
17	0x3a0fb3a1	0.0005481784
18	0x3750e0b9	1.2450088e-05
19	0x336f1b2c	5.5671237e-08
20	0x248ab48b	6.015381e-17
21	0x29ce72e4	9.168168e-14
22	0x20b4e77f	3.0646377e-19
23	0x278bf795	3.884868e-15
24	0x3a5224a6	0.00080163253
25	0x3c5ffa2c	0.0136704855
26	0x3677e20e	3.693745e-06
27	0x38a0bca0	7.664529e-05
28	0x3b167646	0.002295868
29	0x3d51ff81	0.05126906
30	0x372125d4	9.605155e-06
31	0x390be801	0.00013342501

exp_avg f4 [16]
0	0xbd7dc3a6	-0.061954163
1	0xb33ada0f	-4.3504823e-08
2	0x3b4ce147	0.0031262205
3	0xafe4525e	-4.1531484e-10
4	0xbc96d95e	-0.018414196
5	0x3d84376f	0.064558856
6	0xbd926503	-0.07148173
7	0xbd27a83b	-0.04093192
8	0x3ddea002	0.10870363
9	0xb31bf6a4	-3.6313068e-08
10	0xbc845a1c	-0.016156249
11	0xbbf67273	-0.0075209676
12	0x3dde77bd	0.10862682
13	0xbcdd5eae	-0.027022686
14	0xbc02e544	-0.0079892315
15	0x3cde6c4d	0.027151251

exp_avg_sq f4 [16]
0	0x3ec16f57	0.37780258
1	0x3248114a	1.1645463e-08
2	0x3e88c1c3	0.26710328
3	0x2b9712cc	1.0734412e-12
4	0x3d2f4a42	0.042795427
5	0x3f4aedf8	0.7926936
6	0x3f0e8a5f	0.5567989
7	0x3d904268	0.07043916
8	0x3ea8c543	0.32963
9	0x3262e655	1.3207303e-08
10	0x3dbc8815	0.09205643
11	0x3caa0a2b	0.020756802
12	0x3e8fdb8e	0.28097194
13	0x3e8a8dce	0.27061313
14	0x3b206eb1	0.002448004
15	0x3f174f50	0.59105396

exp_avg f4 [16, 8]
0	0xbc146c08	-0.00905896
1	0xb343d665	-4.5596966e-08
2	0xbbaa4e5f	-0.005197331
3	0xbbe9cdd3	-0.007135132
4	0xbb537df1	-0.0032271112
5	0x04323dbc	2.0952146e-36
6	0xbbffdc11	-0.0078082164
7	0xbae98eb0	-0.0017819013
8	0xb347a5f7	-4.6484242e-08
9	0x06e057f3	8.4388665e-35
10	0xb283758d	-1.5303863e-08
11	0xb37be358	-5.864726e-08
12	0x31680855	3.376518e-09
13	0x0001de0f	1.71495e-40
14	0xb3432fc1	-4.5445407e-08
15	0xb1bb3e73	-5.449516e-09
16	0xbb6ac01b	-0.003582007
17	0x323df183	1.1056161e-08
18	0xb9985f7f	-0.0002906285
19	0xbbb1f042	-0.0054302523
20	0x3b114dc8	0.0022171605
21	0x0403acb1	1.5478272e-36
22	0xbb0362ae	-0.0020047831
23	0x39d89073	0.00041306354
24	0x1558ec9b	4.38075e-26
25	0x00287c30	3.71797e-39
26	0x06a7bf0d	6.309914e-35
27	0x974cbb2e	-6.615221e-25
28	0x058d1d76	1.3270399e-35
29	0x00029e0f	2.40372e-40
30	0x0d89cf01	8.493111e-31
31	0x859ac07d	-1.45528e-35
32	0x3a674bb0	0.0008823229
33	0x3002a33a	4.7525683e-10
34	0x3a3dca5b	0.0007239931
35	0x3aa57d51	0.0012625848
36	0xba409812	-0.0007346879
37	0x84b43d2a	-4.2373967e-36
38	0x3a83d98f	0.0010059344
39	0xba2189c8	-0.00061621936
40	0x3c66f8ab	0.014097373
41	0x32e37ec8	2.6483931e-08
42	0x3bc62c32	0.006047749
43	0x3c5fb7b5	0.013654639
44	0x3ad3c9a5	0.0016158117
45	0x03b1f4a8	1.0459295e-36
46	0x3c36a7f8	0.011148445
47	0x3ad3f32c	0.0016170493
48	0xbc5b7e87	-0.013396866
49	0xb3012abb	-3.0074016e-08
50	0xbbc92429	-0.006138344
51	0xbc5076ba	-0.012723619
52	0xbb10cb3b	-0.002209379
53	0x851f9736	-7.503917e-36
54	0xbc2dc523	-0.010606083
55	0xbae369f4	-0.0017350302
56	0xbbb2c7e8	-0.0054559596
57	0xb2cac548	-2.3605608e-08
58	0xbb3d0b9e	-0.0028846036
59	0xbb925a5b	-0.0044663376
60	0xbb1fb488	-0.002436908
61	0x04535420	2.484156e-36
62	0xbb993a17	-0.0046761143
63	0xba954278	-0.0011387607
64	0x3c7c14fc	0.015385862
65	0x3350636f	4.8519208e-08
66	0x3bc6c34c	0.0060657617
67	0x3c6f13cf	0.014592125
68	0x3b3f7ae8	0.0029217545
69	0x84c3d34e	-4.6038332e-36
70	0x3c3ec5de	0.011643855
71	0x3b399a11	0.002832059
72	0xb3264b8f	-3.8718607e-08
73	0x8541aa97	-9.106149e-36
74	0xb177a65b	-3.6037793e-09
75	0xb349a133	-4.694557e-08
76	0x3291e8b7	1.6986048e-08
77	0x00025f9b	2.17968e-40
78	0xb30041b3	-2.9862075e-08
79	0xb1aa054f	-4.9482547e-09
80	0xbb671bee	-0.003526445
81	0xb2a401f0	-1.9092994e-08
82	0xba839bca	-0.0010040936
83	0xbb8634c1	-0.004095644
84	0xb8e476da	-0.00010894025
85	0x04665b2c	2.7078234e-36
86	0xbb15cd9b	-0.0022858146
87	0xb9aeb650	-0.000333237
88	0xb9aa9c65	-0.0003254145
89	0x3119ebbf	2.2398436e-09
90	0xba98dcf0	-0.0011662524
91	0x3a1cdc62	0.00059837673
92	0xbab398dc	-0.0013702172
93	0x8473ad7b	-2.8644171e-36
94	0xba452717	-0.00075207785
95	0xb9a1909a	-0.0003081605
96	0x3c818d5d	0.015814478
97	0x332145d4	3.7549242e-08
98	0x3be4ce2e	0.0069825863
99	0x3c663c38	0.014052443
100	0x3b8c8050	0.004287757
101	0x04f37cbc	5.7243576e-36
102	0x3c4e9ecf	0.012611105
103	0x3b46e24d	0.0030347288
104	0xbba4bd81	-0.0050274734
105	0x31f9520b	7.256181e-09
106	0xbadab171	-0.0016684962
107	0xbb86e566	-0.004116702
108	0x38213924	3.8438608e-05
109	0x0487b8d5	3.190809e-36
110	0xbb88a1b4	-0.004169667
111	0xba8016df	-0.0009772441
112	0xbaa16c3f	-0.0012315585
113	0xa8a0fee2	-1.7874106e-14
114	0xb9a561c7	-0.00031544102
115	0xbaa59ad2	-0.0012634641
116	0xb80f7c9f	-3.420992e-05
117	0x83c3da68	-1.15112135e-36
118	0xba4ae0e5	-0.00077392004
119	0xb9391384	-0.00017650245
120	0x3bd542b7	0.006508197
121	0x33800463	5.9612624e-08
122	0x3b914a05	0.0044338726
123	0x3bb1f77e	0.0054311147
124	0x3ac4d26f	0.0015016327
125	0x852ac4de	-8.0295204e-36
126	0x3bba529a	0.0056861164
127	0x3a40e610	0.0007358501

exp_avg_sq f4 [16, 8]
0	0x3c058a6c	0.008150678
1	0x2f09d80e	1.2536835e-10
2	0x3a6f232a	0.00091223663
3	0x3c0582d8	0.008148871
4	0x39a9b404	0.00032368314
5	0x237db0a8	1.3752566e-17
6	0x3b9552eb	0.0045570037
7	0x398b6854	0.00026589877
8	0x2f81262f	2.3492094e-10
9	0x2681c467	9.004408e-16
10	0x2dc3da4f	2.2265882e-11
11	0x2f8286f4	2.3742752e-10
12	0x2d2ef4ae	9.945085e-12
13	0x1447df06	1.0090916e-26
14	0x2f0eda2f	1.2992339e-10
15	0x2d189a4c	8.6744605e-12
16	0x3b86f1c4	0.004118176
17	0x2e12582d	3.3274872e-11
18	0x3a766b5f	0.0009400155
19	0x3b5536b9	0.0032533838
20	0x3a4a4c3a	0.0007717047
21	0x2381494b	1.4017249e-17
22	0x3b2fffdc	0.0026855385
23	0x39669ea0	0.00021993602
24	0x290b7e7b	3.0973904e-14
25	0x188dabd5	3.662115e-24
26	0x271c7a47	2.1715636e-15
27	0x2917344f	3.3574106e-14
28	0x24ef9a8c	1.0391154e-16
29	0x14ab8c1d	1.7321852e-26
30	0x2897bb0e	1.684549e-14
31	0x26509574	7.2367043e-16
32	0x3a4ab068	0.0007731975
33	0x2cade791	4.9426648e-12
34	0x38c38427	9.32294e-05
35	0x3a3fa2f5	0.0007310354
36	0x38564a5f	5.109084e-05
37	0x23087079	7.396392e-18
38	0x39e5ee8e	0.0004385602
39	0x380815d5	3.244526e-05
40	0x3c83b127	0.016075684
41	0x2f3ba068	1.7064539e-10
42	0x3b02f614	0.00199831
43	0x3c7cdf46	0.015434092
44	0x3a645061	0.0008709487
45	0x2435e225	3.943967e-17
46	0x3c16ea61	0.009211154
47	0x3a16aa62	0.0005747435
48	0x3c4755eb	0.0121664805
49	0x2f023e22	1.1845505e-10
50	0x3ac3d070	0.0014939439
51	0x3c44006b	0.01196299
52	0x3a0d9a91	0.00054017553
53	0x241f906c	3.459996e-17
54	0x3be2e3f0	0.006924145
55	0x39caf76c	0.00038712786
56	0x3a3f4059	0.00072956603
57	0x2d324338	1.0133054e-11
58	0x39a85b69	0.00032111563
59	0x39c2b326	0.0003713604
60	0x39c54651	0.00037627158
61	0x2210993d	1.9596763e-18
62	0x3a19fda9	0.0005874285
63	0x388bc86f	6.66537e-05
64	0x3c07c604	0.008286957
65	0x2ec61a89	9.008711e-11
66	0x3a6c0cdc	0.0009004602
67	0x3c0f4768	0.008745052
68	0x394efebf	0.00019740591
69	0x23c851ac	2.1718633e-17
70	0x3b9503db	0.0045475787
71	0x3956bf3e	0.00020479874
72	0x2f5b9758	1.9971702e-10
73	0x25345086	1.5639794e-16
74	0x2deb1b7c	2.6728612e-11
75	0x2f33c98d	1.635156e-10
76	0x2d90d29a	1.646443e-11
77	0x14a125e1	1.6271786e-26
78	0x2f05666a	1.2132664e-10
79	0x2d48c53b	1.1412478e-11
80	0x3b32b5a5	0.0027268913
81	0x2db377d0	2.0403151e-11
82	0x3925fc1d	0.00015829546
83	0x3b515710	0.0031942762
84	0x35bf397b	1.4247338e-06
85	0x235bd3c7	1.1916859e-17
86	0x3ab4f4d9	0.001380588
87	0x386181c6	5.376504e-05
88	0x39b5baf5	0.00034662304
89	0x2c748701	3.4749428e-12
90	0x3866a27c	5.49876e-05
91	0x39a7b3c6	0.00031986664
92	0x3836e9ca	4.3609914e-05
93	0x21bf2779	1.2953112e-18
94	0x3954b217	0.00020284239
95	0x3787f525	1.6207408e-05
96	0x3bc5086f	0.0060129683
97	0x2ed1c55e	9.539279e-11
98	0x3a2f90d4	0.0006697301
99	0x3bc496ce	0.0059994226
100	0x39847fb7	0.00025272157
101	0x23dbab50	2.3816581e-17
102	0x3b5c3f29	0.0033606982
103	0x394e3766	0.00019666328
104	0x3b1c668b	0.0023864831
105	0x2e483ca1	4.5528584e-11
106	0x3a4ce6c7	0.0007816371
107	0x3aa84ea5	0.0012840821
108	0x3a86865c	0.0010263431
109	0x222833d6	2.2795687e-18
110	0x3ae1df8b	0.0017232759
111	0x398b3af2	0.00026556064
112	0x38a524d6	7.874674e-05
113	0x2a37443e	1.6277341e-13
114	0x36bcabc2	5.622832e-06
115	0x38c34ed1	9.313005e-05
116	0x335fd761	5.211712e-08
117	0x2090dd24	2.4540887e-19
118	0x38292e75	4.0336006e-05
119	0x35b7f15b	1.3704806e-06
120	0x3c4d4427	0.012528456
121	0x2eccfed6	9.322114e-11
122	0x3ac71ac4	0.0015190472
123	0x3c4f2b11	0.012644545
124	0x39265ad5	0.00015864831
125	0x24103297	3.1267874e-17
126	0x3bddcd89	0.0067688865
127	0x39bd2ca6	0.00036082155

exp_avg f4 [128, 16]
0	0x3b811319	0.003939044
1	0x328ce137	1.6400561e-08
2	0x3ab64910	0.0013907272
3	0x150384c4	2.6559973e-26
4	0x3b509217	0.0031825358
5	0x3a5931eb	0.00082853314
6	0x3af38b61	0.0018580967
7	0x3bc1911c	0.005907191
8	0x3b3fd086	0.0029268577
9	0x32046abd	7.707681e-09
10	0x3a8589e2	0.0010188187
11	0x3b8dd16e	0.0043279445
12	0x3b00475d	0.0019573786
13	0xb82cc90c	-4.1195235e-05
14	0x3a71a59c	0.0009218098
15	0x39b98348	0.00035383762
16	0xbab48858	-0.0013773544
17	0xb0d310fa	-1.5357096e-09
18	0xb9fc4bb1	-0.0004812158
19	0x06b03b76	6.629121e-35
20	0xba901a58	-0.0010994179
21	0xb9982154	-0.0002901653
22	0xba2bb04b	-0.0006549402
23	0xbb07fa9c	-0.002074874
24	0xba85bf83	-0.001020417
25	0xaf54513c	-1.9310148e-10
26	0xb9b30d94	-0.00034151657
27	0xbac5731a	-0.001506421
28	0xba2f3a34	-0.0006684393
29	0x38228237	3.8745082e-05
30	0xb9a3920e	-0.00031198602
31	0xb9041446	-0.00012596053
32	0x3b012db3	0.0019711077
33	0x3190da29	4.2157535e-09
34	0x3a31f188	0.0006788005
35	0x88971e9f	-9.095181e-34
36	0x3ad13d48	0.0015963698
37	0x39e0558f	0.00042788355
38	0x3a7365a9	0.0009284863
39	0x3b418151	0.0029526541
40	0x3ac09ce4	0.0014695195
41	0x30820256	9.459409e-10
42	0x3a0dbe10	0.00054070447
43	0x3b0d433c	0.0021554967
44	0x3a78850f	0.00094802765
45	0xb7e4ea4c	-2.7288821e-05
46	0x39e3e7fd	0.0004346966
47	0x39234312	0.00015569877
48	0xb0983bc5	-1.1076443e-09
49	0x80000003	-4e-45
50	0xa8edcf97	-2.6402313e-14
51	0x80000004	-6e-45
52	0xafc6cf24	-3.6163172e-10
53	0x1586e0fb	5.4477126e-26
54	0xacbc92d2	-5.3595817e-12
55	0xb15f859a	-3.2526715e-09
56	0xae366f9e	-4.1481145e-11
57	0x8000002e	-6.4e-44
58	0xab587a6e	-7.690852e-13
59	0xb0895012	-9.990819e-10
60	0xa318b771	-8.278782e-18
61	0x029960ee	2.2536964e-37
62	0xa990366e	-6.404327e-14
63	0x880bb145	-4.203717e-34
64	0x3a9840d6	0.0011616002
65	0x31391702	2.6934122e-09
66	0x3a6f960b	0.00091394846
67	0x02029fd7	9.596763e-38
68	0x3a98235c	0.0011607218
69	0x3a86fd00	0.0010298789
70	0x3a6962b5	0.0008902953
71	0x3b006d8f	0.0019596552
72	0x3ae73c9a	0.0017641962
73	0x30053848	4.84651e-10
74	0x391e9189	0.0001512227
75	0x3ad59139	0.001629389
76	0x3afcca99	0.0019286453
77	0x3a78e758	0.0009494922
78	0x38fadb34	0.00011961759
79	0x38c19297	9.230262e-05
80	0xbb70cd9d	-0.0036743649
81	0xb28aba1d	-1.6149949e-08
82	0xba55b9ea	-0.00081530085
83	0x8a70265e	-1.1562796e-32
84	0xbb5013a5	-0.003174999
85	0xba37f4cc	-0.00070173736
86	0xbab04e47	-0.0013451063
87	0xbbac786f	-0.0052633802
88	0xbb1b36e8	-0.002368385
89	0xb16580a1	-3.3397003e-09
90	0xba945174	-0.0011315779
91	0xbb6ea1ec	-0.003641243
92	0xba8b7efc	-0.0010642703
93	0x3985ff25	0.00025557834
94	0xba603c8f	-0.0008553946
95	0xb951f7af	-0.00020024063
96	0x39927516	0.00027934526
97	0x9b4e7d0c	-1.7080325e-22
98	0x38e9f603	0.00011156129
99	0x055c1f43	1.0350092e-35
100	0x39420ad2	0.00018505313
101	0x3870645d	5.731393e-05
102	0x390f71be	0.00013679915
103	0x39cdfc4b	0.0003928862
104	0x394521b1	0.00018799935
105	0x10091428	2.7034014e-29
106	0x38818a62	6.176975e-05
107	0x398e9f98	0.00027203257
108	0x3911b921	0.00013897243
109	0xb5e4913f	-1.7029596e-06
110	0x383f0ffc	4.5552835e-05
111	0x38007030	3.062206e-05
112	0xb9a321f1	-0.0003111507
113	0xa71c9b70	-2.1733612e-15
114	0xb8ffbbdd	-0.0001219434
115	0x858b27c2	-1.3086102e-35
116	0xb97e0718	-0.0002422597
117	0xb85fabd9	-5.332739e-05
118	0xb9044c2c	-0.00012616877
119	0xb9e95808	-0.00044506812
120	0xb96c44d4	-0.00022532354
121	0x1b07cc30	1.1232915e-22
122	0xb8da0293	-0.000103955295
123	0xb9b811e2	-0.0003510854
124	0xb91fc178	-0.00015235494
125	0x37ab3e44	2.0413783e-05
126	0xb8c1f856	-9.249213e-05
127	0xb81cb04b	-3.7357484e-05
128	0x3b327eb3	0.0027236163
129	0x328b88c6	1.6243927e-08
130	0x3b19662b	0.0023406844
131	0x05240424	7.7120035e-36
132	0x3b339627	0.002740273
133	0x3b1ac2b9	0.00236146
134	0x3b12cd4f	0.0022400205
135	0x3b9e71d6	0.0048353476
136	0x3b8e88a3	0.0043497845
137	0x31e780ed	6.737642e-09
138	0x39b17ad2	0.0003385158
139	0x3b8526c2	0.004063458
140	0x3b9fff01	0.0048826938
141	0x3b0d78bb	0.0021586854
142	0x398d6c5a	0.00026974344
143	0x39832c71	0.00025019379
144	0xaff707db	-4.493462e-10
145	0x0001c11d	1.61111e-40
146	0x1b61eb23	1.868754e-22
147	0x00a1d2d0	1.486114e-38
148	0xaf5af7ef	-1.9915068e-10
149	0x9bfcd405	-4.1826917e-22
150	0xa94dda4a	-4.570848e-14
151	0xb0ccc9dd	-1.4900327e-09
152	0xad60ea4e	-1.2784952e-11
153	0x00003c4a	2.1628e-41
154	0xa91b5694	-3.449201e-14
155	0xaf9d8778	-2.865439e-10
156	0x971a849d	-4.9927465e-25
157	0x8401dcf6	-1.5265337e-36
158	0xa4e541b4	-9.9424224e-17
159	0x869b839c	-5.84979e-35
160	0xb2cb14d9	-2.364179e-08
161	0x86577b3a	-4.0527538e-35
162	0xb163c68a	-3.3145704e-09
163	0x02c7812e	2.9314567e-37
164	0xb2aa36db	-1.981555e-08
165	0xb13caa9f	-2.7454587e-09
166	0xb21522d8	-8.680864e-09
167	0xb2e7411c	-2.6921548e-08
168	0xb24e5b49	-1.2011534e-08
169	0x859b2b41	-1.4592019e-35
170	0xb219e896	-8.958656e-09
171	0xb2b8d591	-2.1517538e-08
172	0xb11d6bf3	-2.290787e-09
173	0xae07083d	-3.0702763e-11
174	0xb1ba9cb5	-5.431128e-09
175	0xa72dbd54	-2.4111208e-15
176	0x3a594291	0.0008287812
177	0x314c4085	2.9722582e-09
178	0x3a4dcd34	0.0007850707
179	0x0459ded7	2.561055e-36
180	0x3a430d30	0.0007440625
181	0x3a10a398	0.00055175414
182	0x3a3dbfa4	0.00072383345
183	0x3ac0dd54	0.0014714398
184	0x3aa5fe87	0.0012664356
185	0x2fb19330	3.2300695e-10
186	0x395a8349	0.00020839008
187	0x3aaa9ab9	0.0013016082
188	0x3ab93056	0.0014128785
189	0x3a13a470	0.0005632108
190	0x393780b8	0.00017500191
191	0x380ea882	3.4012373e-05
192	0xbb0cf8c2	-0.0021510576
193	0x27100c46	1.9990668e-15
194	0xba4a6a57	-0.00077215343
195	0x86440b15	-3.6871645e-35
196	0xbafd3db4	-0.0019320757
197	0xba7ecb96	-0.0009719668
198	0xba81a651	-0.0009891485
199	0xbb4c4d8c	-0.0031174151
200	0xbaf32439	-0.0018550224
201	0x1bdce7d1	3.6545755e-22
202	0xba008fa4	-0.00049042166
203	0xbb12ff5c	-0.0022430038
204	0xbab906eb	-0.0014116442
205	0xba16936c	-0.00057440135
206	0xb9d5288d	-0.0004065674
207	0xb9185796	-0.00014528478
208	0xbb223c7a	-0.0024755285
209	0xb211697b	-8.464094e-09
210	0xba78c943	-0.00094904396
211	0x0baa2eb0	6.5551866e-32
212	0xbb0603da	-0.0020449073
213	0xba438cdc	-0.00074596494
214	0xbaa15222	-0.0012307803
215	0xbb6eb34d	-0.003642279
216	0xbafc7ecc	-0.0019263863
217	0xb183aa9e	-3.8319987e-09
218	0xba25dcd3	-0.0006327156
219	0xbb30d903	-0.0026984818
220	0xbab71010	-0.0013966579
221	0xb9abb7a6	-0.0003275249
222	0xba115e17	-0.00055453315
223	0xb96ba545	-0.00022472914
224	0xbb3787ad	-0.0028004453
225	0xb22acffa	-9.942591e-09
226	0xba826317	-0.0009947744
227	0x8ca8aa07	-2.598683e-31
228	0xbb131050	-0.0022440143
229	0xba142579	-0.0005651336
230	0xbab252b3	-0.0013604969
231	0xbb89c4b8	-0.004204359
232	0xbb06261a	-0.0020469488
233	0xb1734f7a	-3.5406331e-09
234	0xba3d0611	-0.0007210682
235	0xbb499bb6	-0.0030762977
236	0xbab668f8	-0.0013916781
237	0x38752f68	5.8456702e-05
238	0xba281516	-0.00064118335
239	0xb9806c3c	-0.00024494703
240	0xba46c94c	-0.0007583096
241	0xada9bdd7	-1.9297381e-11
242	0xb9c755fb	-0.00038020298
243	0x8532aede	-8.401638e-36
244	0xba233d54	-0.0006227095
245	0xb971576b	-0.00023016117
246	0xb9e58eeb	-0.00043784766
247	0xba99fd3d	-0.0011748445
248	0xba3c02ba	-0.0007172037
249	0xaa447a7c	-1.7450792e-13
250	0xb936f35e	-0.00017447534
251	0xba68d9dc	-0.0008882561
252	0xba1d9e7f	-0.00060126925
253	0xb8f73257	-0.00011787254
254	0xb929fcd0	-0.00016211276
255	0xb8951c16	-7.110105e-05
