model/GCN/set2/version_1/checkpoints/epoch=5-step=168.ckpt (torch, 88097 bytes, 29 tensors)

model.conv1.bias f4 [4]
00000000: d0d7 553d 220e 0d3a 458d 75bd ba47 313c
0.052207768 0.0005380829 -0.05994918 0.010820324

model.conv1.lin.weight f4 [4, 4]
00000000: e525 dbbe 600e 4ebf 09e3 323f 8c55 a3be
00000010: b6e2 3d3f 17d1 3b3f 40c6 043e ed3f 32bf
00000020: 3e43 64bc 51c1 a1be 9880 453e 8ca1 96be
00000030: b4bf 923e 4090 383b 8731 a1be a67f 2ebf
-0.4280235 -0.80490685 0.6987768 -0.31901205 0.7417406 0.7336592 0.12966251 -0.69628793
-0.013932047 -0.315928 0.19287336 -0.29420125 0.28661883 0.0028162152 -0.314831 -0.68163526

model.conv2.bias f4 [8]
00000000: 1c00 13bd 115f 08bb a93e d6bc ae0c a93a
00000010: 2eff 2a3d 4ac1 9b3b 588f 0e3c 6310 e53c
-0.035888776 -0.0020808617 -0.026152926 0.0012897456 0.041747265 0.0047532665 0.008701168 0.027961915

model.conv2.lin.weight f4 [8, 4]
00000000: a89c 9f3d 474c 0a3f 45d5 5ebd 1ac3 42be
00000010: f285 c9bc 36f2 f03b 2e0b 0d3a a829 d23c
00000020: 775d fd3e 58bc 673d ae9f f13e 4ee4 353f
00000030: c0bb 88be 9b7b 1d3f ca13 d03d 26a9 2bbe
00000040: 7adf 213f 1e62 25bf 32a8 09bf 1ed3 403e
00000050: 32c9 53bc 119f 20bc 2a57 1f3b cc54 463d
00000060: 8de3 013f 710f d63e 3af7 3dbd 0718 e0be
00000070: 3203 c83d f6cc bf3b 06a8 06bf 885f d4be
0.07793552 0.5402264 -0.05440261 -0.19019738 -0.024600003 0.0073530925 0.0005380389 0.025654629
0.4948537 0.056576103 0.47192138 0.7105149 -0.26705742 0.6151673 0.101600245 -0.16763744
0.63231623 -0.6460284 -0.5377227 0.18830535 -0.012926387 -0.009803549 0.0024313428 0.048420712
0.5073784 0.41808656 -0.04637835 -0.4376833 0.097662345 0.0058532907 -0.52600133 -0.41479135

model.conv3.bias f4 [16]
00000000: 4d0e 45bb 460d f5b9 029d 4ebc 6926 abb9
00000010: cbbf c83c 2d11 ce3c 4699 03bc 9c05 ce3a
00000020: 29e7 b33b 1206 ffb9 3387 b13c 7f53 77b9
00000030: 781b 5b3b f02f 033d 79a1 303c 80b0 cf3c
-0.0030068338 -0.0004673993 -0.012610676 -0.0003264428 0.024505517 0.025154674 -0.008032149 0.0015718224
0.005490203 -0.00048641913 0.021670913 -0.0002358686 0.003343312 0.03202814 0.010780686 0.025352716

model.conv3.lin.weight f4 [16, 8]
00000000: fb21 d93e 67a4 bd3a c539 513e 3679 013f
00000010: 7452 2bbe 5a16 aa3b 34ef e0be d842 0a3c
00000020: 0ea3 3fb9 c7d0 3eb3 e010 83b8 e5ce 6cb9
00000030: 7a02 5b34 5aba 9033 1b1d 1eb9 24dd 8a34
00000040: 37b4 1dbd f0b0 9bbb 97a2 333e 85bf 313e
00000050: 8c24 903e 287b 4b3c 161e 853c bb25 95be
00000060: bd88 b8b9 45d6 5fb6 9749 7cb9 4e2b b0b9
00000070: c62d d3b8 9984 71b8 ab35 adb9 2487 99b9
00000080: 0635 f93d 4a25 a3bb e247 8ebe e6e4 a83e
00000090: 33b3 c0bd 09f8 56ba e29b 6d3e 8478 eabd
000000a0: a23a 5c3e ed43 863b cbe1 e2bd f7a1 a1bd
000000b0: 56b4 c23d fec4 183b e844 3abe 335f f83e
000000c0: 7302 70bd f19f bc3d 3c7e 933e 3548 ae3e
000000d0: c98b 1c3e 9d5d b53b b283 0abe 4e1e 703c
000000e0: 4711 f23e 3774 2dbd 6cc8 ab3e a194 883e
000000f0: a505 afbe b37a a6bb a9f7 9b3d d01d 353e
00000100: 8be3 0a3c 7f60 423c af9d 12be 6ab8 633d
00000110: bf67 763e 1e01 f53b 5786 f83e 0ff6 ff3e
00000120: 7138 8fb9 d2de 5ab7 8c8e acb9 4196 8bb9
00000130: 4db3 f3b9 bc79 ecb8 8d11 e6b9 a8fa 10ba
00000140: e8cd f2be 4671 2a3d 9aca 35be 8d7f f63e
00000150: 9d08 b6be 0235 09bb faf2 ee3e a7c3 5ebe
00000160: ee66 843e a376 b4bc 31ab 273c 8594 973e
00000170: 8e57 4438 3642 02bc 281e c23e f9a5 e5be
00000180: a1bd 9d3e 4638 453d cb0f 583d 8112 e3be
00000190: aa64 463e cd1f aa3b 82fa c93e 6751 ea3e
000001a0: 08fd f6bd 0570 86bb 34e4 bfbe a360 f1bd
000001b0: bab0 093f 9399 15bc 05ab 6cbd 0dbd 863e
000001c0: c89f d7be 8e6c d0bc d413 383e 39e0 e43e
000001d0: 127e aebe cd1d 06bc aad0 8d3e ca8e f3bd
000001e0: 49c0 4aba 0ff4 34ba 7420 fb3e 221e 68bd
000001f0: e6e5 c3be d875 283c 0a3a 37be 4e2a 153d
0.42408738 0.0014468551 0.20432194 0.5057558 -0.16730672 0.005190653 -0.43932498 0.008438788
-0.00018275922 -4.4427704e-08 -6.24971e-05 -0.00022583788 2.0396865e-07 6.73942e-08 -0.00015078897 2.5865404e-07
-0.038501944 -0.004751317 0.17542492 0.17358215 0.28152883 0.012419499 0.016249698 -0.2913035
-0.00035197093 -3.335431e-06 -0.00024060007 -0.000336016 -0.0001006979 -5.758237e-05 -0.00033037117 -0.00029283122
0.121683165 -0.0049788104 -0.27789217 0.32987136 -0.094091795 -0.0008200412 0.23203996 -0.11448768
0.21506742 0.004097453 -0.11078223 -0.078922205 0.095070526 0.0023310776 -0.18190348 0.4851013
-0.058596086 0.09210194 0.28807247 0.34039465 0.15287699 0.005534841 -0.135268 0.014655663
0.47278807 -0.04234716 0.33551347 0.26675895 -0.34183994 -0.005080545 0.07615597 0.17687154
0.008477102 0.011863827 -0.14317964 0.055595793 0.24063013 0.00747694 0.48539993 0.49992415
-0.00027317138 -1.3045692e-05 -0.00032912602 -0.00026624094 -0.0004648216 -0.00011276032 -0.00043882095 -0.0005530515
-0.4742272 0.041611932 -0.17753068 0.4814419 -0.35553446 -0.0020936136 0.4666975 -0.21754323
0.2585978 -0.022029227 0.010233686 0.296055 4.6811583e-05 -0.007950356 0.37913632 -0.4485319
0.30808738 0.04814937 0.052749436 -0.44350055 0.19374338 0.005191779 0.39448935 0.4576523
-0.12059981 -0.0041027092 -0.37478793 -0.1178601 0.5378529 -0.009130853 -0.057780284 0.2631611
-0.4211409 -0.025442388 0.17976314 0.44702318 -0.3408056 -0.008185816 0.2769826 -0.11892469
-0.0007734341 -0.00069028226 0.49048197 -0.056669362 -0.38261336 0.010282002 -0.17893234 0.036417298

model.fc.0.weight f4 [128, 32]
00000000: aa6a d33c 40aa c5b3 ce57 b3bd 3fc9 0dba
00000010: 380b e13d 24eb 8c3d 53a7 0abe 2675 eabd
00000020: 996a e93d 0065 f5b9 65d9 1cbe 68df 283e
00000030: 3a79 ed3d 581a 8e3d a7bb 973d ebbc 3b3e
00000040: 4828 e1bc 5231 59b2 5bc2 223d 2d8b a4b4
00000050: 8c86 0d3d f0ad c038 c8bb 78bc 81d3 9ebb
00000060: 9d11 f1bb 000c 6b34 4513 f13d bfaf 3f3c
00000070: f201 af3d ab3e 733d 6cd8 da3c 50d0 953c
00000080: 5691 683d ae27 35b3 a23f 17be 2236 f3b9
00000090: 9f36 e93d ebcf f63d 91e8 61bd e0ce 303b
000000a0: 8192 043e 3eb2 b5b9 309a 1c3e 5990 953d
000000b0: 8c69 08be ae16 8ebd 198e 10be 77e5 41bd
000000c0: 6d20 c8bd dd04 4130 f9ea 2cbd 371f 49b4
000000d0: 89e6 b63c c2bc 073c 2c6d b7bc 90df febd
000000e0: aad8 7cbd fcd0 1e34 26e4 943d c3ad c3bd
000000f0: 35f7 ea3c 253c bc3c 0245 8ebd 63ba cfbb
00000100: 2e54 2eb9 19eb 699b f33a c835 998d 9d1b
00000110: 8bbd 8bb9 ce22 d7b7 1fd1 d2b7 a073 a6b9
00000120: 7b60 aab9 d8d0 009a 494d 65b9 9117 a7b9
00000130: 0901 3cb9 926f 98b7 e3c8 33b9 b991 96b3
00000140: 67b6 15b2 911a 1217 ffe3 9cb3 318e 5118
00000150: 1a19 3131 1efb 9133 1d25 c633 e310 a2b4
00000160: e792 4a33 6c38 f395 a206 9533 298f 7cb4
00000170: 3d27 4734 0378 9333 40f7 40b4 b589 8e31
00000180: cef6 423e fd98 02b4 f764 503e 6080 1a39
00000190: bc23 22be 8667 abbc 02d5 193e 1287 7d3d
000001a0: 6e82 abbc 4d2e 0039 5a91 10bd 91c5 33bd
000001b0: 5c73 873d ce6e c53d 68c1 acbd 28d7 993d
000001c0: dc91 203d 59c6 4731 c2c4 33bd b088 3ab4
000001d0: a234 383d 099e b93c 8344 2c3e 0e81 443e
000001e0: 2bbe 843b 7b0e 1d34 82e3 ebbd af4b 10bd
000001f0: b129 1ebd 755e 793d ec80 a0bd f397 47bd
00000200: b6e2 43b9 c521 5e9b 6c87 a838 be67 7732
00000210: 8831 a5b8 dbe7 6ab9 77c6 0638 9ba1 36b6
00000220: a9e6 0439 9147 912d ec44 3db8 116c 6536
00000230: 15dd ebb7 8148 e0b9 6876 5b38 e1c2 20b9
00000240: face 91b7 25a3 1d17 3574 af35 5df6 5e2e
00000250: ae05 f0b7 a16f abb4 af43 89b5 66b9 d9b7
00000260: 3523 73b7 69e6 372d 20e3 6bb7 ccdc 07b8
00000270: 578f 33b7 8687 54b3 f86a e1b6 fbe9 c8b4
00000280: 1954 03be 707a 0d33 e3a7 b43b 1018 09b9
00000290: 0d61 babd 484f 013e 0a8b 853d ec13 cabc
000002a0: edcb c33d 2b20 d0b8 48d9 7abd 1cb8 64bd
000002b0: 5e21 273d d41e 65bc 95ea 05be ce44 873c
000002c0: f772 1d3d 9127 7bb2 5b8d b33b ffea 3132
000002d0: 9525 223d 8b3c 5eba d046 673c 0b9f 5c3c
000002e0: 3317 de3c f3ee a0b2 7e4d 6e3c ad25 d43c
000002f0: c143 463b 8c9d 863a 8635 523c c2ae 98ba
00000300: 8f89 d0bd b032 d133 510b 163d 0004 e1b9
00000310: ead4 79bd 091a 8ebd c1ac 223e 2033 17be
00000320: c19b 083e 4267 61b9 8452 09bd aff4 76bd
00000330: 9c17 b53d bb69 a2bc e2cb 06be a362 9ebd
00000340: d788 dd3d 02dd 32b1 5228 1f3d ce7a 5832
00000350: d44e e43b 2ba1 0c3c 77a4 7b3d 5168 ac3c
00000360: 2675 24bd e295 2b33 6f27 88ba 7a73 9cbd
00000370: 1724 aabd 6054 88bc 910a 9a3d bfeb 1b3a
00000380: ae3a 1b3b 1b80 c832 16e1 113d a843 7f39
00000390: de81 283d abb8 9a3d e5cf 1fbe 1354 df3d
000003a0: f2df 1e3e a572 c338 5955 f93d fe93 88bd
000003b0: 57f9 a7bd 3dff e43d de88 4d3d 51b9 89bd
000003c0: 6d0a 463b fc8b 82b0 c98c 2fbc 0d09 4db3
000003d0: f9ff 3c3c 8a0d 3dbb 7f55 a4bb 4fae 843d
000003e0: 8343 14bd a111 8a33 66d2 343b 9379 743d
000003f0: 6a29 e7bc 6e45 2abc c3c0 c3bb 750e 8bbb
0.025807697 -9.204496e-08 -0.08756982 -0.0005408711 0.10988468 0.06880787 -0.13540392 -0.114481255
0.11397285 -0.00046805292 -0.15317304 0.16491473 0.11595388 0.069386184 0.07408839 0.18333785
-0.027485028 -1.2642277e-08 0.039736133 -3.0648644e-07 0.034552142 9.187672e-05 -0.015181489 -0.0048469906
-0.007356836 2.1890446e-07 0.117712535 0.011699616 0.08545293 0.059385937 0.026714526 0.018287808
0.05677923 -4.2178435e-08 -0.14770368 -0.00046388904 0.11387371 0.12051376 -0.055153433 0.0026978776
0.12946512 -0.0003465581 0.15293193 0.07302923 -0.13321513 -0.069379196 -0.14116706 -0.047337975
-0.0977181 7.02199e-10 -0.042216275 -1.873094e-07 0.022326725 0.008284749 -0.022390924 -0.12444985
-0.061730064 1.4790925e-07 0.07270078 -0.09554627 0.02868233 0.022977898 -0.06946756 -0.0063393577
-0.00016625292 -1.9349272e-22 1.4918318e-06 2.6064977e-22 -0.00026653367 -2.5646204e-05 -2.513133e-05 -0.00031748135
-0.0003249681 -2.6638482e-23 -0.00021867933 -0.0003187028 -0.00017929463 -1.8171766e-05 -0.00017145606 -7.011426e-08
-8.714415e-09 4.7208676e-25 -7.305788e-08 2.7084405e-24 2.5771159e-09 6.7977666e-08 9.226844e-08 -3.0187138e-07
4.7165397e-08 -9.8235936e-26 6.93956e-08 -2.352141e-07 1.8547594e-07 6.867051e-08 -1.7971342e-07 4.1483994e-09
0.19039461 -1.216285e-07 0.20351015 0.00014734408 -0.15833944 -0.020923387 0.15022662 0.06189639
-0.020936217 0.0001222428 -0.035294868 -0.043889586 0.066138 0.09640275 -0.08435327 0.07511741
0.039201602 2.907106e-09 -0.043888815 -1.7372327e-07 0.04497207 0.022658365 0.1682301 0.19189855
0.00405099 1.4627032e-07 -0.11518003 -0.035228427 -0.03861398 0.060881097 -0.0783709 -0.048728894
-0.00018681106 -1.8374321e-22 8.0360885e-05 1.44008805e-08 -7.877039e-05 -0.00022402352 3.2132924e-05 -2.721418e-06
0.00012674429 1.6516373e-11 -4.51253e-05 3.4186562e-06 -2.8117132e-05 -0.0004277863 5.2323943e-05 -0.00015331387
-1.7381728e-05 5.0935353e-25 1.3072337e-06 5.069577e-11 -2.8612874e-05 -3.1932453e-07 -1.0226994e-06 -2.5954749e-05
-1.4492126e-05 1.0453507e-11 -1.4059973e-05 -3.239214e-05 -1.0702605e-05 -4.9483354e-08 -6.7179753e-06 -3.7423146e-07
-0.1282505 3.2940477e-08 0.0055131777 -0.00013074302 -0.09100542 0.126279 0.0652066 -0.024667703
0.0956038 -9.924205e-05 -0.06124237 -0.055839643 0.040803306 -0.013984401 -0.13077767 0.0165123
0.038439717 -1.4619119e-08 0.0054794974 1.0356188e-08 0.039586622 -0.00084776495 0.014116004 0.013465653
0.027110672 -1.8735113e-08 0.014544843 0.025896871 0.0030252787 0.0010270341 0.012830144 -0.0011648762
-0.10182487 9.741541e-08 0.036631886 -0.00042918324 -0.060994066 -0.069385596 0.15886213 -0.14765596
0.13340665 -0.00021496139 -0.03352596 -0.060291942 0.08842394 -0.019825807 -0.13163713 -0.07733657
0.10817116 -2.6028038e-09 0.03885681 1.2600777e-08 0.006967405 0.008583347 0.061436143 0.021045836
-0.040150784 3.9950358e-08 -0.0010387729 -0.07639213 -0.08307665 -0.016641796 0.07521547 0.00059479097
0.00236861 2.334132e-08 0.03561505 0.00024343899 0.041139476 0.07554754 -0.15606649 0.10904708
0.15515116 9.319679e-05 0.12174482 -0.06668852 -0.08201855 0.11181495 0.050179355 -0.067247994
0.0030218617 -9.498531e-10 -0.010714718 -4.7738514e-08 0.011535638 -0.0028847181 -0.0050150747 0.06478559
-0.036197197 6.4293324e-08 0.0027591228 0.059686255 -0.02821799 -0.01039253 -0.0059739067 -0.004243667

model.fc.0.bias f4 [128]
00000000: e3ed d0bd 6a20 dabd 982a 9233 77a4 2f3e
00000010: 895f 00b9 e653 743d d415 d83d 625f b2bd
00000020: 1e1c 80b4 ebed c9bd b3b7 df3d 9a37 143e
00000030: db50 85b8 33d8 aa3b a10c dfbd b5cf 36bc
00000040: b894 9f3d 4fe3 053e cbc1 c8b4 1c13 4d3d
00000050: d0d1 ad3d 33e2 303e 21e6 913b dbb3 b03c
00000060: 4650 0f3e 69c0 913d c811 6b3d ec63 9d3d
00000070: 2f2e 8abc 071b a8b9 11b5 9f3d 925e 953c
00000080: fe16 79b3 9f95 093e 6f5c c5bc f2b4 78b9
00000090: 896b 273c ab81 073e 6fd3 053e d07b bdb5
000000a0: ca2c febd 2047 fa3d 64d0 2fbe 08ac 053e
000000b0: 20e9 58b5 ca81 fabc 32a7 003e 9ebc adb8
000000c0: c1e8 aebc a3f7 d1bd 9e01 89b9 3808 9f3d
000000d0: 5fce 513d 76fa d63c 009c 2ebd f6e2 5dbd
000000e0: c2db 7ab6 c37c c63d fded a2b9 bbd8 18b4
000000f0: 5d83 623d b05e 0a3e 2780 073e be85 6fbc
00000100: 2d3d 5635 fc76 77b9 82b4 01be 9057 c8bd
00000110: 647b 003d e658 84b9 9669 fb3d 6a48 383c
00000120: 7573 a43d 56fc 2db9 25eb 093d 8ea0 cbb2
00000130: 8447 183d f18a c73d cebd debd eea1 6bbb
00000140: 44bd f73c 0fa4 43b9 bd2d ba3d 0ab1 a8bd
00000150: 386c 4e3d 1409 113d ca0c 0eb3 5f37 053d
00000160: 695c 983c 8d0b d3b8 eac6 ce3c 95dc 2638
00000170: c537 003e dde5 cd3c a42f 263d 0274 bb3b
00000180: 2298 e53d 062a 0c3d 25b6 113e e158 ca33
00000190: 4c7d 0e3e b179 7b3d 575f a63d 976f 29b4
000001a0: 8a23 b4bb 2ac7 08be dfe7 3db3 67e5 013e
000001b0: 2d60 32be 4db1 d1b3 d298 c8b8 50cf 1934
000001c0: 1eab 47b7 9aa9 a7bb 9296 47b9 948d 093e
000001d0: 1f66 c1b4 8284 7ab6 0338 07be 3b6a 90bd
000001e0: fc61 6fb9 1730 913d ba10 8c3b 0e56 3d3d
000001f0: b4b9 2f3e e9ae 9a3d 155d e23d e4c1 ecb6
-0.10201623 -0.10650714 6.8064026e-08 0.17152582 -0.00012242621 0.059650324 0.105510384 -0.08709599
-2.3862316e-07 -0.098598324 0.1092371 0.14474335 -6.356995e-05 0.0052137612 -0.10891081 -0.01115792
0.07792038 0.13074993 -3.7393906e-07 0.050067052 0.08487284 0.17273788 0.0044524823 0.021570137
0.13995466 0.071167774 0.057390004 0.07685074 -0.016867725 -0.00032063594 0.077982076 0.018233571
-5.799574e-08 0.13435982 -0.024091927 -0.0002371853 0.0102185095 0.13233058 0.13068937 -1.4117632e-06
-0.124108866 0.12220597 -0.17169338 0.13053906 -8.080551e-07 -0.030579466 0.1256378 -8.2844155e-05
-0.02135122 -0.10252311 -0.0002613188 0.077652395 0.0512222 0.026242476 -0.042629242 -0.054171525
-3.738082e-06 0.09691765 -0.00031076363 -1.4234949e-07 0.05530106 0.13512683 0.1323248 -0.014619289
7.9810235e-07 -0.00023600081 -0.12666515 -0.09782326 0.031367674 -0.00025243236 0.12275998 0.011247734
0.08029834 -0.00016592568 0.033671517 -2.3705322e-08 0.037177578 0.09743298 -0.10876046 -0.0035954672
0.030241616 -0.00018657766 0.09090755 -0.082368925 0.050396174 0.03540905 -3.3073583e-08 0.03252351
0.018598752 -0.000100634155 0.025241334 3.9782917e-05 0.12521274 0.025134021 0.040572777 0.0057206163
0.11210658 0.034219764 0.14229639 9.422525e-08 0.13914984 0.06139535 0.081236534 -1.5779948e-07
-0.0054974006 -0.13357225 -4.4215877e-08 0.12685166 -0.174195 -9.764572e-08 -9.565208e-05 1.4324655e-07
-1.1901166e-05 -0.0051166536 -0.0001903421 0.13432914 -3.6023354e-07 -3.7330033e-06 -0.1320496 -0.07051512
-0.00022829318 0.070892505 0.004274455 0.046224646 0.17160684 0.07552893 0.1105291 -7.05592e-06

model.fc.2.weight f4 [1, 128]
00000000: f837 873d 94e7 013d 1910 16ba 772c 04be
00000010: 4c13 9c34 4cad 39be 2e7c 5cbe 5114 2dbc
00000020: 7d3e 90b9 11b0 9f3c 2a60 48bd 14be 943d
00000030: b8ba c639 e0d6 d0bd 2f82 8ebd 000a 56be
00000040: b4af 2dbb b17d d0bc 3182 f239 a5b9 353e
00000050: 0179 61be feb1 e73d 3499 11bd c500 3abc
00000060: 730c 1c3d 076d 6abd 7a9f 593d f2a6 933d
00000070: e5c2 cdbd 874f 9d39 9142 8c3d 78d9 86bd
00000080: 1fbb f039 c605 27bd afe4 17bd 6cdb 15ba
00000090: b46e f1bc 8348 843d 4f81 67bd 3f11 1538
000000a0: facb 71bd a6c6 91bd de15 6bbd 5ad0 5bbe
000000b0: d775 f3b9 3243 a43c a52a cdbd 451e d738
000000c0: 73cb 43be e0f5 3d3d 8a0d f7b9 c839 1abd
000000d0: 8c7c 8c3d 3406 18bd 3685 82bd 543f c7bd
000000e0: 080a 6638 2718 653b 3750 8539 0f56 e839
000000f0: 7f3f 6fbe 79d4 0dbd f081 bbbd cc57 8e3d
00000100: 917c 8139 1136 25ba bae0 a8bd 2cc0 973d
00000110: b9b3 8ebc bc76 01ba 3913 5abe f4e5 a73d
00000120: a9ec a9bc a517 8137 815f 803c b094 da39
00000130: f9e6 583d b220 ca3d d792 08bd 90b5 afbd
00000140: efcc 99bc 60b9 9739 de48 63bd 0153 07bc
00000150: 5523 69be 0570 cdbc 3538 86b8 07d8 413d
00000160: 8819 74be a456 25b9 932c 063d 0112 f839
00000170: 760c 9cbd f453 1bbc d272 e4bd 9e90 89bd
00000180: a515 53be aa83 5b3d 8fa1 84be 09f5 ea39
00000190: 9384 56bd 6ec4 4d3b 92eb eb3d 7b3b c6b3
000001a0: 04ec c2bc 67ff b3bd a469 9cb5 894c 7abe
000001b0: 4b41 c5bd 3e1b 8939 6bce f1b8 4d6a ef33
000001c0: eaa5 f339 536b 3ebd a5e5 1eb9 91fc 69bd
000001d0: d9fe edb3 4bce 8e38 ff2d 8c3d b920 f63c
000001e0: 9524 4dba c518 c1bd b70c eabb 64e7 17be
000001f0: 9d6d d73d 1697 4dbe c68a 043c 0c97 ce39
0.06602472 0.03171499 -0.00057244446 -0.12907587 2.9071305e-07 -0.18132514 -0.21531746 -0.010563926
-0.00027512378 0.019493135 -0.048919834 0.07262817 0.0003790462 -0.10197234 -0.06958424 -0.20902252
-0.0026502432 -0.02545056 0.00046254837 0.17746599 -0.22018816 0.11313246 -0.035546497 -0.0113527225
0.03809781 -0.057232883 0.053130604 0.07209577 -0.10046939 0.00030004626 0.06848634 -0.065844476
0.00045915783 -0.04077699 -0.037083324 -0.00057165953 -0.029471733 0.06459143 -0.056519803 3.554043e-05
-0.059032418 -0.07117967 -0.0573939 -0.21466199 -0.0004643637 0.020051572 -0.100178994 0.00010257637
-0.19120578 0.046377063 -0.000471216 -0.03765276 0.06859693 -0.03711529 -0.06373064 -0.09728876
5.4845616e-05 0.0034957023 0.00025427502 0.00044314607 -0.23364066 -0.034626458 -0.09155643 0.0695034
0.00024697607 -0.0006302307 -0.08245988 0.07409701 -0.017419683 -0.0004938652 -0.21296395 0.08198157
-0.020742731 1.5389009e-05 0.01567054 0.0004169098 0.052954648 0.098695174 -0.033343162 -0.08579552
-0.018774478 0.0002893908 -0.055489413 -0.008259536 -0.22767384 -0.02507783 -6.400087e-05 0.04732516
-0.23837864 -0.00015767902 0.032757353 0.0004731566 -0.07619564 -0.009480465 -0.11154713 -0.06717037
-0.20613725 0.05359236 -0.2590451 0.00044814523 -0.052372526 0.0031397599 0.11519541 -9.230913e-08
-0.023794182 -0.087889485 -1.1653651e-06 -0.24443258 -0.09631594 0.00026150973 -0.00011530224 1.1148641e-07
0.00046472187 -0.04648907 -0.00015153603 -0.05712563 -1.1082529e-07 6.809513e-05 0.068447106 0.0300449
-0.00078255805 -0.094285525 -0.007142629 -0.14834362 0.10518954 -0.20077166 0.008089727 0.0003940392

model.feature.0.weight f4 [128, 32]
00000000: 5d48 21bd c47d 093e 2ea7 10be 671f f83d
00000010: 3dba 023d 2a85 e23d 1cfa ac3d 32e6 c43d
00000020: f5c5 d039 7d5b cd3d 0a5d 26bc 12dd 283e
00000030: 1499 a2bc 1e17 efbc 336c 27be d19a c53c
00000040: be9a 29bd 11c9 da3d 88c4 1c3e 6fa1 02be
00000050: 34a7 b63d 70e4 ea3d 34d2 0abe 8cca cd3c
00000060: 9f24 123d 7ca9 db3d 6018 d6bc e1de 983d
00000070: cb38 2d3e 4bf3 f33d 46d4 313e a70f 383d
00000080: 2c45 663d 2f15 583d a99a 56bb fc82 34be
00000090: 5ab0 9dbd 8206 1ebd e1ad 2d3d b829 f2bd
000000a0: c2eb 7c3d aded 243e 4bd6 29be 50bc 4a3d
000000b0: 7ed9 fc3d 5cdf 28be 7ecd 613d 292b b83d
000000c0: c903 213e 4f9a 26be 731c b7bd e37a c73d
000000d0: d705 f13d fbd6 ec3d 4095 253e c130 1abe
000000e0: 81f4 cebd 88b1 c13d 7099 e23d 3132 adbd
000000f0: 61cb 68bd 7474 df3c 0f15 273e 0bea 823d
00000100: e563 243e 9230 0bbd e493 103d dc43 633d
00000110: 70d0 53bd 4f2c cb3d b597 373d ccb0 46bd
00000120: aac7 cfbc fd50 c7bd ba7e 13be c094 b6bd
00000130: dbaa 21be 822f 853d 5878 133c 1e2c 8bbd
00000140: 726f 1e3d 1f77 36bb 8761 d83d 74c1 313e
00000150: 8b78 1c3e 0412 24be 16c2 afbc 683a 1f3e
00000160: 485a a1bd 1032 12be 8748 06bd 3ef0 efbc
00000170: e58f ecbd 2562 1fbe f0ae 093e 64af e6bc
00000180: caae 04be 1f29 7dbd 260f 24be 86d9 13be
00000190: 7d50 89bd 9fad 99bd afd1 1f3e c8a4 1f3d
000001a0: a596 d1bd 7c34 aa3d 7747 1f3e 8510 263d
000001b0: 20ef 93bd 6bcd 9fbd 73cf 25be 0582 33be
000001c0: 19a9 3b3d 4aea e03b b997 86bd e7f0 e53d
000001d0: 0cf6 103e 6266 25be 5482 5f3d fc3c 92bd
000001e0: bff9 233b 9c24 3abd 9bdb 2ebe 931b 1b3e
000001f0: eba1 00be 280b ea3d cec3 95bd b2d4 373c
00000200: 2a31 873d 75c7 bc3d 7a93 d0bd ce1e f43c
00000210: 4982 fc3c 39a5 fe3d 64f0 003e 2807 e4bd
00000220: b6fe be3d abf4 1ebc d781 bcbd 35cb 28be
00000230: 9bd9 90bd 2096 033e eb9b 52bd 1242 a6bd
00000240: 59dc a5b8 44ee b639 7492 253b 66c5 9f3c
00000250: 4622 e3bd bf0e e4bd ed58 0f3e c797 1a3e
00000260: 75ee 1b3e 0597 ea3c c65e 24bd 9cf8 a1bd
00000270: 4743 1e3e 9f9d 6bbc da04 2cbe a33e 2a3d
00000280: 0731 b8bd e4c2 cfbd 106a 03bd e659 253e
00000290: 3aea c8bd e067 c0bd 739c 1abe 2f90 4e3d
000002a0: a766 27be 7e16 ddbd 6fe7 c83d 4e9e 133e
000002b0: 2df4 1a3e b5ad 9b3d d1cd 97bd 4085 1ebe
000002c0: 75a6 6cbd b49d c23d 3c28 04be 951e d9bd
000002d0: ad12 dabd 73e1 303e 7604 98bd 898a 2b3d
000002e0: 0bfb f23d 6793 e03c f44e e53d dbe2 0e3e
000002f0: 3822 1138 94fe ab3d 4a35 50bd bdbf 11be
00000300: a557 adbd 66ca 343e 8192 703d 91bf 243e
00000310: c104 88bd f735 86bd 5c24 213e aa47 bfbd
00000320: ac0a e33d 8d06 263d 2ee2 433d b8dd 253e
00000330: 4c95 89bd 1b24 a2bd 4d47 ae3c 0d79 fc3c
00000340: 7186 26be 1055 a4bd ceca 343e bb50 853c
00000350: a37e abbd bc15 653d ee90 15be 10cb 0fbe
00000360: cd53 9abd 1b70 01bd fca0 813d 1048 8a3c
00000370: 67da 153e 83fe 273e ad16 2ebe 2623 80bd
00000380: 8f52 56bd 2f95 243e 1755 313e cb24 033e
00000390: f6b7 c73d 2c29 9f3c 14e5 70bd 650d 733d
000003a0: 2da0 2fbe e33d debd c3b9 fabc 3ecd 1b3c
000003b0: 2b61 51bd d107 debd 1b79 27be 92ee f2bc
000003c0: d627 f53c ba68 12bd 03fb 9cbd c414 babc
000003d0: d8b7 183d f4db 2dbe 9b21 8cbc ea00 b13d
000003e0: 5a2a 1a3e f21b 17be 3dee 44bd 4000 a33d
000003f0: 4333 eebd e045 7cbd af43 bd3d c4d4 aabd
-0.03937565 0.13426882 -0.14126274 0.121153645 0.031915892 0.11060555 0.08446142 0.09614219
0.0003982034 0.10027216 -0.010154018 0.16490582 -0.019848384 -0.029185828 -0.16349868 0.024121674
-0.04140734 0.106828816 0.15309346 -0.12756895 0.0891861 0.11469352 -0.13556749 0.025120996
0.035679456 0.10725686 -0.02613467 0.07464386 0.16916196 0.11911639 0.17366132 0.044936802
0.05621831 0.052754577 -0.0032745993 -0.17628092 -0.07699652 -0.038580425 0.042402152 -0.118243635
0.061748274 0.16106291 -0.16585653 0.049495995 0.12346171 -0.16491455 0.055127613 0.08992607
0.157241 -0.16269802 -0.08940973 0.09740236 0.11768692 0.11564442 0.16170216 -0.1505766
-0.10105229 0.094576895 0.11064422 -0.08456839 -0.056834582 0.027277209 0.16316627 0.063922964
0.16053732 -0.033981867 0.03529729 0.055484638 -0.051712453 0.099205606 0.044822413 -0.04850845
-0.025363762 -0.09732244 -0.14403811 -0.089150906 -0.15787832 0.06503202 0.00900086 -0.06795524
0.0386805 -0.0027841998 0.10565477 0.17358953 0.15280358 -0.16022497 -0.021454852 0.15549624
-0.07878548 -0.1427691 -0.03278401 -0.029289361 -0.11550883 -0.15564783 0.1344564 -0.028159805
-0.12957302 -0.061806794 -0.16021404 -0.14438447 -0.06704805 -0.07503819 0.15607332 0.038975507
-0.10233811 0.08310792 0.15554605 0.040543098 -0.07223344 -0.07802852 -0.16192417 -0.17530067
0.04581556 0.006863867 -0.065719076 0.11227589 0.1415636 -0.16152337 0.05456765 -0.07140538
0.0025020686 -0.04544507 -0.1707596 0.15147237 -0.12561767 0.11427909 -0.073127374 0.011220144
0.06601174 0.09217731 -0.10184379 0.029799845 0.030823844 0.124338575 0.12591702 -0.111341774
0.09325926 -0.009701888 -0.092044525 -0.16483767 -0.07072755 0.12850237 -0.051418226 -0.08118071
-7.908856e-05 0.00034891267 0.0025264295 0.019503307 -0.110905215 -0.11135625 0.13998766 0.15096961
0.15227683 0.028636465 -0.040129445 -0.079087466 0.15455352 -0.0143808415 -0.16798726 0.04156364
-0.08993726 -0.10144594 -0.03208357 0.16147575 -0.098103 -0.093948126 -0.15098743 0.050430473
-0.16347753 -0.10795306 0.098097675 0.14415857 0.15132208 0.07601491 -0.07412303 -0.15480518
-0.057775933 0.09502736 -0.12905973 -0.10601536 -0.106480934 0.17273502 -0.07422726 0.041880164
0.11864289 0.027414037 0.111967 0.13953726 3.4602563e-05 0.08398166 -0.05083207 -0.14233299
-0.084639825 0.17655334 0.058733467 0.16088702 -0.06641532 -0.06553262 0.15736526 -0.09339841
0.1108602 0.04053359 0.047823124 0.1619786 -0.06717929 -0.07917043 0.021274233 0.03081944
-0.16262223 -0.08024037 0.17655489 0.016273847 -0.083737634 0.05592893 -0.14606068 -0.14042306
-0.07535515 -0.031601053 0.063295335 0.016880065 0.14634095 0.16405682 -0.17000838 -0.06256704
-0.052324828 0.16072534 0.17317615 0.12807004 0.09751885 0.019428812 -0.058812216 0.059338946
-0.17150946 -0.10851648 -0.030606156 0.009509383 -0.051118057 -0.108413346 -0.16354792 -0.029654775
0.029926222 -0.035744406 -0.07665064 -0.02271498 0.037284702 -0.16978437 -0.017105868 0.086427525
0.15055218 -0.14756754 -0.048078764 0.07959032 -0.11630871 -0.061590075 0.09241425 -0.08341363

model.feature.0.bias f4 [128]
00000000: 1d24 77bc aacf 36bd 9b59 823d 28fc f33d
00000010: c4bf ffbc 25c6 c63c 8ba8 94bd 1fa9 fabd
00000020: 775d 10bc 8f5e 903d 73a0 c13d c9a0 2e3e
00000030: 8435 2b3e ce4f 113e c495 31be 31ab 30bd
00000040: 470c febd 579d b3bd 64fb ac3d 0363 d3bd
00000050: 6188 d13d afdf e03c b390 d53d 2e8f 803c
00000060: 2162 e0bc f0fd 0b3d 2bd4 543c b3ff 0b3e
00000070: 933e 90bd aced 0d3e 855b cd3d 2d33 ecbd
00000080: 343c 23be 62f4 09bd 2ebe e33d dc82 f4bb
00000090: d065 f63b e714 b7bd cec0 d53d 4bb1 05bc
000000a0: 8557 2e3b 3d55 32be ab06 cfbd 46ff 053e
000000b0: 4392 b53d bd6b 1d3d 9fb2 9e3d 52af 16be
000000c0: 7a8c ba3d ae5a dc3d cb30 113e df9d 1cbe
000000d0: 3ca9 e0ba e885 a93d 4374 a23d 5fe5 0c3e
000000e0: 1238 9e3d ad71 dbbd e691 19bd 3317 f9bd
000000f0: c29a 803c aad6 863d e137 293d db20 943c
00000100: 3ce0 033e 41cb a3bb bda8 12be 805d 0ebd
00000110: 7368 263e bc07 4e3d 1d9f 21be f426 793d
00000120: ab03 28be 443a 13be 74ce 95bd 6f55 be3d
00000130: d3c1 f6bd 9582 f6bd 811d 1b3e b292 c13d
00000140: ca3d 1e3e bae6 ee3b cb05 56bd 433e 08be
00000150: e764 943d 9bfc bdbd 1016 1d3e c885 0bbe
00000160: 249e 30be f1cb 8e3d d280 9d3d e10f 7ebd
00000170: af9a 07be fa6f 223e d105 cfbd aa47 67bd
00000180: 7a90 943d 566b 8f3d 5f54 1fbe 689c d6bd
00000190: 083e f7bd d40c f23c e84f 0abe 4e30 0b3e
000001a0: 6e7a cabd 5599 0f3d ed72 5b3b 05b9 a23d
000001b0: 54c1 a4bd 7d3b 0bbe 2333 1dbe c3b0 fbbc
000001c0: 79dc a23c 2e27 27be 45e5 82bd 9779 933d
000001d0: bc6b 0a3e de04 f1bd 2428 2c3e 7373 fabd
000001e0: 4142 c03c 64e3 54bd 53c3 83bd 0d7e b3bd
000001f0: 9543 093c 6217 e0bd c5e9 8abd c221 253e
-0.015084294 -0.044631638 0.06364747 0.11913329 -0.03121937 0.024264405 -0.072587095 -0.122392885
-0.008811346 0.070492856 0.094544314 0.17053522 0.16719633 0.141906 -0.17342287 -0.04313201
-0.124046855 -0.087702446 0.084463865 -0.10321619 0.1023109 0.02745041 0.1042799 0.015693273
-0.027390542 0.03417772 0.012990038 0.1367176 -0.07043185 0.13860196 0.100272216 -0.115331985
-0.15940934 -0.033680327 0.11120258 -0.0074618887 0.007519461 -0.08939534 0.10437165 -0.008159946
0.0026602459 -0.17415328 -0.10108694 0.1308566 0.08865788 0.038432825 0.07748913 -0.14715317
0.09108825 0.10759483 0.1417877 -0.15294598 -0.001714028 0.08277494 0.079323314 0.13759373
0.07725538 -0.10715041 -0.037492655 -0.12162628 0.015698794 0.06583913 0.041313056 0.018082073
0.12878507 -0.004998595 -0.14322181 -0.034757137 0.16250782 0.050300345 -0.15783353 0.060828164
-0.16407649 -0.14377695 -0.073147684 0.09293639 -0.12048688 -0.12036625 0.15147974 0.09451808
0.15453258 0.0072906883 -0.05225162 -0.13305001 0.07245808 -0.09276696 0.15340447 -0.13625252
-0.17247826 0.069724925 0.07690586 -0.062026862 -0.13242601 0.15863028 -0.10108531 -0.05646483
0.07254119 0.070028946 -0.15559529 -0.10479051 -0.120723784 0.029547133 -0.13507044 0.13592646
-0.09886633 0.03505834 0.003348525 0.07945446 -0.08044687 -0.13596912 -0.15351538 -0.030723935
0.01988052 -0.1632354 -0.06391386 0.07200926 0.1351766 -0.117685065 0.16812187 -0.122290514
0.023469092 -0.05197467 -0.064337395 -0.08764277 0.008377929 -0.1094196 -0.06782869 0.16126159

exp_avg f4 [4]
00000000: c609 0b3d 80ed 7cbd 2609 08bc 7964 44bc
0.033944868 -0.061749935 -0.008302962 -0.011986845

exp_avg_sq f4 [4]
00000000: 999a 0d3b 8798 f53b aa99 ba38 19e8 3e3b
0.002160704 0.0074949893 8.897793e-05 0.002913004

exp_avg f4 [4, 4]
00000000: 6c7e 9a3a 0955 0d3b 3391 9a3c 3451 453c
00000010: 4863 44bc c575 95bc a90c 95bc 5ae0 50bc
00000020: 0912 7dba 9114 4ab8 746a cbbb 828a 67ba
00000030: b627 b2bb 6477 b3bb faf7 4dba 87e1 84b9
0.0011786944 0.0021565577 0.018868065 0.012043286 -0.011986561 -0.018244633 -0.018194513 -0.012748802
-0.00096538715 -4.8179707e-05 -0.0062077586 -0.000883259 -0.005436863 -0.005476879 -0.0007857081 -0.00025345033

exp_avg_sq f4 [4, 4]
00000000: a0d7 d837 5dde a337 b7e3 143a 7975 7939
00000010: 6f0c 4f3a c599 183a 04f0 2b3a 6c3c 9339
00000020: 3f3c 8c35 566e 0233 daab 5738 ee77 e535
00000030: 5938 243a 39a3 e239 719b 1d38 e7fb a736
2.5849615e-05 1.953466e-05 0.0005679684 0.00023790252 0.0007898276 0.0005821253 0.00065588974 0.00028083043
1.0448347e-06 3.0368334e-08 5.1420044e-05 1.7096734e-06 0.00062645 0.0004322769 3.7576483e-05 5.006313e-06

exp_avg f4 [8]
00000000: bfe0 b7bb a269 0e39 2b8f bbbc ea69 a8bd
00000010: bfc3 cd3d 69d3 fb38 db67 b2bc 8e2a b43d
-0.0056115086 0.00013581527 -0.022895416 -0.082233265 0.10047101 0.00012007991 -0.021778038 0.08797179

exp_avg_sq f4 [8]
00000000: ccb6 043b cdc8 c137 7a9f a03b c6ac df3d
00000010: 1e8d d03c d779 5f36 deba a43d c95d 813d
0.0020250557 2.3100898e-05 0.0049018236 0.10921626 0.025457915 3.330051e-06 0.080434546 0.06316716

exp_avg f4 [8, 4]
00000000: cff7 a239 2832 10bb 0b21 d3b7 de04 deb9
00000010: 9923 ae36 7a0e 40b8 58f7 59b4 c1c7 b7b7
00000020: 7fc5 f4ba 7913 00bc e1fe adb8 4a18 69ba
00000030: 3d63 ddbb 3235 d0bc e9e6 54b9 7afd 07bb
00000040: 26fb 4f3c 4ca9 823b 4d2c 8039 d258 f437
00000050: d2f4 e838 4487 fcb5 6bd6 5935 1a07 e0b6
00000060: ae04 0fbb 8d18 193c 7ae2 9738 6e91 cd3a
00000070: 92eb 293c d644 9b3c 8a21 9c39 8555 633a
0.0003108368 -0.0022002552 -2.5168547e-05 -0.00042346766 5.189748e-06 -4.578985e-05 -2.0299683e-07 -2.1908318e-05
-0.0018674581 -0.007817143 -8.296758e-05 -0.0008891864 -0.006756215 -0.02541599 -0.00020303916 -0.002075045
0.012694156 0.003987467 0.0002444707 2.9128427e-05 0.000111082234 -1.8814831e-06 8.115082e-07 -6.676547e-06
-0.0021822858 0.009344232 7.2424256e-05 0.00156836 0.010371106 0.018953722 0.00029779627 0.0008672106

exp_avg_sq f4 [8, 4]
00000000: 2edc 8337 fbca ca38 07b1 9d32 b702 4b35
00000010: 912c 9230 7897 9536 43f9 2f2b 77c1 9833
00000020: 62f0 2437 e666 613a 1175 4c32 68e4 0437
00000030: 7d52 e438 88ff 253c 710a 9e33 fd79 bb38
00000040: b9e0 0c3a ebf9 bd38 62e2 bf34 0418 3532
00000050: 92c9 e832 45f3 1b34 402e 8c2c eb9a 5930
00000060: 4bc0 5f39 f3c1 cb3b 1049 f333 ad2d 4138
00000070: a68a 6439 50fc 6f3b 406c 2a34 40d3 2537
1.5718946e-05 9.669919e-05 1.8357708e-08 7.5627344e-07 1.0635565e-09 4.4581793e-06 6.251841e-13 7.1132426e-08
9.83113e-06 0.0008598402 1.1900981e-08 7.920993e-06 0.00010887252 0.010131724 7.3593476e-08 8.939577e-05
0.00053740625 9.058773e-05 3.5741238e-07 1.0541047e-08 2.7100018e-08 1.4524001e-07 3.984174e-12 7.916429e-10
0.00021338572 0.006218189 1.1328859e-07 4.6057325e-05 0.00021795425 0.0036618896 1.5871865e-07 9.883952e-06

exp_avg f4 [16]
00000000: 05fe 94bc 3c24 4bb3 311b 6abb 0833 0cb3
00000010: 2550 abbd dfce 643b 1149 323d c51e 56bd
00000020: ab06 263d cfe2 50b3 cd01 e5bc eaa5 b7bc
00000030: 7e0c 183d 0acf f13d ad38 3cbd d94c 19bd
-0.018187532 -4.7297576e-08 -0.0035721774 -3.2642703e-08 -0.08364896 0.0034913344 0.043526713 -0.052275438
0.040533703 -4.8635055e-08 -0.02795496 -0.022417981 0.03712129 0.11807068 -0.045952488 -0.037426803

exp_avg_sq f4 [16]
00000000: 9b05 8e3d 891f 3b2d 4a4c 973d e373 0632
00000010: e599 5f3c 0ccf 1b3d 84c6 fb3d e215 6c3b
00000020: 3850 933c fec0 3b32 558f 4a3c f8bf 413b
00000030: 5d79 483d 3d6a 1b3d c8cd a63b 9981 d23d
0.06934663 1.06367215e-11 0.07387598 7.826176e-09 0.013647531 0.038039252 0.12293723 0.0036023785
0.017982587 1.0928714e-08 0.012363275 0.0029563885 0.048943866 0.037943114 0.005090449 0.10278625

exp_avg f4 [16, 8]
00000000: 2020 bcbb 8cea 7db8 68fe 16bb babf d9bb
00000010: 3a66 11ba 5d19 1b36 075f c4bb 0516 adb9
00000020: 6062 acb2 ba35 05ad 7b6b 07b2 8726 ceb2
00000030: c99c 242d ba89 3dad ceaa 91b2 fd81 cbab
00000040: 56d4 afbb 0b8d 8eb8 4a23 72ba a8cc dbbb
00000050: a148 1a3b ba97 7d37 5f75 5ebb 5ce6 fd39
00000060: 5bb1 17b3 f05b 43b0 065d d1b2 3aac 10b3
00000070: 918f 30b2 1efb f3b1 8152 0eb3 9ce1 ffb2
00000080: 8728 0cbb 8bbd 0e36 d1c7 3ebb c3ee 54bb
00000090: bbe4 a7bb 24d5 74b9 66e8 02bc 5b0a 4abb
000000a0: 0dc7 873b 24a4 2238 0629 7f3a bde3 a53b
000000b0: 7c1a 13ba a14e 2fb8 38d4 673b 7c82 57b8
000000c0: da2a a1bb 204c 6cb8 e874 f1b9 1926 aabb
000000d0: 9a09 693b 7e76 4d39 59c6 74ba e2f9 003b
000000e0: 6e29 5abb 6bc7 beb7 6959 0bbb 0f1e 94bb
000000f0: a404 26bb b4d6 03b9 52ad d3bb c3c3 e4ba
00000100: 813f 903b dffa ff37 34e4 373b ff06 af3b
00000110: 3532 253b 7f0f 7038 38bf ee3b 2ea7 bc3a
00000120: df3f ebb2 4f3d f8b0 7ddc 0eb3 161b e5b2
00000130: 41c1 4bb3 a2b1 62b2 8bee 3cb3 1250 71b3
00000140: 98ff 833a b894 0838 5e3d c8b9 3db0 933a
00000150: a586 0abb da9e b1b8 ab76 bdba 2f09 a4ba
00000160: 2f5a 07ba 3680 8036 2e94 5aba 0418 47ba
00000170: 1f00 cfba 0214 66b8 9387 15bb f6d7 74ba
00000180: 2f02 c03b bf7e 5d38 5833 433b 97ad e53b
00000190: 0cf8 033b 764f f837 31f2 033c 20f3 9c3a
000001a0: e3fe 243b 25b9 7036 a33c 6a3b b8a5 8f3b
000001b0: c1b7 f63b 03d2 bb39 b534 263c aca9 8b3b
000001c0: 98e2 2fbb 01b3 36b7 60bb 27bb a124 4cbb
000001d0: 6ad0 5fbb 7fbb b7b8 5e06 d1bb 90f9 e8ba
000001e0: 189c 703b f8bd 3a38 1b9c 2e3b 1625 233b
000001f0: b481 a838 39df 70b9 ade9 4b3b df66 85ba
-0.0057411343 -6.053834e-05 -0.0023039822 -0.00664517 -0.0005546544 2.3111563e-06 -0.0059927735 -0.00033013537
-2.0068171e-08 -7.572104e-12 -7.8824725e-09 -2.3999077e-08 9.357134e-12 -1.0773988e-11 -1.6957895e-08 -1.4460097e-12
-0.0053658886 -6.797359e-05 -0.0009236826 -0.0067077465 0.0023541825 1.5115302e-05 -0.003394447 0.00048427552
-3.531873e-08 -7.107124e-10 -2.4373104e-08 -3.3684252e-08 -1.02771915e-08 -7.1007795e-09 -3.313699e-08 -2.9788502e-08
-0.002138646 2.1269977e-06 -0.00291108 -0.0032490946 -0.0051237023 -0.00023349054 -0.007989978 -0.0030828926
0.0041436017 3.8776678e-05 0.0009733591 0.005062549 -0.00056115515 -4.179648e-05 0.0035374295 -5.1381518e-05
-0.0049184384 -5.633768e-05 -0.00046054204 -0.00519253 0.0035558701 0.00019594465 -0.00093374174 0.0019680192
-0.0033288854 -2.2742626e-05 -0.002126301 -0.004520185 -0.0025332356 -0.00012573117 -0.0064598704 -0.0017453361
0.0044021015 3.051519e-05 0.0028059604 0.00534141 0.0025206928 5.723489e-05 0.0072859786 0.0014393085
-2.7386646e-08 -1.80618e-09 -3.3262484e-08 -2.6671426e-08 -4.7440384e-08 -1.319532e-08 -4.3989115e-08 -5.618501e-08
0.001007068 3.2563432e-05 -0.00038192695 0.0011267733 -0.0021137383 -8.469606e-05 -0.0014454921 -0.0012514944
-0.000516328 3.829623e-06 -0.00083381205 -0.0007594826 -0.0015792883 -5.4854907e-05 -0.0022816404 -0.0009340042
0.0058596353 5.2808547e-05 0.0029785242 0.007009219 0.002013686 2.9600906e-05 0.008053348 0.0011974312
0.0025176338 3.5870555e-06 0.0035741709 0.004383769 0.0075292294 0.0003582389 0.010144402 0.00426217
-0.0026837941 -1.0889723e-05 -0.0025593862 -0.0031149762 -0.0034151324 -8.761044e-05 -0.006378933 -0.0017774571
0.0036714133 4.4522778e-05 0.002664334 0.002489393 8.035023e-05 -0.0002297134 0.0031114623 -0.0010177753

exp_avg_sq f4 [16, 8]
00000000: cb95 913a 9ec9 ec33 250e 6b38 6824 0e3b
00000010: 21eb 5736 1ea0 0d35 6bb9 ac3a f6d5 2438
00000020: b259 6c2a ea8b 0625 ee7f 5829 e7fe 002b
00000030: 4684 2726 4e96 db25 a72a 1f2a 1720 db26
00000040: e5e4 743a 58b1 c533 50ad 0539 255d e13a
00000050: 5cf0 e838 2850 f734 3927 c43a 5686 7b38
00000060: c4ea 022f c545 8328 17ca 1d2d b84d 782f
00000070: 816f 812c 1e34 7b29 8c4f 292f 7b46 b62c
00000080: ac93 a738 5820 0132 d651 a837 8b4f 2039
00000090: 488c 2138 6369 cd33 be84 4b39 4610 7837
000000a0: 8d38 e039 0b35 2b33 2960 1b38 91aa 5a3a
000000b0: 6230 c337 1941 9534 3cde 283a 734f ec37
000000c0: 9ab9 ab3a adb9 0934 a2a4 1939 7ebe 253b
000000d0: 7cb4 f938 ff46 6f35 096d 093b e37b cb38
000000e0: 2c01 0538 35dd 8531 091f a436 f7f4 7c38
000000f0: 9ef9 de36 77f3 d032 458a 6d38 b100 7636
00000100: 9cc0 6939 503c c432 527c ac37 dbf7 e139
00000110: ff93 8437 4830 0d34 2e6c a739 f7ae 5d37
00000120: 8ef4 662f f536 0a29 4348 6a2d da09 da2f
00000130: 9a51 812c 1323 c429 9ac0 7f2f 5880 d52c
00000140: 8a5a e938 a2ec 3532 f64a 8437 d81a 5c39
00000150: 27c3 a237 f4e8 be33 0800 5139 5b80 3d37
00000160: c468 5337 764b 3930 7680 a036 3adc cc37
00000170: c87e 2837 0e01 a632 977b 2b38 ec97 6b36
00000180: 481e 1f3a 439d 7c33 acc0 5638 5890 9a3a
00000190: 6f86 df37 eca5 bf34 0b95 643a 5fa4 0f38
000001a0: b337 6338 843f 5b2f 7ca6 5238 45c6 0039
000001b0: f0a4 1839 3e9a 8d34 28c1 d139 adbd 5138
000001c0: 0484 e837 90ea 0b31 9123 f336 ab72 6738
000001d0: 8f32 5c37 9f56 1633 7149 9438 6098 b936
000001e0: fc1d 6f3a a085 f633 3e15 ed38 c735 ef3a
000001f0: 6f29 d637 b9aa 8335 e99c bf3a 4d5c 9338
0.0011107264 1.102628e-07 5.604154e-05 0.002168918 3.217436e-06 5.2759594e-07 0.0013177817 3.9299914e-05
2.099213e-13 1.1670052e-16 4.8072596e-14 4.5828483e-13 5.811903e-16 3.8092295e-16 1.4136835e-13 1.5204876e-15
0.0009341969 9.205786e-08 0.00012748432 0.0017193897 0.000111073925 4.6065657e-07 0.0014965303 5.9968173e-05
1.1906837e-10 1.457418e-14 8.96929e-12 2.258308e-10 3.67878e-12 5.57784e-14 1.5398721e-10 5.180576e-12
7.9906866e-05 7.516142e-09 2.0065268e-05 0.00015288421 3.851604e-05 9.565226e-08 0.00019409039 1.4785741e-05
0.00042766743 3.9862282e-08 3.7044436e-05 0.00083414564 2.3268341e-05 2.7800778e-07 0.0006441807 2.8170389e-05
0.0013101578 1.2826668e-07 0.00014652548 0.0025290544 0.00011906863 8.913775e-07 0.002096953 9.70287e-05
3.1710762e-05 3.895958e-09 4.891194e-06 6.0309623e-05 6.645175e-06 2.4325102e-08 5.6633977e-05 3.665726e-06
0.00022292364 2.284483e-08 2.0561889e-05 0.0004310001 1.5804542e-05 1.3149213e-07 0.00031933322 1.3213364e-05
2.1005261e-10 3.0689823e-14 1.3317405e-11 3.966097e-10 3.67546e-12 8.710233e-14 2.3260541e-10 6.068073e-12
0.0001112717 1.0589391e-08 1.5770533e-05 0.00020990835 1.940278e-05 8.8899384e-08 0.00019931805 1.1295163e-05
1.2600973e-05 6.7409844e-10 4.7833264e-06 2.4421246e-05 1.0043099e-05 1.9325423e-08 4.088468e-05 3.510616e-06
0.0006069881 5.881635e-08 5.1201016e-05 0.0011792285 2.6646272e-05 3.5697246e-07 0.0008719719 3.424694e-05
5.417289e-05 1.9940499e-10 5.0222952e-05 0.00012280892 0.00014557294 2.6375523e-07 0.000400075 5.0006132e-05
2.771803e-05 2.0360496e-09 7.246105e-06 5.5181485e-05 1.3124793e-05 3.5003378e-08 7.0708695e-05 5.5311684e-06
0.00091215945 1.1479574e-07 0.00011304997 0.001825028 2.5530082e-05 9.809947e-07 0.0014618906 7.0266986e-05

exp_avg f4 [128, 32]
00000000: 66c9 ff3a 7b13 0bad 6ec4 0c3a 1587 6bb3
00000010: 192c e83a 68a0 f6b9 cf2e 643a 7395 3e3b
00000020: eefa 7f3a e95f 4eb3 2af1 ab3a 6262 3e3b
00000030: ef22 6539 abc3 93ba 9080 a43a 7f6b 88b8
00000040: 5370 b1b4 744f 45aa e434 9c36 c1b9 85ad
00000050: 6561 8735 4bcf 97b6 6fc0 f135 d9c5 c735
00000060: 1b21 b936 1801 ff29 93e1 2837 7796 0db6
00000070: 4b11 ae37 d299 b9b6 6286 0536 5204 1036
00000080: 016d 783a f2e9 8eac d27e 8239 262a 4db3
00000090: 41f9 623a 2fc9 61b9 f835 dd39 b421 b93a
000000a0: 2f33 fe39 358b 1db3 0a0c 2d3a a01b b83a
000000b0: 00cd bc38 cf51 10ba 9be1 1a3a 2b3b 3ab8
000000c0: c287 0eb7 dd4b 932a aca2 81b6 256a c5ac
000000d0: 4c6d 9b35 9596 b2b5 a70a 1eb5 ce81 3eb7
000000e0: dd8e 4fb6 99d9 822b c311 db36 a49d 38b7
000000f0: a3c5 1337 738a 54b6 4bec f1b6 9506 f7b4
00000100: 7f08 a5b2 7c73 5d94 e724 5d2f e727 9514
00000110: 0bcc f6b2 a4f3 83b1 15e5 84b1 e1da 12b3
00000120: a6ea 16b3 6fe6 f392 fb71 cdb2 2d68 13b3
00000130: 6b44 b8b2 e9c1 53b1 1061 a7b2 042d f5ad
00000140: f58c 89ad 1d51 0a10 04f5 692c fa62 4611
00000150: 0f83 51ad 802e 99aa 6f46 f7ac 95ae 102c
00000160: 01f4 3f2d e441 e68e 900e 1b2d ff82 b8a9
00000170: 38c5 592c a0ec 55ac 11c6 502c 8ba0 582c
00000180: 0ccb 97bb 1039 c4ad 8bd8 96ba b671 7f32
00000190: 5cf0 a1bb 9acb d839 b226 06bb efd0 efbb
000001a0: 9fca 41bb 3da6 5532 4b9e 82bb 2412 e2bb
000001b0: cb65 4aba a301 f43a 6996 69bb 12b4 9cb9
000001c0: d73f 38b8 3dd7 e92b 956e 6eb7 cb47 58ad
000001d0: ac51 a6b7 5511 c236 f7e8 27b7 9c39 1ab8
000001e0: 684a adb7 38f0 282c 21c3 e8b7 d96f 31b8
000001f0: 4698 b7b7 9cf5 3837 0a59 f8b7 7164 8db7
00000200: efd1 a0b2 f44a 5294 5152 0c32 b9ed 41a9
00000210: c4dd 06b2 4dce c1b2 7671 5f31 bee3 79af
00000220: 97fe 5a32 be68 28a6 c62d 9ab1 ebd6 d52f
00000230: 6b75 40b1 441f 39b3 0764 b531 c80f 8ab2
00000240: deaf 12b1 4f3c 1510 ef8a 332f 4c6e a8a7
00000250: 0bc1 79b1 589c 7eae 4c3a 91af 2a84 50b1
00000260: 47a1 0bb1 7d2b cea5 02d0 0bb1 16ab 84b1
00000270: b3b2 cdb0 1398 a3af 104c 94b0 b6c6 2bae
00000280: 44b2 f938 e6f8 bf2c c07a 2939 f065 6eb2
00000290: d346 3d3a da7e e839 f7e6 4f39 b134 123a
000002a0: 3f7c ae3a a852 44b2 dd71 223a 48ba 393a
000002b0: 1de3 813a a904 2e3a 4e7c d839 3509 3b38
000002c0: e842 f236 2be7 412a 64d9 bd36 4dea 80ab
000002d0: 5c41 4337 1dd5 4b36 2f3d 8c36 aa08 0e37
000002e0: 8091 8d37 aa3b 962b 72bb 1237 8a14 2937
000002f0: 1f58 9037 01cc 2537 4caf d736 84f5 e335
00000300: bf1a 9e39 d068 fdab 0bde fa39 00c3 3fb3
00000310: d3b3 883a c8bb ce39 9e69 fe39 0184 9a3a
00000320: cbda 123b 978c cfb2 f8ab 633a f6ad c33a
00000330: 0a6d f03a 4167 373a 8475 363a e885 2f38
00000340: 0556 b137 8f07 502b 0db6 8337 7a86 ce2c
00000350: 5ef1 8637 2d90 8c36 c478 5a37 62a1 a637
00000360: edcd ad37 2c4a 442c 1356 5337 fb1c 2937
00000370: 412d b837 f84d 2d37 38ef 8f37 caa7 7136
00000380: 07c3 9bb9 918e 8fab 5d46 a7b8 7e39 e632
00000390: 2b79 85b9 2c7f bb38 4715 1db9 ed2f e2b9
000003a0: 7baf f3b8 cfc3 4432 b8ec 3db9 1d9f e8b9
000003b0: 3f16 fbb7 8aaf 4e39 30d8 3cb9 95d0 0037
000003c0: 067d 7c34 b492 c929 fe97 91b5 d983 8eac
000003d0: f6ca f335 3948 0135 2ab2 6db5 5b3e dc36
000003e0: 3e18 94b6 f7a7 0a2c 9fc4 4935 c1d7 e536
000003f0: 5c8e 99b6 f921 7635 a7b4 a3b4 5722 e2b4
0.0019514977 -7.905561e-12 0.00053698465 -5.4838058e-08 0.0017713337 -0.00047040288 0.0008704485 0.0029080778
0.00097648695 -4.8050342e-08 0.0013118137 0.002905034 0.00021852156 -0.0011273524 0.0012550522 -6.505008e-05
-3.3050546e-07 -1.7524681e-13 4.6553196e-06 -1.520284e-11 1.0086629e-06 -4.5242828e-06 1.8011905e-06 1.4884237e-06
5.5172836e-06 1.13244646e-13 1.0066101e-05 -2.109822e-06 2.0750469e-05 -5.5313367e-06 1.9896765e-06 2.1460187e-06
0.0009476692 -4.061856e-12 0.0002489002 -4.7768616e-08 0.00086583575 -0.00021532619 0.00042192615 0.0014124424
0.0004848479 -3.668102e-08 0.000660122 0.0014046319 9.002723e-05 -0.00055053545 0.00059082516 -4.440096e-05
-8.495468e-06 2.6165086e-13 -3.863437e-06 -5.610861e-12 1.158021e-06 -1.3305859e-06 -5.887509e-07 -1.1355105e-05
-3.092856e-06 9.297451e-13 6.5287763e-06 -1.1003958e-05 8.807899e-06 -3.167105e-06 -7.209868e-06 -4.6012124e-07
-1.9212392e-08 -1.1180424e-26 2.0112943e-10 1.5060894e-26 -2.8730957e-08 -3.8403005e-09 -3.8677492e-09 -3.4192343e-08
-3.5138008e-08 -1.5392262e-27 -2.3916973e-08 -3.4320852e-08 -2.1451532e-08 -3.0814766e-09 -1.9485498e-08 -2.7873266e-11
-1.5637694e-11 2.727819e-29 3.3247302e-12 1.5649945e-28 -1.1909375e-11 -2.7210525e-13 -7.027982e-12 2.0560543e-12
1.0911273e-11 -5.6762828e-30 8.8139634e-12 -8.1939657e-14 3.0947033e-12 -3.0400474e-12 2.9668527e-12 3.0784565e-12
-0.0046323594 -2.2307961e-11 -0.0011508627 1.4868808e-08 -0.004941983 0.00041350425 -0.0020469842 -0.007318608
-0.0029570234 1.243603e-08 -0.003986155 -0.006899135 -0.0007720857 0.001861621 -0.003564263 -0.00029888802
-4.3928474e-05 1.6615386e-12 -1.4211652e-05 -1.229412e-11 -1.9826773e-05 5.7836683e-06 -1.0008217e-05 -3.6770114e-05
-2.0657855e-05 2.4007584e-12 -2.774742e-05 -4.2304255e-05 -2.1886208e-05 1.102444e-05 -2.9605366e-05 -1.6855282e-05
-1.8721918e-08 -1.06170725e-26 8.167789e-09 -4.30608e-14 -7.85025e-09 -2.2561972e-08 3.2515266e-09 -2.2727328e-10
1.2747157e-08 -5.842866e-16 -4.4871937e-09 3.8897183e-10 -2.8006422e-09 -4.3102105e-08 5.279165e-09 -1.6072491e-08
-2.1345765e-09 2.943153e-29 1.6329314e-10 -4.674895e-15 -3.6344001e-09 -5.7891775e-11 -2.641677e-10 -3.034311e-09
-2.0318838e-09 -3.5764772e-16 -2.03454e-09 -3.861156e-09 -1.4966502e-09 -2.9757583e-10 -1.0790036e-09 -3.905739e-11
0.0001190645 5.4561798e-12 0.00016162824 -1.3876601e-08 0.00072203315 0.00044345 0.000198271 0.00055773096
0.0013312175 -1.1427495e-08 0.00061967765 0.0007084948 0.0009909604 0.00066382677 0.00041291345 4.459285e-05
7.219951e-06 1.7222046e-13 5.6579465e-06 -9.159979e-13 1.1638123e-05 3.0373405e-06 4.179448e-06 8.465877e-06
1.6876264e-05 1.0674701e-12 8.745921e-06 1.0077967e-05 1.7207172e-05 9.882265e-06 6.4279066e-06 1.6984272e-06
0.00030156036 -1.8005823e-12 0.0004784915 -4.4648004e-08 0.0010429568 0.0003943129 0.00048525346 0.0011788608
0.0022408243 -2.4161904e-08 0.0008684988 0.0014929164 0.0018343043 0.0006996282 0.000696026 4.184796e-05
2.11401e-05 7.3906934e-13 1.5701191e-05 5.869802e-12 1.608644e-05 4.1891094e-06 1.30219305e-05 1.9863892e-05
2.0719099e-05 2.7894449e-12 1.2596621e-05 1.00799325e-05 2.1955582e-05 1.0329757e-05 1.7158323e-05 3.6009465e-06
-0.0002970921 -1.0200331e-12 -7.976287e-05 2.6801668e-08 -0.00025458014 8.9405425e-05 -0.00014980613 -0.00043141787
-0.00011619829 1.1453223e-08 -0.00018112629 -0.00044369037 -2.993189e-05 0.00019711084 -0.00018009613 7.677959e-06
2.3514812e-07 8.951642e-14 -1.0847577e-06 -4.0505208e-12 1.816398e-06 4.816134e-07 -8.8548643e-07 6.56377e-06
-4.413566e-06 1.9704219e-12 7.5164456e-07 6.849849e-06 -4.576328e-06 9.169158e-07 -3.0492558e-07 -4.2120766e-07
