model/GCN/set1/version_1/checkpoints/epoch=176-step=4956.ckpt (torch, 88097 bytes, 29 tensors)

model.conv1.bias f4 [4]
0	0x3d38bd4f	0.045102414
1	0x3a9375ee	0.0011250356
2	0xbd84bbc6	-0.064811274
3	0x3c54db99	0.012991809

model.conv1.lin.weight f4 [4, 4]
0	0xbeeb4302	-0.4594956
1	0xbf5020a1	-0.8129979
2	0x3f322b32	0.6959716
3	0xbea59103	-0.32337198
4	0x3f42d9a9	0.76113373
5	0x3f3608c2	0.71107113
6	0x3e0c745b	0.13716261
7	0xbf33dc31	-0.7025786
8	0xbc377f98	-0.011199854
9	0xbea133b4	-0.3148476
10	0x3e3efeea	0.1865193
11	0xbe8f637b	-0.28005585
12	0x3e91afdc	0.28454483
13	0xba0aca52	-0.00052944303
14	0xbe8dfbfa	-0.27731305
15	0xbf31b6b1	-0.6941939

model.conv2.bias f4 [8]
0	0xbc8d3d4f	-0.017241148
1	0x00000000	0.0
2	0xbca5e401	-0.020250322
3	0xba83a552	-0.0010043776
4	0x3d1a42b4	0.03766127
5	0x00000000	0.0
6	0x3c171582	0.009221436
7	0x3cdfae1a	0.027304698

model.conv2.lin.weight f4 [8, 4]
0	0x3dcac6bb	0.09901186
1	0x3f0acf2a	0.5422236
2	0xbdb82528	-0.08991462
3	0xbe6943f3	-0.22779827
4	0xbd16e371	-0.036838
5	0xba632327	-0.0008664601
6	0xbe535859	-0.2063917
7	0x000073b8	4.1512e-41
8	0x3f011c39	0.5043369
9	0x3d75f1b7	0.06004497
10	0x3efeaeba	0.4974268
11	0x3f32699f	0.69692415
12	0xbe8fa711	-0.2805715
13	0x3f1d9594	0.61556363
14	0x3dfda75a	0.123854354
15	0xbe306ad3	-0.1722825
16	0x3f21be2b	0.631808
17	0xbf24a10f	-0.64308256
18	0xbf047790	-0.5174494
19	0x3e40415f	0.18774937
20	0xbd7f32f5	-0.062304456
21	0xbdcc6355	-0.099798836
22	0xbe85189a	-0.25995332
23	0x3e608a87	0.21927844
24	0x3f012537	0.5044741
25	0x3ed73d1b	0.42038807
26	0xbd93e0fd	-0.072206475
27	0xbed86e83	-0.42271814
28	0x3dd4494d	0.103655435
29	0x3bba1d73	0.00567978
30	0xbf0cc1ab	-0.54983014
31	0xbed31e40	-0.41234016

model.conv3.bias f4 [16]
0	0xbb0b9c8a	-0.0021303021
1	0x00000000	0.0
2	0xbc75bf1b	-0.014999176
3	0xba517f60	-0.00079916976
4	0x3caec450	0.021333843
5	0x3cc37b13	0.023862397
6	0xbc39dfff	-0.011344909
7	0xbb9332cb	-0.004492139
8	0x3bdf20a8	0.006809313
9	0xba07489f	-0.00051606627
10	0x3ca385aa	0.019961197
11	0x3af09039	0.0018353529
12	0x3b01c9ff	0.0019804237
13	0x3ceec21d	0.029145295
14	0x3b6c4cc5	0.00360565
15	0x3ca4aff1	0.020103427

model.conv3.lin.weight f4 [16, 8]
0	0x3ed8d63e	0.42350954
1	0x9bf0a477	-3.9810952e-22
2	0x3e4bb177	0.19891916
3	0x3f0155dd	0.5052164
4	0xbe4090ab	-0.18805186
5	0x2f36f04c	1.6638174e-10
6	0xbee0f6ec	-0.43938386
7	0x3c42e7f7	0.011896125
8	0xae97e10e	-6.906663e-11
9	0xba0851f1	-0.00052001985
10	0xbdb94083	-0.09045508
11	0x0000da47	7.8303e-41
12	0xba6bef09	-0.00090001576
13	0xbc7bc7ab	-0.015367429
14	0xb68fdc25	-4.2873603e-06
15	0xb9988e55	-0.00029097745
16	0xbd1b50bf	-0.037918802
17	0xbc7a8062	-0.015289398
18	0x3e342927	0.17593823
19	0x3e30a076	0.17248711
20	0x3e8c7fcf	0.2744126
21	0xaf3de78f	-1.7271716e-10
22	0x3c97acc6	0.018515002
23	0xbe94aa9a	-0.2903641
24	0xbbb44b84	-0.005502166
25	0x3d47414d	0.04864626
26	0x3ab3cad8	0.0013717068
27	0xbce632dc	-0.028100424
28	0xba9024d0	-0.0010997299
29	0x3d7f5826	0.062339924
30	0xba63f32b	-0.00086955976
31	0xb8655aeb	-5.468253e-05
32	0x3df385eb	0.11890777
33	0xb78f5631	-1.7087064e-05
34	0xbe8eff95	-0.2792937
35	0x3ea9569c	0.3307389
36	0xbda91296	-0.08255498
37	0x8000e4e6	-8.2113e-41
38	0x3e68acc9	0.22722162
39	0xbdf9ed89	-0.12203509
40	0x3e5bf70a	0.21480957
41	0x215805c0	7.3191257e-19
42	0xbdda802e	-0.106689796
43	0xbda2ad52	-0.079432145
44	0x3dd50dd2	0.10403027
45	0xb1cb2863	-5.912669e-09
46	0xbe3a02f2	-0.18165186
47	0x3ef84df1	0.48496965
48	0xbd71a369	-0.05899373
49	0x3df4d9d7	0.11955612
50	0x3e92a213	0.28639278
51	0x3eada5ec	0.3391565
52	0x3e102801	0.1407776
53	0x00004121	2.3364e-41
54	0xbe0ac22d	-0.13550635
55	0x3c54d475	0.012990107
56	0x3ef5047f	0.47854993
57	0xbd8896d2	-0.06669392
58	0x3ea3fa76	0.32027024
59	0x3e8c353b	0.27384362
60	0xbebc127a	-0.36732846
61	0x3d80f541	0.062967785
62	0x3d905a85	0.07048515
63	0x3e2af231	0.16693951
64	0x3c47ce35	0.01219516
65	0x2fbe03ed	3.4563588e-10
66	0xbe087ad2	-0.13328102
67	0x3d6abdba	0.057309844
68	0x3e77e912	0.24210003
69	0x80013d7c	-1.13892e-40
70	0x3efc67c2	0.4929791
71	0x3f01b3d5	0.50665027
72	0xb94ca50e	-0.00019516444
73	0xbd08059d	-0.03320848
74	0xb5a1ec26	-1.2064163e-06
75	0xb892b9dd	-6.996442e-05
76	0xbd93e6df	-0.072217695
77	0xb29d9426	-1.8344576e-08
78	0x31d01c9a	6.0568484e-09
79	0x3be4f820	0.0069875866
80	0xbef2f318	-0.4745109
81	0x3dc7dd09	0.09758956
82	0xbe361cee	-0.17784473
83	0x3ef819ae	0.48457092
84	0xbeb42055	-0.35180917
85	0x3a264e86	0.00063440984
86	0x3eedc84d	0.4644188
87	0xbe669fe1	-0.22521926
88	0x3e84dca6	0.2594959
89	0xa8c7871a	-2.215203e-14
90	0xbb14a3b5	-0.0022680585
91	0x3e9b3c48	0.30319428
92	0x39a4a479	0.0003140306
93	0xb0e2a119	-1.6489451e-09
94	0x3ebfd823	0.37469587
95	0xbee96813	-0.45587215
96	0x3e9de31b	0.3083733
97	0x3d78ee3d	0.060774077
98	0x3d6aa638	0.057287425
99	0xbee3884c	-0.44439924
100	0x3e4886a6	0.19582614
101	0xbdb64925	-0.0890067
102	0x3ecac14c	0.396006
103	0x3eeb1331	0.4591308
104	0xbdfd8334	-0.12378541
105	0xb47681ae	-2.2957713e-07
106	0xbec33a0a	-0.38130218
107	0xbdf62747	-0.1201921
108	0x3f072165	0.5278533
109	0xbe0cd966	-0.13754806
110	0xbd841d6b	-0.064509235
111	0x3e8462b2	0.2585655
112	0xbed72c4a	-0.42025977
113	0xba0a6c6a	-0.0005280437
114	0x3e25bdc9	0.16185679
115	0x3ee9767c	0.4559821
116	0xbebdc7cb	-0.37066492
117	0xba8f88d6	-0.0010950814
118	0x3e8838f7	0.2660596
119	0xbe0eb3fe	-0.13935849
120	0x3af91065	0.0019002078
121	0x80007848	-4.3149e-41
122	0x3efb0a1c	0.4903115
123	0xbd5ebb4f	-0.05437785
124	0xbec3494f	-0.38141868
125	0x3e08cc30	0.13359141
126	0xbe366000	-0.17810059
127	0x3d06d19d	0.032914747

model.fc.0.weight f4 [128, 32]
0	0x3cd82e99	0.026389407
1	0x352dfad9	6.4812554e-07
2	0xbdb7c341	-0.089727886
3	0x36b59355	5.411372e-06
4	0x3de208a1	0.11036802
5	0x3d8b7eea	0.06811316
6	0xbe0a60a5	-0.1351343
7	0xbdeab842	-0.11460926
8	0x3de8a1fe	0.113590226
9	0xb42bd5de	-1.600342e-07
10	0xbe1cc9dc	-0.15311378
11	0x3e29b9c1	0.16574766
12	0x3dea7c1d	0.11449454
13	0x3d887d98	0.0666458
14	0x3d978254	0.07397905
15	0x3e267c62	0.16258386
16	0xbcc2edea	-0.023795087
17	0x04ad42e2	4.0733527e-36
18	0x3d3a98f1	0.045556013
19	0xb4a62851	-3.0949244e-07
20	0x3d136bce	0.035991482
21	0xbc55d550	-0.013051346
22	0xbc003fc0	-0.007827699
23	0xbb283fb1	-0.0025672729
24	0xbc1ed9fa	-0.009695524
25	0xaf20f862	-1.4640159e-10
26	0x3e0865f3	0.1332014
27	0x3c3b8cbd	0.011447129
28	0x3dc87567	0.09788018
29	0x3d807838	0.0627293
30	0x3d073a2e	0.03301447
31	0x3c2237f9	0.00990104
32	0x3d6c829a	0.05774174
33	0x8000b1b9	-6.3755e-41
34	0xbe1afd53	-0.15135698
35	0xb469e62a	-2.1783549e-07
36	0x3deaf711	0.114729054
37	0x3df7705b	0.12081977
38	0xbd5f728d	-0.054552604
39	0x3b401812	0.0029311222
40	0x3e04979c	0.1294846
41	0xb4f88fc8	-4.6298214e-07
42	0x3e1d9452	0.15388611
43	0x3d97b746	0.074080035
44	0xbe0ab240	-0.1354456
45	0xbd963323	-0.07333972
46	0xbe112898	-0.14175642
47	0xbda20750	-0.07911551
48	0xbde06cd9	-0.10958261
49	0xb69d00d7	-4.6790624e-06
50	0xbdaeff5f	-0.08544802
51	0xb093d32b	-1.0755675e-09
52	0x3cce7882	0.025203947
53	0x3befb6c6	0.0073154895
54	0xbcaced46	-0.021109235
55	0xbe101923	-0.14072089
56	0xbda702d9	-0.0815484
57	0x1d6425ba	3.0195053e-21
58	0x3dc07ee1	0.093992
59	0xbde63a40	-0.11241579
60	0x3d1abafc	0.03777598
61	0x3cb57d51	0.022154482
62	0xbdbea03f	-0.09307908
63	0xbd40dd74	-0.047086194
64	0xba9ddcea	-0.0012043987
65	0x1a0538ff	2.7549796e-23
66	0x3a37fdc9	0.0007018713
67	0x2e47af81	4.540324e-11
68	0xbaa6fdb2	-0.0012740402
69	0xb95b53f2	-0.0002091674
70	0xba1fab76	-0.00060909183
71	0xbb575895	-0.0032859195
72	0xbaebbfac	-0.00179862
73	0x37c51be5	2.349722e-05
74	0xba736f7b	-0.0009286326
75	0xb9f4dc28	-0.00046703336
76	0xb9a9ce01	-0.00032387677
77	0x39244918	0.00015667488
78	0xba4dbaff	-0.0007847994
79	0xb6e4877e	-6.810703e-06
80	0x3686aec7	4.013858e-06
81	0xa6ab5ead	-1.189117e-15
82	0xb83e6422	-4.5392786e-05
83	0x0000be3f	6.8247e-41
84	0xa0b1d9e2	-3.012915e-19
85	0x00041440	3.74606e-40
86	0xa81a9ed2	-8.583156e-15
87	0xaa92ef41	-2.6100826e-13
88	0xa261dd7a	-3.0610435e-18
89	0x28a99e2c	1.8831365e-14
90	0xb23d0e45	-1.1004492e-08
91	0xb72ae3ca	-1.0185826e-05
92	0xb153a7a2	-3.079983e-09
93	0x38b6a06e	8.708319e-05
94	0x383fc6b5	4.572301e-05
95	0x1fb07cb5	7.474521e-20
96	0x3e3bf1c4	0.18353945
97	0xb8958afc	-7.1307615e-05
98	0x3e4aae02	0.19792941
99	0xb9077e46	-0.00012921644
100	0xbe24d1e3	-0.1609569
101	0xbc981fd9	-0.018569874
102	0x3e131dc3	0.14366822
103	0x3d6f071b	0.058356386
104	0xbc9c74d0	-0.01909867
105	0x9f188646	-3.229832e-20
106	0xbd1a1a49	-0.037622724
107	0xbd3fb9bc	-0.04680799
108	0x3d968632	0.073498145
109	0x3dc84aa6	0.09779863
110	0xbdb48b71	-0.08815659
111	0x3d90a479	0.07062621
112	0x3cae9719	0.021312283
113	0x80008e1b	-5.0978e-41
114	0xbd419fdf	-0.047271606
115	0x38f78fad	0.000118046395
116	0x3d28d0e5	0.041214842
117	0x3d26c3f4	0.04071422
118	0x3e2b3f31	0.16723324
119	0x3e3d97c9	0.18514933
120	0x3c230c2a	0.009951631
121	0x300bd586	5.087134e-10
122	0xbe086089	-0.13318075
123	0xbd4769ae	-0.04868477
124	0xbcec9ab5	-0.028882364
125	0x3d9f2a08	0.07771689
126	0xbdd08049	-0.101807185
127	0xbd906205	-0.07049946
128	0xb0991a75	-1.1139735e-09
129	0x1d6189b9	2.9849703e-21
130	0x2ffdaf35	4.6144924e-10
131	0x1f2f7d58	3.7161373e-20
132	0x36bed3c6	5.687095e-06
133	0xb48869ed	-2.5409045e-07
134	0x31746c43	3.5568213e-09
135	0xa4162d6d	-3.2564542e-17
136	0x9999d5d8	-1.59062e-23
137	0x8f84687f	-1.3056455e-29
138	0x8000b912	-6.6391e-41
139	0xb7f69a51	-2.9397344e-05
140	0x2570cfb4	2.0887054e-16
141	0xb14230e3	-2.8258504e-09
142	0x2fd7cd05	3.9253947e-10
143	0x28ba614d	2.0692346e-14
144	0xb12cad2d	-2.5127733e-09
145	0xb832c7ad	-4.262447e-05
146	0x0000365f	1.9505e-41
147	0x8a4c13c9	-9.825964e-33
148	0xa4f7fc3a	-1.0754646e-16
149	0x33fbab36	1.17192414e-07
150	0x0000d9ac	7.8086e-41
151	0xb8d93549	-0.000103572915
152	0x0000635b	3.5642e-41
153	0x8000555b	-3.062e-41
154	0xa746a72c	-2.7568644e-15
155	0x00006cee	3.9077e-41
156	0x0000590d	3.1945e-41
157	0x0000e21c	8.1113e-41
158	0x800018d3	-8.905e-42
159	0xa4a66290	-7.2157996e-17
160	0xbe129748	-0.14315522
161	0x36d710d4	6.4094584e-06
162	0xbce04e00	-0.027380943
163	0xb4ba670c	-3.4720176e-07
164	0xbdafdb9d	-0.0858681
165	0x3e046a7b	0.12931244
166	0x3d3eb3a3	0.046558034
167	0xbca3c16c	-0.019989692
168	0x3db9b0b3	0.09066906
169	0x82956807	-2.195329e-37
170	0xbd546339	-0.05185244
171	0xbd6e1ffc	-0.05813597
172	0x3d069838	0.03286001
173	0xbcd4647e	-0.025926825
174	0xbe012b74	-0.12614232
175	0x3d66c717	0.05634221
176	0x3d098aa2	0.033579476
177	0xa3e62b96	-2.495511e-17
178	0x3a764378	0.0009394209
179	0xb894696c	-7.076826e-05
180	0x3d50564c	0.05086355
181	0xb93c11bf	-0.00017935688
182	0x3b4dd5e0	0.0031407997
183	0xbbb602a0	-0.005554512
184	0x3d58ab95	0.05289801
185	0x8000435d	-2.4165e-41
186	0x3c586875	0.013208498
187	0x3c7ed057	0.015552602
188	0x3c0447ef	0.008073791
189	0x3bc91cb6	0.006137456
190	0x3c0dd0fa	0.008655781
191	0xbc0e3a98	-0.008680962
192	0xbde59bf8	-0.11211389
193	0x8000963c	-5.3894e-41
194	0x3d0d7418	0.034534544
195	0x380c0788	3.3385615e-05
196	0xbd717adc	-0.05895506
197	0xbdb656f3	-0.08903303
198	0x3e247aa2	0.16062406
199	0xbe064210	-0.13111138
200	0x3e09e2a6	0.13465366
201	0x00004e27	2.8036e-41
202	0xbce8128d	-0.028329158
203	0xbd45c404	-0.04828264
204	0x3dbd9b1f	0.092581026
205	0xbd52c58b	-0.051457923
206	0xbdfc3841	-0.12315417
207	0xbdc4dbb2	-0.09612216
208	0x3df3cd2c	0.11904368
209	0x8000a3d0	-5.8765e-41
210	0x3dae9621	0.085247286
211	0x000088f6	4.9132e-41
212	0xbc3a5a32	-0.011374043
213	0x3ba98dc8	0.0051743723
214	0x3dd39586	0.10331254
215	0x3acc3211	0.0015578886
216	0xbd4f7290	-0.050646365
217	0x000016fd	8.247e-42
218	0xbca79126	-0.020454954
219	0xbe028507	-0.12746058
220	0xbdce05a8	-0.100596726
221	0xbd34e9ce	-0.044168286
222	0x3de12e90	0.10995209
223	0x3ce517c4	0.027965434
224	0x3b5ebcd0	0.0033987053
225	0x1515c740	3.024749e-26
226	0x3d25bd16	0.04046353
227	0xa2dfc8a0	-6.065669e-18
228	0x3d2eb2ac	0.042650864
229	0x3da445fc	0.08021161
230	0xbe22eb03	-0.15909962
231	0x3de3f7ff	0.11131286
232	0x3e223371	0.15839936
233	0x1fe5f7de	9.7395334e-20
234	0x3dfe3156	0.12411754
235	0xbd878f24	-0.06619099
236	0xbda3da47	-0.080006175
237	0x3df77b1e	0.120840296
238	0x3d57a41a	0.052646734
239	0xbd54b8ad	-0.051933933
240	0xb9b65f64	-0.00034784817
241	0xb742e1e6	-1.1615897e-05
242	0xbd11e6a1	-0.035620335
243	0xa53dc0ae	-1.6458419e-16
244	0x3cd79e1d	0.026320511
245	0x3c4f93a9	0.012669482
246	0xbcfb165c	-0.03065031
247	0x3dc8f4e7	0.098123364
248	0xbd9b812b	-0.07592996
249	0x2c6336c3	3.228904e-12
250	0x3c344d59	0.011004769
251	0x3dc86406	0.09784703
252	0xbd82f641	-0.063946255
253	0xbc3e2e25	-0.011607681
254	0xbc74f627	-0.014951265
255	0xbc64ad1c	-0.013957288

model.fc.0.bias f4 [128]
0	0xbdd78868	-0.10524064
1	0xbde4fbab	-0.11180814
2	0xb6924e17	-4.36023e-06
3	0x3e320562	0.17384866
4	0x00006478	3.6041e-41
5	0x3d8946f5	0.06702987
6	0x3dcd56d5	0.100263275
7	0xbdc30bda	-0.09523745
8	0xb1142c62	-2.1562063e-09
9	0xbdd5565e	-0.10416864
10	0x3dedc845	0.11610464
11	0x3e15a4ea	0.14613691
12	0x3c4dd1bc	0.012562212
13	0x3a38cb09	0.00070492976
14	0xbddfd79f	-0.10929798
15	0xbc85f195	-0.016350547
16	0x3dfad424	0.12247494
17	0x3e0cddac	0.13756436
18	0x35482ab3	7.456794e-07
19	0x3d3963a7	0.04526105
20	0x3daffca2	0.08593108
21	0x3e2e74d6	0.17036757
22	0x3db83b23	0.089956544
23	0x3cdca675	0.026934842
24	0x3e133234	0.1437462
25	0x3d923370	0.07138717
26	0x3d6c4d68	0.057691008
27	0x3d9dbd77	0.07702153
28	0xbc3db841	-0.011579574
29	0xb8ae2ac8	-8.304935e-05
30	0x3d972fe0	0.07382178
31	0x3c4f2215	0.012642403
32	0x32d182df	2.4390316e-08
33	0x3e0a72cf	0.13520359
34	0xbcd203bc	-0.025636546
35	0x09aad98f	4.1130602e-33
36	0x3c4e2308	0.012581594
37	0x3e090a53	0.13382845
38	0x3e0a8b34	0.13529664
39	0xbcb915ef	-0.022593467
40	0xbe04cd63	-0.12968974
41	0x3e03ecb3	0.12883262
42	0xbe32165e	-0.17391345
43	0x3e1632e5	0.14667852
44	0xaf2c0ebb	-1.5648542e-10
45	0xbd0a13c8	-0.03371027
46	0x3e042779	0.12905683
47	0x2463b738	4.937797e-17
48	0xbcc18760	-0.023624122
49	0xbdda1d18	-0.106500804
50	0xa2de9eda	-6.034141e-18
51	0x3da8521f	0.08218788
52	0x3d50e107	0.050995853
53	0x3ced69ea	0.028981168
54	0xbd3d4137	-0.04620477
55	0xbd5a0173	-0.05322404
56	0xb2e90805	-2.7128417e-08
57	0x3e01557c	0.12630266
58	0x80004fd2	-2.8634e-41
59	0xb54bff5e	-7.5995e-07
60	0x3d4d8e1c	0.050184354
61	0x3e121cce	0.142688
62	0x3e076ff7	0.13226305
63	0xbc83e58f	-0.016100673
64	0xb71f933a	-9.511417e-06
65	0xba393bc1	-0.0007066094
66	0xbe04b080	-0.12957954
67	0xbdce63da	-0.10077639
68	0x3d0762dd	0.033053268
69	0xa2cc06ec	-5.530164e-18
70	0x3e04713a	0.12933818
71	0x3c434687	0.0119186705
72	0x3db2e9c1	0.08735991
73	0x2f28bea2	1.5347237e-10
74	0x3d13a06c	0.036041662
75	0xb4459688	-1.8401818e-07
76	0x3d175280	0.036943913
77	0x3dc43557	0.09580486
78	0xbde39e57	-0.11114185
79	0x3b05db26	0.0020424812
80	0x3ce55f90	0.02799967
81	0x00004e0c	2.7998e-41
82	0x3dc2012a	0.09472878
83	0xbdbe7aeb	-0.093007885
84	0x3d46a166	0.048493765
85	0x3d21026a	0.039308943
86	0x26f525e9	1.7010566e-15
87	0x3cf1ba5f	0.029507814
88	0x3c6f1239	0.014591747
89	0x800fdd8b	-1.457007e-39
90	0x3ccd11a7	0.025032831
91	0xb7b90c30	-2.2059394e-05
92	0x3e041277	0.12897669
93	0x3d022267	0.03177109
94	0x3d21a261	0.039461497
95	0x3c0b500f	0.008502974
96	0x3df8d86b	0.121506535
97	0x3d0adb14	0.033900335
98	0x3e135165	0.14386518
99	0x00002c33	1.5856e-41
100	0x3e0f02af	0.13965867
101	0x3dcd9d05	0.10039715
102	0x3da41457	0.08011692
103	0x00004bda	2.721e-41
104	0xba75f91a	-0.00093831273
105	0xbe092efc	-0.1339683
106	0xb598e9ca	-1.1392924e-06
107	0x3e14a71e	0.14516875
108	0xbe33818d	-0.17529888
109	0xb1a47210	-4.7859956e-09
110	0x2ce02a2b	6.3711445e-12
111	0xb8d89cbc	-0.00010328877
112	0xb7e7d6a8	-2.7637303e-05
113	0xbbbfcf06	-0.0058535365
114	0x800015fb	-7.885e-42
115	0x3e0cabb5	0.13737376
116	0x0000048f	1.635e-42
117	0x00002e4b	1.6607e-41
118	0xbe0b0581	-0.13576318
119	0xbd98a0fb	-0.074525796
120	0x303e10a4	6.9145245e-10
121	0x3d965871	0.073410876
122	0x3c235cad	0.009970826
123	0x3d85755f	0.065165274
124	0x3e308e15	0.172417
125	0x3da31190	0.07962334
126	0x3e04bb51	0.1296208
127	0x0e5c23d9	2.7134354e-30

model.fc.2.weight f4 [1, 128]
0	0x3d859c7c	0.06523988
1	0x3d06afc1	0.032882456
2	0x3ab7e6d6	0.0014030586
3	0xbddbac07	-0.10726171
4	0x8000f888	-8.9156e-41
5	0xbddc65fd	-0.1076164
6	0xbe449ad4	-0.19199687
7	0xbc3a6ba4	-0.011378203
8	0x37851e37	1.5868905e-05
9	0x3c834373	0.016023373
10	0xbd450973	-0.048104715
11	0x3d936116	0.07196252
12	0x3cc45e86	0.023970854
13	0xbd1f6a62	-0.038919814
14	0xbd926a2b	-0.07149156
15	0xbe159a60	-0.1460967
16	0xbb91e844	-0.004452737
17	0xbcffe408	-0.031236663
18	0x0fdb97df	2.1653566e-29
19	0x3df5d3a1	0.12003256
20	0xbe117535	-0.14204867
21	0x3dd5d8f3	0.104417704
22	0x3cb70465	0.022340963
23	0xbc41058c	-0.011781108
24	0x3d1d6138	0.038422793
25	0xbd2a2737	-0.041541304
26	0x3d519b40	0.05117345
27	0x3d944124	0.07238987
28	0xbc7ff44e	-0.015622212
29	0x3994e724	0.00028400973
30	0x3d7d3975	0.061822373
31	0xbd8a2623	-0.06745555
32	0xa2c6b708	-5.38618e-18
33	0xbd2b4b90	-0.04182011
34	0xbd267ba6	-0.040645264
35	0x2484a30f	5.752211e-17
36	0xbcfe5798	-0.031047627
37	0x3d82927b	0.06375595
38	0xbd6ece97	-0.05830249
39	0xbb4eb27c	-0.003153949
40	0xbd7828cf	-0.060585793
41	0xbd9cde89	-0.07659633
42	0xbd6cefd1	-0.057845894
43	0xbe22e5a8	-0.1590792
44	0x00002a7d	1.5242e-41
45	0x3c9b064d	0.018923903
46	0xbdd0a172	-0.10187043
47	0x8000732e	-4.1319e-41
48	0xbe03b803	-0.12863164
49	0x3d415adc	0.04720579
50	0x255c0748	1.9084425e-16
51	0xbd1a7d5f	-0.03771722
52	0x3d8b34f5	0.0679721
53	0xbd1b9a3d	-0.03798889
54	0xbd4ffe18	-0.050779432
55	0xbdcfa200	-0.10138321
56	0x80002e84	-1.6687e-41
57	0x3be82aed	0.0070851953
58	0x00005786	3.1397e-41
59	0x80006fe7	-4.0143e-41
60	0xbe3b6800	-0.18301392
61	0xbd0ab4ac	-0.03386371
62	0xbdbc58aa	-0.09196599
63	0x3d8e5eb8	0.0695166
64	0x3883914c	6.2736304e-05
65	0x35518720	7.80552e-07
66	0xbdaff95b	-0.08592483
67	0x3d95915f	0.07303118
68	0xbc933e7f	-0.017974136
69	0x0000b361	6.4349e-41
70	0xbe2fe777	-0.1717814
71	0xbd47cfb8	-0.04878208
72	0xbcba0ae5	-0.022710273
73	0xb768c01a	-1.3873005e-05
74	0x3c811f31	0.015761944
75	0xb4a2adcb	-3.0301302e-07
76	0x3d5a422e	0.05328577
77	0x3db8efee	0.09030138
78	0xbd0c9fac	-0.034331962
79	0xbdc40e70	-0.09573066
80	0xbc88a7ca	-0.01668157
81	0x00002b7b	1.5598e-41
82	0xbd66b42c	-0.05632417
83	0xbc0a0a79	-0.008425348
84	0xbe3d34e4	-0.18477207
85	0xbccc8e95	-0.024970332
86	0x000161b3	1.26883e-40
87	0x3d340888	0.04395345
88	0xbe4caa8e	-0.19986936
89	0x00008e61	5.1076e-41
90	0x3d08df41	0.033416037
91	0x3a55d6a6	0.000815729
92	0xbd9cfe03	-0.076656364
93	0xbc2221d6	-0.009895762
94	0xbdee4af2	-0.116353884
95	0x3c98da0c	0.01865866
96	0xbe2388a6	-0.15970096
97	0x3d5c10e7	0.053727057
98	0xbe49c32e	-0.19703361
99	0x150f9bdd	2.9001574e-26
100	0xbd5aa45d	-0.053379405
101	0x3b31f647	0.002715485
102	0x3de87feb	0.113525234
103	0x800048f4	-2.617e-41
104	0xbca8ecac	-0.020620666
105	0xbdb432c0	-0.08798742
106	0x39f1b235	0.00046099877
107	0xbe2dab21	-0.16959812
108	0xbdc73e92	-0.09728731
109	0x00002d33	1.6214e-41
110	0x8000539f	-2.9998e-41
111	0x3ab65ea1	0.00139137
112	0x38d78fa1	0.00010278752
113	0x3a14dd07	0.00056786876
114	0x0000dc22	7.8969e-41
115	0xbd677101	-0.056504253
116	0x000006bc	2.416e-42
117	0x1f4dcdc4	4.3580644e-20
118	0x3d8e28b4	0.06941357
119	0x3cf5d6c5	0.030009637
120	0x8000219d	-1.2058e-41
121	0xbdc93acb	-0.09825667
122	0xbbeaac60	-0.007161662
123	0xbddb1a08	-0.106983244
124	0x3dd8cf85	0.10586456
125	0xbe2051fe	-0.15656278
126	0x3c07bad6	0.008284291
127	0x1fcc4fe2	8.6529516e-20

model.feature.0.weight f4 [128, 32]
0	0xbd21485d	-0.03937565
1	0x3e097dc4	0.13426882
2	0xbe10a72e	-0.14126274
3	0x3df81f67	0.121153645
4	0x3d02ba3d	0.031915892
5	0x3de2852a	0.11060555
6	0x3dacfa1c	0.08446142
7	0x3dc4e632	0.09614219
8	0x39d0c5f5	0.0003982034
9	0x3dcd5b7d	0.10027216
10	0xbc265d0a	-0.010154018
11	0x3e28dd12	0.16490582
12	0xbca29914	-0.019848384
13	0xbcef171e	-0.029185828
14	0xbe276c33	-0.16349868
15	0x3cc59ad1	0.024121674
16	0xbd299abe	-0.04140734
17	0x3ddac911	0.106828816
18	0x3e1cc488	0.15309346
19	0xbe02a16f	-0.12756895
20	0x3db6a734	0.0891861
21	0x3deae470	0.11469352
22	0xbe0ad234	-0.13556749
23	0x3ccdca8c	0.025120996
24	0x3d12249f	0.035679456
25	0x3ddba97c	0.10725686
26	0xbcd61860	-0.02613467
27	0x3d98dee1	0.07464386
28	0x3e2d38cb	0.16916196
29	0x3df3f34b	0.11911639
30	0x3e31d446	0.17366132
31	0x3d380fa7	0.044936802
32	0x3d66452c	0.05621831
33	0x3d58152f	0.052754577
34	0xbb569aa9	-0.0032745993
35	0xbe3482fc	-0.17628092
36	0xbd9db05a	-0.07699652
37	0xbd1e0682	-0.038580425
38	0x3d2dade1	0.042402152
39	0xbdf229b8	-0.118243635
40	0x3d7cebc2	0.061748274
41	0x3e24edad	0.16106291
42	0xbe29d64b	-0.16585653
43	0x3d4abc50	0.049495995
44	0x3dfcd97e	0.12346171
45	0xbe28df5c	-0.16491455
46	0x3d61cd7e	0.055127613
47	0x3db82b29	0.08992607
48	0x3e2103c9	0.157241
49	0xbe269a4f	-0.16269802
50	0xbdb71c73	-0.08940973
51	0x3dc77ae3	0.09740236
52	0x3df105d7	0.11768692
53	0x3decd6fb	0.11564442
54	0x3e259540	0.16170216
55	0xbe1a30c1	-0.1505766
56	0xbdcef481	-0.10105229
57	0x3dc1b188	0.094576895
58	0x3de29970	0.11064422
59	0xbdad3231	-0.08456839
60	0xbd68cb61	-0.056834582
61	0x3cdf7474	0.027277209
62	0x3e27150f	0.16316627
63	0x3d82ea0b	0.063922964
64	0x3e2463e5	0.16053732
65	0xbd0b3092	-0.033981867
66	0x3d1093e4	0.03529729
67	0x3d6343dc	0.055484638
68	0xbd53d070	-0.051712453
69	0x3dcb2c4f	0.099205606
70	0x3d3797b5	0.044822413
71	0xbd46b0cc	-0.04850845
72	0xbccfc7aa	-0.025363762
73	0xbdc750fd	-0.09732244
74	0xbe137eba	-0.14403811
75	0xbdb694c0	-0.089150906
76	0xbe21aadb	-0.15787832
77	0x3d852f82	0.06503202
78	0x3c137858	0.00900086
79	0xbd8b2c1e	-0.06795524
80	0x3d1e6f72	0.0386805
81	0xbb36771f	-0.0027841998
82	0x3dd86187	0.10565477
83	0x3e31c174	0.17358953
84	0x3e1c788b	0.15280358
85	0xbe241204	-0.16022497
86	0xbcafc216	-0.021454852
87	0x3e1f3a68	0.15549624
88	0xbda15a48	-0.07878548
89	0xbe123210	-0.1427691
90	0xbd064887	-0.03278401
91	0xbceff03e	-0.029289361
92	0xbdec8fe5	-0.11550883
93	0xbe1f6225	-0.15564783
94	0x3e09aef0	0.1344564
95	0xbce6af64	-0.028159805
96	0xbe04aeca	-0.12957302
97	0xbd7d291f	-0.061806794
98	0xbe240f26	-0.16021404
99	0xbe13d986	-0.14438447
100	0xbd89507d	-0.06704805
101	0xbd99ad9f	-0.07503819
102	0x3e1fd1af	0.15607332
103	0x3d1fa4c8	0.038975507
104	0xbdd196a5	-0.10233811
105	0x3daa347c	0.08310792
106	0x3e1f4777	0.15554605
107	0x3d261085	0.040543098
108	0xbd93ef20	-0.07223344
109	0xbd9fcd6b	-0.07802852
110	0xbe25cf73	-0.16192417
111	0xbe338205	-0.17530067
112	0x3d3ba919	0.04581556
113	0x3be0ea4a	0.006863867
114	0xbd8697b9	-0.065719076
115	0x3de5f0e7	0.11227589
116	0x3e10f60c	0.1415636
117	0xbe256662	-0.16152337
118	0x3d5f8254	0.05456765
119	0xbd923cfc	-0.07140538
120	0x3b23f9bf	0.0025020686
121	0xbd3a249c	-0.04544507
122	0xbe2edb9b	-0.1707596
123	0x3e1b1b93	0.15147237
124	0xbe00a1eb	-0.12561767
125	0x3dea0b28	0.11427909
126	0xbd95c3ce	-0.073127374
127	0x3c37d4b2	0.011220144
128	0x3d87312a	0.06601174
129	0x3dbcc775	0.09217731
130	0xbdd0937a	-0.10184379
131	0x3cf41ece	0.029799845
132	0x3cfc8249	0.030823844
133	0x3dfea539	0.124338575
134	0x3e00f064	0.12591702
135	0xbde40728	-0.111341774
136	0x3dbefeb6	0.09325926
137	0xbc1ef4ab	-0.009701888
138	0xbdbc81d7	-0.092044525
139	0xbe28cb35	-0.16483767
140	0xbd90d99b	-0.07072755
141	0x3e039620	0.12850237
142	0xbd529beb	-0.051418226
143	0xbda64212	-0.08118071
144	0xb8a5dc59	-7.908856e-05
145	0x39b6ee44	0.00034891267
146	0x3b259274	0.0025264295
147	0x3c9fc566	0.019503307
148	0xbde32246	-0.110905215
149	0xbde40ebf	-0.11135625
150	0x3e0f58ed	0.13998766
151	0x3e1a97c7	0.15096961
152	0x3e1bee75	0.15227683
153	0x3cea9705	0.028636465
154	0xbd245ec6	-0.040129445
155	0xbda1f89c	-0.079087466
156	0x3e1e4347	0.15455352
157	0xbc6b9d9f	-0.0143808415
158	0xbe2c04da	-0.16798726
159	0x3d2a3ea3	0.04156364
160	0xbdb83107	-0.08993726
161	0xbdcfc2e4	-0.10144594
162	0xbd036a10	-0.03208357
163	0x3e2559e6	0.16147575
164	0xbdc8ea3a	-0.098103
165	0xbdc067e0	-0.093948126
166	0xbe1a9c73	-0.15098743
167	0x3d4e902f	0.050430473
168	0xbe2766a7	-0.16347753
169	0xbddd167e	-0.10795306
170	0x3dc8e76f	0.098097675
171	0x3e139e4e	0.14415857
172	0x3e1af42d	0.15132208
173	0x3d9badb5	0.07601491
174	0xbd97cdd1	-0.07412303
175	0xbe1e8540	-0.15480518
176	0xbd6ca675	-0.057775933
177	0x3dc29db4	0.09502736
178	0xbe04283c	-0.12905973
179	0xbdd91e95	-0.10601536
180	0xbdda12ad	-0.106480934
181	0x3e30e173	0.17273502
182	0xbd980476	-0.07422726
183	0x3d2b8a89	0.041880164
184	0x3df2fb0b	0.11864289
185	0x3ce09367	0.027414037
186	0x3de54ef4	0.111967
187	0x3e0ee2db	0.13953726
188	0x38112238	3.4602563e-05
189	0x3dabfe94	0.08398166
190	0xbd50354a	-0.05083207
191	0xbe11bfbd	-0.14233299
192	0xbdad57a5	-0.084639825
193	0x3e34ca66	0.17655334
194	0x3d709281	0.058733467
195	0x3e24bf91	0.16088702
196	0xbd8804c1	-0.06641532
197	0xbd8635f7	-0.06553262
198	0x3e21245c	0.15736526
199	0xbdbf47aa	-0.09339841
200	0x3de30aac	0.1108602
201	0x3d26068d	0.04053359
202	0x3d43e22e	0.047823124
203	0x3e25ddb8	0.1619786
204	0xbd89954c	-0.06717929
205	0xbda2241b	-0.07917043
206	0x3cae474d	0.021274233
207	0x3cfc790d	0.03081944
208	0xbe268671	-0.16262223
209	0xbda45510	-0.08024037
210	0x3e34cace	0.17655489
211	0x3c8550bb	0.016273847
212	0xbdab7ea3	-0.083737634
213	0x3d6515bc	0.05592893
214	0xbe1590ee	-0.14606068
215	0xbe0fcb10	-0.14042306
216	0xbd9a53cd	-0.07535515
217	0xbd01701b	-0.031601053
218	0x3d81a0fc	0.063295335
219	0x3c8a4810	0.016880065
220	0x3e15da67	0.14634095
221	0x3e27fe83	0.16405682
222	0xbe2e16ad	-0.17000838
223	0xbd802326	-0.06256704
224	0xbd56528f	-0.052324828
225	0x3e24952f	0.16072534
226	0x3e315517	0.17317615
227	0x3e0324cb	0.12807004
228	0x3dc7b7f6	0.09751885
229	0x3c9f292c	0.019428812
230	0xbd70e514	-0.058812216
231	0x3d730d65	0.059338946
232	0xbe2fa02d	-0.17150946
233	0xbdde3de3	-0.10851648
234	0xbcfab9c3	-0.030606156
235	0x3c1bcd3e	0.009509383
236	0xbd51612b	-0.051118057
237	0xbdde07d1	-0.108413346
238	0xbe27791b	-0.16354792
239	0xbcf2ee92	-0.029654775
240	0x3cf527d6	0.029926222
241	0xbd1268ba	-0.035744406
242	0xbd9cfb03	-0.07665064
243	0xbcba14c4	-0.02271498
244	0x3d18b7d8	0.037284702
245	0xbe2ddbf4	-0.16978437
246	0xbc8c219b	-0.017105868
247	0x3db100ea	0.086427525
248	0x3e1a2a5a	0.15055218
249	0xbe171bf2	-0.14756754
250	0xbd44ee3d	-0.048078764
251	0x3da30040	0.07959032
252	0xbdee3343	-0.11630871
253	0xbd7c45e0	-0.061590075
254	0x3dbd43af	0.09241425
255	0xbdaad4c4	-0.08341363

model.feature.0.bias f4 [128]
0	0xbc77241d	-0.015084294
1	0xbd36cfaa	-0.044631638
2	0x3d82599b	0.06364747
3	0x3df3fc28	0.11913329
4	0xbcffbfc4	-0.03121937
5	0x3cc6c625	0.024264405
6	0xbd94a88b	-0.072587095
7	0xbdfaa91f	-0.122392885
8	0xbc105d77	-0.008811346
9	0x3d905e8f	0.070492856
10	0x3dc1a073	0.094544314
11	0x3e2ea0c9	0.17053522
12	0x3e2b3584	0.16719633
13	0x3e114fce	0.141906
14	0xbe3195c4	-0.17342287
15	0xbd30ab31	-0.04313201
16	0xbdfe0c47	-0.124046855
17	0xbdb39d57	-0.087702446
18	0x3dacfb64	0.084463865
19	0xbdd36303	-0.10321619
20	0x3dd18861	0.1023109
21	0x3ce0dfaf	0.02745041
22	0x3dd590b3	0.1042799
23	0x3c808f2e	0.015693273
24	0xbce06221	-0.027390542
25	0x3d0bfdf0	0.03417772
26	0x3c54d42b	0.012990038
27	0x3e0bffb3	0.1367176
28	0xbd903e93	-0.07043185
29	0x3e0dedac	0.13860196
30	0x3dcd5b85	0.100272216
31	0xbdec332d	-0.115331985
32	0xbe233c34	-0.15940934
33	0xbd09f462	-0.033680327
34	0x3de3be2e	0.11120258
35	0xbbf482dc	-0.0074618887
36	0x3bf665d0	0.007519461
37	0xbdb714e7	-0.08939534
38	0x3dd5c0ce	0.10437165
39	0xbc05b14b	-0.008159946
40	0x3b2e5785	0.0026602459
41	0xbe32553d	-0.17415328
42	0xbdcf06ab	-0.10108694
43	0x3e05ff46	0.1308566
44	0x3db59243	0.08865788
45	0x3d1d6bbd	0.038432825
46	0x3d9eb29f	0.07748913
47	0xbe16af52	-0.14715317
48	0x3dba8c7a	0.09108825
49	0x3ddc5aae	0.10759483
50	0x3e1130cb	0.1417877
51	0xbe1c9ddf	-0.15294598
52	0xbae0a93c	-0.001714028
53	0x3da985e8	0.08277494
54	0x3da27443	0.079323314
55	0x3e0ce55f	0.13759373
56	0x3d9e3812	0.07725538
57	0xbddb71ad	-0.10715041
58	0xbd1991e6	-0.037492655
59	0xbdf91733	-0.12162628
60	0x3c809ac2	0.015698794
61	0x3d86d6aa	0.06583913
62	0x3d2937e1	0.041313056
63	0x3c9420db	0.018082073
64	0x3e03e03c	0.12878507
65	0xbba3cb41	-0.004998595
66	0xbe12a8bd	-0.14322181
67	0xbd0e5d80	-0.034757137
68	0x3e266873	0.16250782
69	0x3d4e07bc	0.050300345
70	0xbe219f1d	-0.15783353
71	0x3d7926f4	0.060828164
72	0xbe2803ab	-0.16407649
73	0xbe133a44	-0.14377695
74	0xbd95ce74	-0.073147684
75	0x3dbe556f	0.09293639
76	0xbdf6c1d3	-0.12048688
77	0xbdf68295	-0.12036625
78	0x3e1b1d81	0.15147974
79	0x3dc192b2	0.09451808
80	0x3e1e3dca	0.15453258
81	0x3beee6ba	0.0072906883
82	0xbd5605cb	-0.05225162
83	0xbe083e43	-0.13305001
84	0x3d9464e7	0.07245808
85	0xbdbdfc9b	-0.09276696
86	0x3e1d1610	0.15340447
87	0xbe0b85c8	-0.13625252
88	0xbe309e24	-0.17247826
89	0x3d8ecbf1	0.069724925
90	0x3d9d80d2	0.07690586
91	0xbd7e0fe1	-0.062026862
92	0xbe079aaf	-0.13242601
93	0x3e226ffa	0.15863028
94	0xbdcf05d1	-0.10108531
95	0xbd6747aa	-0.05646483
96	0x3d94907a	0.07254119
97	0x3d8f6b56	0.070028946
98	0xbe1f545f	-0.15559529
99	0xbdd69c68	-0.10479051
100	0xbdf73e08	-0.120723784
101	0x3cf20cd4	0.029547133
102	0xbe0a4fe8	-0.13507044
103	0x3e0b304e	0.13592646
104	0xbdca7a6e	-0.09886633
105	0x3d0f9955	0.03505834
106	0x3b5b72ed	0.003348525
107	0x3da2b905	0.07945446
108	0xbda4c154	-0.08044687
109	0xbe0b3b7d	-0.13596912
110	0xbe1d3323	-0.15351538
111	0xbcfbb0c3	-0.030723935
112	0x3ca2dc79	0.01988052
113	0xbe27272e	-0.1632354
114	0xbd82e545	-0.06391386
115	0x3d937997	0.07200926
116	0x3e0a6bbc	0.1351766
117	0xbdf104de	-0.117685065
118	0x3e2c2824	0.16812187
119	0xbdfa7373	-0.122290514
120	0x3cc04241	0.023469092
121	0xbd54e364	-0.05197467
122	0xbd83c353	-0.064337395
123	0xbdb37e0d	-0.08764277
124	0x3c094395	0.008377929
125	0xbde01762	-0.1094196
126	0xbd8ae9c5	-0.06782869
127	0x3e2521c2	0.16126159

exp_avg f4 [4]
0	0xbd32ee43	-0.043684255
1	0x3d84e9b2	0.06489886
2	0x3b2c03f4	0.0026247473
3	0x3c926a7f	0.017873047

exp_avg_sq f4 [4]
0	0x3c24eff5	0.010066976
1	0x3d0dcb43	0.034617674
2	0x3a08a749	0.0005212916
3	0x3c84d1a9	0.016213255

exp_avg f4 [4, 4]
0	0xbb4e1511	-0.0031445662
1	0xbb91eace	-0.0044530397
2	0xbcaf7491	-0.021417888
3	0xbc72c096	-0.014816424
4	0x3ca6c494	0.020357408
5	0x3c62c005	0.013839726
6	0x3c99c0f0	0.018768758
7	0x3c40689c	0.011743691
8	0x36b3e4a0	5.361231e-06
9	0x36dea424	6.635224e-06
10	0x3b13a04f	0.0022525971
11	0x39e078d0	0.00042814622
12	0x3c20c5df	0.009812801
13	0x3b84cfa1	0.0040530716
14	0x3b4a3572	0.003085461
15	0x3a43d289	0.0007470032

exp_avg_sq f4 [4, 4]
0	0x38d61a43	0.00010209207
1	0x38d938af	0.000103579245
2	0x3b365d1e	0.0027826498
3	0x3a7b88d5	0.00095952797
4	0x3b6c6893	0.0036073073
5	0x3b3fc304	0.0029260525
6	0x3b29695d	0.0025850155
7	0x3a9699e0	0.001148995
8	0x37bbf59e	2.2406512e-05
9	0x3527d70d	6.252529e-07
10	0x3981fbb0	0.0002479232
11	0x370f9846	8.558918e-06
12	0x3b630938	0.0034642946
13	0x3b1e6ef8	0.002417503
14	0x397e5762	0.0002425588
15	0x37b65a88	2.1738248e-05

exp_avg f4 [8]
0	0x3bc6cda9	0.006066997
1	0x00000000	0.0
2	0x3d01ee3d	0.031721342
3	0x3e145c97	0.14488445
4	0xbd9564f8	-0.07294649
5	0x00000000	0.0
6	0xbd5eb671	-0.05437321
7	0xbe00f551	-0.12593581

exp_avg_sq f4 [8]
0	0x3b8381fd	0.0040132985
1	0x00000000	0.0
2	0x3d72e06c	0.059296057
3	0x3ede21c0	0.43385124
4	0x3d75fc08	0.06005481
5	0x00000000	0.0
6	0x3ed72fc8	0.42028642
7	0x3e625176	0.22101387

exp_avg f4 [8, 4]
0	0x3a5607fe	0.0008164643
1	0x3ae91c0f	0.0017784851
2	0xb81179e0	-3.46842e-05
3	0x39893a11	0.0002617394
4	0xb679665c	-3.7163472e-06
5	0xb3bf732c	-8.91508e-08
6	0xb7ada3cd	-2.0699483e-05
7	0x00000003	4e-45
8	0x3a1a31e6	0.0005882069
9	0x3c4739c0	0.012159765
10	0x38a04223	7.6417135e-05
11	0x3accc502	0.0015622678
12	0x3b678dc8	0.003533231
13	0x3d1ff322	0.03905023
14	0x38d113f1	9.969611e-05
15	0x3b92fbcf	0.0044855843
16	0xbc27c0a1	-0.010238797
17	0xbb5cf2da	-0.0033714087
18	0xb849fd5f	-4.8158105e-05
19	0xb81c6741	-3.728946e-05
20	0xb6d27203	-6.2717604e-06
21	0xb72842e6	-1.0029156e-05
22	0xb7da986b	-2.60586e-05
23	0x37b874f0	2.1988963e-05
24	0x3ac740aa	0.0015201767
25	0xbc9e120f	-0.01929572
26	0xb8bcbfaa	-9.000239e-05
27	0xbb2cd1b9	-0.0026370122
28	0xbbeafe57	-0.007171433
29	0xbc9d8bcf	-0.019231705
30	0xb94b7ef3	-0.00019406881
31	0xba514df1	-0.00079843315

exp_avg_sq f4 [8, 4]
0	0x38976c5c	7.2204246e-05
1	0x39de1378	0.00042357645
2	0x34040164	1.2293964e-07
3	0x36afd932	5.2406913e-06
4	0x2eb747e3	8.334646e-11
5	0x2d12a903	8.336667e-12
6	0x304ddb85	7.489052e-10
7	0x261198e8	5.051421e-16
8	0x3860d302	5.3602278e-05
9	0x3c10e544	0.008843724
10	0x34264cd1	1.54879e-07
11	0x38a5a714	7.898934e-05
12	0x39cde837	0.0003927366
13	0x3d2a828d	0.04162841
14	0x354b5aa8	7.5755315e-07
15	0x39c577e8	0.00037664105
16	0x3ab0c2f0	0.001348583
17	0x394d6682	0.0001958851
18	0x35b77e91	1.3671398e-06
19	0x32ee18c6	2.7718112e-08
20	0x2f21941b	1.4695482e-10
21	0x2f910220	2.6376856e-10
22	0x30942fb1	1.0781972e-09
23	0x30623315	8.2290913e-10
24	0x3a529ede	0.00080345373
25	0x3d025acb	0.03182487
26	0x35739073	9.0734756e-07
27	0x397fdc20	0.00024400698
28	0x3a33e7d2	0.0006862852
29	0x3c601ee8	0.013679244
30	0x356e64d9	8.880866e-07
31	0x38296f79	4.0396557e-05

exp_avg f4 [16]
0	0x3db40e3b	0.08791777
1	0x00000000	0.0
2	0xbabd155f	-0.0014425925
3	0xb3abcbad	-7.9998564e-08
4	0x3cc590fb	0.024116984
5	0xbd66e05b	-0.056366306
6	0x3d416d19	0.047223184
7	0x3d24bb91	0.04021794
8	0xbda37952	-0.079821244
9	0xb35e2f0b	-5.1731188e-08
10	0x3c6d9910	0.014501825
11	0x3d1e7b81	0.038692
12	0xbdc4d5aa	-0.09611066
13	0xbd4e7678	-0.05040595
14	0x3d3fd7b4	0.04683657
15	0xbd8e0c7b	-0.06935974

exp_avg_sq f4 [16]
0	0x3ebc31ea	0.3675683
1	0x00000000	0.0
2	0x3e725a84	0.23667341
3	0x31d042ee	6.0612058e-09
4	0x3d68f5ab	0.056874912
5	0x3e211840	0.15731907
6	0x3ed36c33	0.41293487
7	0x3c7269ca	0.01479573
8	0x3d9e0c76	0.077172205
9	0x3095d40b	1.0901443e-09
10	0x3d934ae1	0.071920164
11	0x3c9e1f95	0.019302169
12	0x3e43c5e8	0.19118464
13	0x3dffc14c	0.1248804
14	0x3c8cfd62	0.017210666
15	0x3e47c593	0.19508962

exp_avg f4 [16, 8]
0	0x3c2d0ea6	0.0105625745
1	0x958e11b6	-5.7381286e-26
2	0x3b24407f	0.0025062857
3	0x3c59fea8	0.013305344
4	0x383ef9e7	4.553227e-05
5	0x28a9dab0	1.885761e-14
6	0x3c22372d	0.00990085
7	0x3af3c28b	0.0018597407
8	0xa80de253	-7.8761486e-15
9	0xb3667721	-5.3659395e-08
10	0xb7188ec4	-9.093146e-06
11	0x00000003	4e-45
12	0xb3c6d264	-9.258363e-08
13	0xb5d0f2d7	-1.5567883e-06
14	0xaffa2423	-4.5500412e-10
15	0xb3016219	-3.0124372e-08
16	0x3b7b4ec1	0.0038346502
17	0xb5cfe496	-1.5489229e-06
18	0xb9d15880	-0.00039929524
19	0x3bb3f7f0	0.005492203
20	0xbb58d6ec	-0.0033087088
21	0xa8b046b8	-1.9570595e-14
22	0x3a092bd2	0.0005232665
23	0xba81d573	-0.0009905532
24	0xb5166657	-5.602828e-07
25	0x36a479b7	4.9017503e-06
26	0x34154db3	1.3904973e-07
27	0xb63e7b0a	-2.8383824e-06
28	0xb3ee4402	-1.1095109e-07
29	0x36d29090	6.275317e-06
30	0xb3bcb8fd	-8.7880814e-08
31	0xb1c0c7b3	-5.6106386e-09
32	0xbaf686c0	-0.0018808469
33	0xb0f72cd7	-1.798436e-09
34	0x3a96cb6b	0.0011504715
35	0xbb371ff3	-0.0027942627
36	0x3b7b184b	0.003831404
37	0x80000002	-3e-45
38	0x3ab385f5	0.0013696539
39	0x3ab1b5f1	0.0013558251
40	0xbbfcdb70	-0.0077165887
41	0x1aeacf00	9.711456e-23
42	0xbad25c5f	-0.0016049257
43	0xbc214d29	-0.009845057
44	0x39ecaf11	0.00045143862
45	0xab38207c	-6.5415013e-13
46	0xbbdb13b6	-0.0066856993
47	0xba78da6b	-0.0009492996
48	0x3c239a55	0.009985526
49	0x37497535	1.2007823e-05
50	0x3a8bb05e	0.001065742
51	0x3c56491e	0.013078956
52	0xbb475436	-0.0030415184
53	0x00000004	6e-45
54	0x3bd5f215	0.0065291026
55	0x39294f7e	0.00016146709
56	0x3bb46093	0.0055046766
57	0xb6e1367e	-6.7118663e-06
58	0x3afa716f	0.0019107292
59	0x3bd3d486	0.0064645438
60	0x3a59f23b	0.0008313988
61	0x36d4ad5a	6.338273e-06
62	0x3bb86d27	0.0056282463
63	0x3a81b4eb	0.0009895837
64	0xbbf21839	-0.0073881415
65	0x292f898b	3.8977105e-14
66	0xbb3df01a	-0.0028982223
67	0xbc12fc58	-0.008971296
68	0xbb2858df	-0.0025687737
69	0x80000001	-1e-45
70	0xbc0da56c	-0.008645397
71	0xbb0782de	-0.0020677368
72	0xb2adf543	-2.0251383e-08
73	0xb660ee85	-3.3517438e-06
74	0xaf0dc809	-1.2894942e-10
75	0xb1faeb95	-7.30274e-09
76	0xb6f3cafd	-7.2655953e-06
77	0xac0dc33b	-2.014568e-12
78	0x2b4996b7	7.1618704e-13
79	0x353eca81	7.10752e-07
80	0xbaba3a3a	-0.0014208027
81	0x37248c6e	9.807858e-06
82	0x3a03949c	0.0005019398
83	0xbb0dc861	-0.0021634328
84	0x3b0d8e8e	0.0021599862
85	0x338c6c44	6.5389514e-08
86	0x3a584ac1	0.00082508853
87	0x3a666915	0.0008789462
88	0x3b5e7250	0.0033942647
89	0xa245f460	-2.682785e-18
90	0x3ac78840	0.0015223101
91	0x3b8121d8	0.003940802
92	0x3af43ecd	0.0018634439
93	0xaa4f271d	-1.8398863e-13
94	0x3b9529e7	0.0045521143
95	0x3a95cc36	0.0011428657
96	0xbc2b3fe5	-0.010452245
97	0x36cd4bc8	6.118298e-06
98	0xbb5b5b93	-0.003347133
99	0xbc52f29b	-0.012875224
100	0xbae8bf15	-0.0017757142
101	0xb7161f88	-8.948038e-06
102	0xbc344adb	-0.011004175
103	0xbb1366d1	-0.0022491703
104	0xba9a1a45	-0.0011757097
105	0xadda3680	-2.4807933e-11
106	0xbb61c7b3	-0.0034451305
107	0xb9ba67dc	-0.00035554066
108	0xbbc4d35b	-0.006006641
109	0xb767ae2a	-1.3809224e-05
110	0xbbbd11b3	-0.005769932
111	0xbb1598cb	-0.0022826667
112	0x3b97285f	0.004612967
113	0xb36a004b	-5.4482637e-08
114	0x3ac5f51c	0.0015102956
115	0x3bb64a75	0.005563075
116	0x3a5d67e2	0.00084459607
117	0xb3f1a5ef	-1.125262e-07
118	0x3bae145f	0.005312487
119	0x3aa19cee	0.0012330094
120	0xbc09d47a	-0.008412475
121	0x80000004	-6e-45
122	0xbb341b77	-0.002748219
123	0xbc2d48ce	-0.01057644
124	0xb9890d88	-0.00026140758
125	0x376108dd	1.3413109e-05
126	0xbc002e81	-0.007823587
127	0xbaa197b0	-0.0012328532

exp_avg_sq f4 [16, 8]
0	0x3be76eeb	0.007062783
1	0x2a09d6f9	1.2242628e-13
2	0x39d3de22	0.00040410558
3	0x3c24c8da	0.010057652
4	0x3793dba9	1.7626053e-05
5	0x2b1bed86	5.539669e-13
6	0x3bdac6c3	0.0066765263
7	0x3956887e	0.00020459478
8	0x2b0ffae4	5.1151986e-13
9	0x2cf3c916	6.9288004e-12
10	0x2f7f2332	2.3204619e-10
11	0x251c125a	1.3537061e-16
12	0x2d14cc29	8.458159e-12
13	0x2e2a846c	3.877114e-11
14	0x2c11d8a7	2.0726006e-12
15	0x2cc94a3d	5.7210057e-12
16	0x3b998b06	0.0046857623
17	0x2e29db05	3.862068e-11
18	0x3a220959	0.00061812025
19	0x3bcc8879	0.0062418547
20	0x399f1a70	0.0003034654
21	0x2b1c7847	5.558925e-13
22	0x3bac0b8f	0.0052504013
23	0x39312f0b	0.0001689756
24	0x2db07f28	2.0065352e-11
25	0x2ef4bb5d	1.1129118e-10
26	0x2e1ae08b	3.521498e-11
27	0x2e8d3b1d	6.422438e-11
28	0x2eb4a169	8.2141245e-11
29	0x2f21af92	1.470524e-10
30	0x2e7e3098	5.7796073e-11
31	0x2d32fba4	1.0174004e-11
32	0x3a0dd4f5	0.0005410456
33	0x2c40be11	2.739035e-12
34	0x38e0eb5d	0.00010724992
35	0x3a379eee	0.00070045784
36	0x38fff608	0.000122051744
37	0x265f2e99	7.743182e-16
38	0x3a57017b	0.000820182
39	0x386dd202	5.670079e-05
40	0x3b2dbd30	0.002651047
41	0x2a38f3c4	1.6427056e-13
42	0x39636d3f	0.00021689104
43	0x3b71d0e6	0.0036898195
44	0x38874706	6.450531e-05
45	0x2b60cf1d	7.9868214e-13
46	0x3b352fcc	0.0027646897
47	0x38d2d655	0.00010053503
48	0x3beac09f	0.0071640755
49	0x2fb908ca	3.365755e-10
50	0x3a389c22	0.00070423086
51	0x3c21434b	0.009842704
52	0x39885516	0.00026003335
53	0x290538ab	2.9581084e-14
54	0x3bfd78b8	0.007735338
55	0x399265ef	0.00027923236
56	0x399a098f	0.0002938029
57	0x2f2f0853	1.5919115e-10
58	0x37f4f523	2.9201217e-05
59	0x39d78a8b	0.00041111218
60	0x37470c71	1.1864221e-05
61	0x2f2395cb	1.4877981e-10
62	0x39980947	0.0002899861
63	0x37221a0e	9.662019e-06
64	0x3aa7d493	0.0012804441
65	0x2b271629	5.936107e-13
66	0x38ffaf13	0.00012191958
67	0x3ae84307	0.0017720171
68	0x3867ca99	5.5263376e-05
69	0x219a8059	1.0469419e-18
70	0x3ab3ccde	0.0013717671
71	0x385cca9f	5.2640793e-05
72	0x2cb22511	5.0631795e-12
73	0x2ea589ad	7.5277874e-11
74	0x2becdebe	1.6830632e-12
75	0x2c8698ba	3.825465e-12
76	0x2f409758	1.7516066e-10
77	0x2b806af6	9.124635e-13
78	0x2ac272a0	3.454086e-13
79	0x2dc7c05e	2.2709109e-11
80	0x3a827e45	0.0009955844
81	0x2f8ccc58	2.5611047e-10
82	0x38d10d41	9.968365e-05
83	0x3ab0ad60	0.0013479404
84	0x384a8872	4.8287628e-05
85	0x2d02bc30	7.4314305e-12
86	0x3a97a35d	0.0011569072
87	0x3867b472	5.5242745e-05
88	0x39143c73	0.00014136899
89	0x2a9e8648	2.8159614e-13
90	0x38220c05	3.8635004e-05
91	0x3930e540	0.0001687007
92	0x3835f9ec	4.338652e-05
93	0x2b438b24	6.9471013e-13
94	0x398ab069	0.00026452847
95	0x37a9bf5c	2.0235479e-05
96	0x3b539132	0.0032282588
97	0x2f1cfc51	1.4277758e-10
98	0x399026ce	0.00027494732
99	0x3b92d0c9	0.0044804555
100	0x38a261ed	7.743002e-05
101	0x2f79e6e1	2.2728443e-10
102	0x3b5e7bc4	0.0033948282
103	0x39003e49	0.00012230234
104	0x39958b5a	0.0002852332
105	0x2bb3d774	1.2778515e-12
106	0x39533922	0.00020143812
107	0x3997cb86	0.000289526
108	0x39d62571	0.00040845157
109	0x2fe13579	4.0965256e-10
110	0x3a954f03	0.0011391345
111	0x3924d534	0.00015719683
112	0x397dda46	0.00024209273
113	0x2cf5151d	6.965663e-12
114	0x37a8b8c7	2.0113204e-05
115	0x39acf80a	0.000329912
116	0x36bb19c0	5.576032e-06
117	0x2d209c20	9.129614e-12
118	0x398e311c	0.0002712094
119	0x3752e4ff	1.2570293e-05
120	0x3b26ff4f	0.0025481766
121	0x285f6e63	1.2402923e-14
122	0x39bd731d	0.00036134655
123	0x3b5c180e	0.0033583674
124	0x3865fdea	5.483433e-05
125	0x2fd811e2	3.9302878e-10
126	0x3b41147b	0.002946167
127	0x39023c83	0.00012420308

exp_avg f4 [128, 32]
0	0xbb60f169	-0.003432358
1	0x2e990432	6.95838e-11
2	0xb9fca7eb	-0.00048190294
3	0x301b5200	5.65052e-10
4	0xbb80e0ca	-0.003933047
5	0xba3ffc0d	-0.000732363
6	0xba971b58	-0.0011528535
7	0xbb9b0ce0	-0.0047317594
8	0xbb2d61c4	-0.0026455978
9	0xad988ffb	-1.734434e-11
10	0xbb4b8fd1	-0.0031061063
11	0xbb910e9c	-0.0044267904
12	0xba221a05	-0.0006183687
13	0x3784e345	1.5841457e-05
14	0xbb10c550	-0.0022090264
15	0xb9a0da08	-0.00030680024
16	0xb8456e03	-4.7070916e-05
17	0x00072ae1	6.5823e-40
18	0xb73163b0	-1.0573232e-05
19	0xae12c0a7	-3.3367666e-11
20	0xb8190d09	-3.6490183e-05
21	0xb71761a3	-9.023034e-06
22	0xb7a2f1e9	-1.9424553e-05
23	0xb8770a70	-5.889911e-05
24	0xb80aef38	-3.3124554e-05
25	0xa892ae26	-1.6284781e-14
26	0xb778f228	-1.4838333e-05
27	0xb862d2f4	-5.4079064e-05
28	0xb770e1ae	-1.435766e-05
29	0xb45605d8	-1.9932429e-07
30	0xb7b02b9f	-2.1001148e-05
31	0xb77a5770	-1.4921519e-05
32	0xbae08449	-0.0017129268
33	0x80000003	-4e-45
34	0xb983b6c7	-0.00025122447
35	0xadcc8dde	-2.3255117e-11
36	0xbb007b1c	-0.001960463
37	0xb9bb23e1	-0.0003569415
38	0xba16c9b3	-0.00057521014
39	0xbb1aa9a0	-0.002359964
40	0xbaabfa12	-0.0013120791
41	0xae5b1bdd	-4.9819582e-11
42	0xbac896bd	-0.0015303713
43	0xbb110c8b	-0.002213272
44	0xb9aa429e	-0.0003247456
45	0xb5d7b5a7	-1.6071616e-06
46	0xba93330c	-0.0011230423
47	0xb9324f5a	-0.00017004964
48	0xb80b9474	-3.327844e-05
49	0xb0086cd9	-4.9631194e-10
50	0xb7874039	-1.612316e-05
51	0xaa07660f	-1.2025817e-13
52	0xb792eb01	-1.7513988e-05
53	0xb651e6cd	-3.127777e-06
54	0xb73f8c77	-1.1417192e-05
55	0xb835ef47	-4.3376607e-05
56	0xb7cb59ef	-2.4241364e-05
57	0x968f3b97	-2.3140502e-25
58	0xb69ca880	-4.6687783e-06
59	0xb822edb1	-3.8845177e-05
60	0xb70afbe6	-8.284091e-06
61	0xb585553e	-9.934081e-07
62	0xb7b3fe9f	-2.145703e-05
63	0xb7552071	-1.2703343e-05
64	0xb401d0bd	-1.209e-07
65	0x13a2de02	4.1113466e-27
66	0x33998159	7.148146e-08
67	0x27bb18af	5.192969e-15
68	0xb4093798	-1.2779344e-07
69	0xb2b5c85d	-2.1162288e-08
70	0xb384498d	-6.160108e-08
71	0xb4b0de21	-3.2944175e-07
72	0xb441bf0a	-1.8044025e-07
73	0x3129a170	2.4684503e-09
74	0xb3c83b03	-9.32396e-08
75	0xb34917b6	-4.6820524e-08
76	0xb30bfaca	-3.259155e-08
77	0x3288e64f	1.5937216e-08
78	0xb3a99883	-7.8974175e-08
79	0xb0448159	-7.14882e-10
80	0x2fe9e31b	4.254382e-10
81	0xa02e250d	-1.4750632e-19
82	0xb1a33860	-4.7503335e-09
83	0x00000001	1e-45
84	0x9a6e9418	-4.9336876e-23
85	0x00000034	7.3e-44
86	0xa1a5a8eb	-1.1225547e-18
87	0xa419593b	-3.3252168e-17
88	0x9c0f2c41	-4.737193e-22
89	0x2228839e	2.2837923e-18
90	0xababc0c7	-1.2203787e-12
91	0xb093d53a	-1.075626e-09
92	0xaac3a54b	-3.4753653e-13
93	0x321bf43b	9.077719e-09
94	0x31a45aeb	4.7833644e-09
95	0x195cb993	1.141121e-23
96	0x3b916da9	0.0044381213
97	0xb1ffb864	-7.4424396e-09
98	0x3a10ca21	0.00055232836
99	0xb26491f0	-1.3304529e-08
100	0x3b936b9f	0.0044989134
101	0x399bed9c	0.00029740937
102	0x3aba4192	0.0014210215
103	0x3bc08175	0.0058748075
104	0x3b0d9170	0.002160158
105	0x976d4425	-7.666484e-25
106	0x3b6c0065	0.0036010977
107	0x3bad7889	0.00529391
108	0xb923275f	-0.00015559558
109	0xba7555e0	-0.00093588047
110	0x3b334c83	0.0027358837
111	0x39b8822f	0.0003519221
112	0x38001439	3.0536412e-05
113	0x00000004	6e-45
114	0x37750439	1.4604121e-05
115	0x325308e2	1.2283836e-08
116	0x37ebedcf	2.8124921e-05
117	0x3713d9de	8.812609e-06
118	0x3801ace9	3.0917032e-05
119	0x3868b6d3	5.548338e-05
120	0x3807cebe	3.2379052e-05
121	0x2985f271	5.9484434e-14
122	0x366f669f	3.5673509e-06
123	0x37fdb353	3.0243455e-05
124	0x37d4b254	2.535541e-05
125	0xb516a60c	-5.6120984e-07
126	0x36be630b	5.6739714e-06
127	0x3727a38e	9.992056e-06
128	0xaa0c50cf	-1.2462534e-13
129	0x1701fc1d	4.200036e-25
130	0x2969e44e	5.1934416e-14
131	0x18c4b074	5.0842985e-24
132	0x30259ef1	6.025252e-10
133	0xadf15be6	-2.7439339e-11
134	0x2ade45e9	3.9483632e-13
135	0x9d9d7ad1	-4.1684543e-21
136	0x933d81b7	-2.3919108e-27
137	0x89679c76	-2.7879181e-33
138	0x80000001	-1e-45
139	0xb153f1bb	-3.084195e-09
140	0x1ef86274	2.629874e-20
141	0xaab0dd21	-3.141732e-13
142	0x29472f28	4.4227778e-14
143	0x223902e5	2.5073708e-18
144	0xaa9d6465	-2.7958465e-13
145	0xb199517d	-4.46215e-09
146	0x80000003	-4e-45
147	0x83ec68b7	-1.3894875e-36
148	0x9e80a3a5	-1.3620209e-20
149	0x2d5fbaed	1.2717588e-11
150	0x00000002	3e-45
151	0xb2394fee	-1.0786591e-08
152	0x80000004	-6e-45
153	0x80000004	-6e-45
154	0xa0c874c3	-3.3958584e-19
155	0x80000004	-6e-45
156	0x80000004	-6e-45
157	0x80000003	-4e-45
158	0x00000004	6e-45
159	0x9e2d3b8b	-9.170857e-21
160	0xb91aeed9	-0.00014775562
161	0x303a85fc	6.785681e-10
162	0xb8e08983	-0.00010706766
163	0xae2106c7	-3.661318e-11
164	0xb9d325e8	-0.00040273299
165	0xb9c26ed7	-0.00037085146
166	0xb8c47d1e	-9.369313e-05
167	0xb98719f6	-0.0002576855
168	0xba74c112	-0.0009336631
169	0x8000689a	-3.7524e-41
170	0xb9828229	-0.0002489251
171	0xb9d7a248	-0.00041128905
172	0xba3f28dc	-0.00072921603
173	0xba1c7d2a	-0.00059695786
174	0xb8f6c7ee	-0.00011767434
175	0x3695550f	4.450448e-06
176	0xb7352270	-1.0796459e-05
177	0x9d71f255	-3.2021367e-21
178	0xb6916f2a	-4.334278e-06
179	0xb1fdcba5	-7.386421e-09
180	0xb708410f	-8.121379e-06
181	0xb62d7fd9	-2.5853426e-06
182	0xb6bd8711	-5.6483627e-06
183	0xb7a11608	-1.9202955e-05
184	0xb6667585	-3.4341076e-06
185	0x00000004	6e-45
186	0xb7061663	-7.992235e-06
187	0xb7864947	-1.6008167e-05
188	0xb6ce0a82	-6.1405017e-06
189	0xb6aad972	-5.0917088e-06
190	0xb6e07132	-6.688898e-06
191	0xb5f60959	-1.8331149e-06
192	0xba100dab	-0.0005495201
193	0x80000004	-6e-45
194	0xb9d99629	-0.00041501343
195	0x316d375f	3.4519514e-09
196	0xbab5e15a	-0.0013876364
197	0xba934260	-0.0011234991
198	0xb9c6b9f4	-0.0003790405
199	0xba93bc4e	-0.0011271329
200	0xbb4683c8	-0.003029095
201	0x00000004	6e-45
202	0xba74587d	-0.0009321047
203	0xbad027a4	-0.0015880954
204	0xbb19d673	-0.002347377
205	0xbad769ef	-0.0016434769
206	0xb9f7add9	-0.00047241038
207	0xb88dc920	-6.7608664e-05
208	0xb7d1d35a	-2.501316e-05
209	0x80000004	-6e-45
210	0xb6e5ab63	-6.844684e-06
211	0x00000004	6e-45
212	0xb817b54b	-3.6170048e-05
213	0xb6f07e9a	-7.1672957e-06
214	0xb6bded42	-5.6602594e-06
215	0xb847ba89	-4.761902e-05
216	0xb81abd3a	-3.6892692e-05
217	0x80000004	-6e-45
218	0xb7e40798	-2.7183254e-05
219	0xb8726111	-5.7787696e-05
220	0xb8261a86	-3.9602186e-05
221	0xb7bfee87	-2.2880047e-05
222	0xb7161955	-8.946595e-06
223	0xb4ecbb75	-4.4094818e-07
224	0x3a23e150	0.0006251531
225	0x0eccc4c3	5.0479357e-30
226	0x38bf6443	9.126265e-05
227	0x9c7c69d6	-8.3516595e-22
228	0x3a3e0e77	0.000725008
229	0x39176f7f	0.00014442018
230	0x39495bd3	0.00019203061
231	0x3a64e1ab	0.0008731137
232	0x3a056496	0.0005088536
233	0x192c9b8f	8.923606e-24
234	0x3a171181	0.0005762801
235	0x3a539963	0.00080718676
236	0x38f1b0eb	0.00011524729
237	0x375af712	1.3051338e-05
238	0x39d64bd7	0.00040873766
239	0x385c88ab	5.257937e-05
240	0x370992f9	8.200056e-06
241	0xb0a86aef	-1.2254001e-09
242	0xb5589d81	-8.069547e-07
243	0x9ec52ebc	-2.0877515e-20
244	0x3727a432	9.992205e-06
245	0x36345deb	2.6876758e-06
246	0x34c87300	3.7336576e-07
247	0x37acb49b	2.0588099e-05
248	0xb5e76bc8	-1.724221e-06
249	0x25eab758	4.0716768e-16
250	0x36d29223	6.2755003e-06
251	0x37a7180d	1.991915e-05
252	0xb6033c80	-1.9555737e-06
253	0x33b58e48	8.45435e-08
254	0x36474b87	2.9697273e-06
255	0x35c374fc	1.4562679e-06
