model/GCN/set3/version_1/checkpoints/epoch=1-step=56.ckpt (torch, 88097 bytes, 29 tensors)

model.conv1.bias f4 [4]
0.06696657 -0.0009182243 -0.06431066 0.01129587
00000000: c525 893d fdb4 70ba 4fb5 83bd 5012 393c

model.conv1.lin.weight f4 [4, 4]
-0.3949677 -0.76627237 0.71062815 -0.31377542 0.7308699 0.7470743 0.11594684 -0.68665975
-0.023861026 -0.31698865 0.1913538 -0.32954776 0.29749772 -0.001695347 -0.35322556 -0.64758766
00000000: 3539 cabe 6d2a 44bf baeb 353f 2ca7 a0be
00000010: 4a1a 3b3f 4340 3f3f 8975 ed3d efc8 2fbf
00000020: 3378 c3bc 564c a2be 40f2 433e 7cba a8be
00000030: 9f51 983e 6836 deba fbd9 b4be 4ec8 25bf

model.conv2.bias f4 [8]
-0.047163274 -0.0020178556 -0.041538022 0.0029998042 0.046063438 0.0114669725 0.008966887 0.02818828
00000000: 472e 41bd 003e 04bb c623 2abd 5d98 443b
00000010: 04ad 3c3d f8df 3b3c dae9 123c 1ceb e63c

model.conv2.lin.weight f4 [8, 4]
0.049968142 0.5369083 -0.02888465 -0.14484964 -0.07126307 0.0145614175 0.0056113615 0.055170033
0.4704039 0.050967295 0.47445068 0.7321276 -0.26084936 0.6152446 0.10641966 -0.15208907
0.63374066 -0.63687587 -0.5394909 0.14825661 -0.05467959 -0.017291056 0.0025702962 0.08311329
0.51696277 0.41619185 -0.04524059 -0.46086338 0.09707269 0.009455885 -0.5271252 -0.4149163
00000000: 65ab 4c3d d372 093f 809f ecbc 7753 14be
00000010: 5ff2 91bd 0393 6e3c 83df b73b f9f9 613d
00000020: c8d8 f03e 15c3 503d 33eb f23e b76c 3b3f
00000030: 0c8e 85be ac80 1d3f 8df2 d93d 3dbd 1bbe
00000040: d43c 223f 4c0a 23bf 131c 0abf 95d0 173e
00000050: b5f7 5fbd f9a5 8dbc 6a72 283b 4d37 aa3d
00000060: ac57 043f 1917 d53e 324e 39bd 49f6 ebbe
00000070: 0cce c63d dbec 1a3c adf1 06bf e96f d4be

model.conv3.bias f4 [16]
-0.004897302 -0.00031221018 -0.008171737 -0.0004986956 0.028603293 0.025085324 -0.00818016 0.0051021646
0.0036681641 -0.00031340076 0.021755505 -0.00026098068 0.003783303 0.032528978 0.016840618 0.030462766
00000000: 8c79 a0bb 24b0 a3b9 c0e2 05bc e5ba 02ba
00000010: 7451 ea3c bd7f cd3c 1406 06bc 0f30 a73b
00000020: 9565 703b f04f a4b9 9a38 b23c 3cd4 88b9
00000030: 4bf1 773b 1b3d 053d 56f5 893c 0d8d f93c

model.conv3.lin.weight f4 [16, 8]
0.4239524 0.014830288 0.21504152 0.5060338 -0.15686353 0.011006949 -0.4425062 -0.0014003523
-0.00010872255 -1.7430755e-05 2.3269542e-05 -0.00017951614 -3.2593022e-07 -1.0917793e-05 3.479265e-05 2.1939306e-05
-0.037881967 0.008501167 0.18110923 0.17576909 0.2858583 0.024547359 0.016294776 -0.2906777
-0.00046570518 2.8952534e-05 -0.00048052348 -0.00047229187 -0.00048694684 -0.0001282287 -0.00047866255 -0.00043389658
0.115099415 -0.025977861 -0.2790152 0.322149 -0.09765484 0.0048789405 0.23303783 -0.10585174
0.21452275 -0.0029683101 -0.11110985 -0.079799734 0.096787974 0.0009531257 -0.18142848 0.48553938
-0.05814105 0.09975097 0.28738698 0.34172657 0.15119632 0.008610243 -0.13697597 0.0100195035
0.46971387 -0.051058594 0.36283383 0.2618555 -0.31866893 -0.011322737 0.08601314 0.1841245
0.0044758916 0.006895997 -0.15413006 0.052264903 0.24356982 0.0071875597 0.47936428 0.4964782
-0.00029329438 -6.5768625e-05 -0.00015328126 -0.00016942354 2.2640748e-05 -7.517611e-05 -0.00019531268 -0.00023090634
-0.47464612 0.023868825 -0.17220855 0.47721425 -0.34894034 -0.0071136225 0.46928212 -0.21026541
0.25877577 -0.03653546 0.021300048 0.2935366 -0.0032381767 -0.00971272 0.38245302 -0.44177017
0.3079039 0.042389683 0.049576536 -0.44277495 0.19487852 0.0061665312 0.3940039 0.45829973
-0.117495395 -0.002978501 -0.37903905 -0.11459128 0.5410202 -0.01836156 -0.054780412 0.26439857
-0.4223802 -0.035225835 0.19263303 0.43940592 -0.32935008 -0.005055265 0.2844959 -0.107999004
-0.00659776 -0.007586934 0.48012844 -0.059531566 -0.38640517 0.024789905 -0.18357763 0.038982186
00000000: 4a10 d93e bcfa 723c d833 5c3e 6e8b 013f
00000010: d5a0 20be 7d56 343c 2c90 e2be 078c b7ba
00000020: f901 e4b8 4338 92b7 f632 c337 7f3c 3cb9
00000030: 82fb aeb4 902b 37b7 53ee 1138 4d0a b837
00000040: 1f2a 1bbd 7b48 0b3c b374 393e d0fc 333e
00000050: 055c 923e 8b17 c93c 9f7c 853c b5d3 94be
00000060: e429 f4b9 18df f237 c5ee fbb9 f19d f7b9
00000070: e64c ffb9 2175 06b9 00f5 fab9 9d7c e3b9
00000080: 3eb9 eb3d 86cf d4bc 15db 8ebe b7f0 a43e
00000090: 43ff c7bd 85df 9f3b 78a1 6e3e ccc8 d8bd
000000a0: daab 5b3e fb87 42bb 908d e3bd 0b6e a3bd
000000b0: c638 c63d 2fdb 793a 63c8 39be 9e98 f83e
000000c0: 4f25 6ebd 3d4a cc3d 6324 933e c9f6 ae3e
000000d0: 35d3 1a3e fa11 0d3c 6e43 0cbe d828 243c
000000e0: 567e f03e d122 51bd 5bc5 b93e ed11 863e
000000f0: 9328 a3be 0083 39bc a827 b03d 228b 3c3e
00000100: 80aa 923b d1f7 e13b 45d4 1dbe b913 563d
00000110: 5e6a 793e 9f85 eb3b 3c6f f53e 6432 fe3e
00000120: 4ec5 99b9 43ed 89b8 20ba 20b9 49a7 31b9
00000130: a3ec bd37 dea7 9db8 d9cc 4cb9 731f 72b9
00000140: d104 f3be 8e88 c33c 7057 30be 6d55 f43e
00000150: 4fa8 b2be 6419 e9bb bf45 f03e d14f 57be
00000160: 427e 843e 35a6 15bd 707d ae3c 6e4a 963e
00000170: 9737 54bb 1a22 1fbc e2d0 c33e b32f e2be
00000180: 94a5 9d3e cea0 2d3d c410 4b3d 66b3 e2be
00000190: 3c8e 473e 9d10 ca3b e1ba c93e 43a6 ea3e
000001a0: 6da1 f0bd f432 43bb 6811 c2be d5ae eabd
000001b0: 4d80 0a3f fb6a 96bc 6d61 60bd 405f 873e
000001c0: 3842 d8be f748 10bd 9841 453e d0f9 e03e
000001d0: 93a0 a8be a3a6 a5bb 72a9 913e 952e ddbd
000001e0: 0632 d8bb d19b f8bb 65d3 f53e 5fd7 73bd
000001f0: e6d6 c5be 3314 cb3c c6fb 3bbe c9ab 1f3d

model.fc.0.weight f4 [128, 32]
0.026058102 6.388554e-06 -0.08358961 0.00037644905 0.109208 0.0671021 -0.13403061 -0.11366366
0.11441721 0.0003694295 -0.15400386 0.16493297 0.11792552 0.0677288 0.073417194 0.19607317
-0.034740657 -9.0615407e-07 0.03555443 -3.4738225e-06 0.02673611 0.0023029188 -0.023348102 -0.011628633
-0.005539399 -5.116415e-07 0.09474595 0.0068924786 0.074059926 0.05813251 0.018557295 0.017048873
0.056484494 -8.323257e-06 -0.14222227 0.00025730208 0.11269337 0.117401674 -0.054188363 0.003027492
0.12936419 0.00029147696 0.15098527 0.072743766 -0.13019866 -0.06992441 -0.1413505 -0.023795914
-0.08655863 -6.347489e-07 -0.013597556 4.791224e-06 0.01336517 0.0030473333 -0.023306858 -0.10959577
-0.04299245 1.6833919e-06 0.04638492 -0.081270926 0.021841403 0.023890836 -0.050536904 0.0048780497
-0.0004068468 -2.4512234e-08 -0.00022010601 -1.2943627e-20 -0.00037241043 -0.0003945895 -0.0002949943 -0.0003588844
-0.00027528394 -3.5388643e-06 -0.00037413256 -0.00033901757 -0.00020828168 -0.00026573575 -0.00035089848 -7.1469076e-05
-0.00030265935 -1.0734265e-09 -0.00010478405 7.0629314e-22 -0.00026843097 2.9276738e-05 -0.00017574581 -0.00032167506
-0.00021941945 -6.6342225e-09 -0.00023322989 -0.0002948408 -0.00021171272 -0.00013383923 -0.00021369688 3.270352e-05
0.20235625 4.1207713e-05 0.20822519 -0.00033338158 -0.15484653 -0.032416087 0.15946317 0.068486854
-0.025664277 -0.00043346555 -0.031240495 -0.038673848 0.05170175 0.07292439 -0.07853813 0.100207046
0.056043003 -7.815173e-07 -0.040247746 4.312643e-06 0.047078833 0.007353351 0.16581362 0.19726181
7.020856e-05 1.8622737e-05 -0.09878911 -0.023077954 -0.04345825 0.040184148 -0.06047179 -0.025121126
-0.00040586668 -1.8073243e-22 -0.00033826145 1.5567855e-06 -0.00042512905 -0.0003292557 -0.00036559574 -0.00042624839
-0.00042751656 1.6524109e-35 -0.00041992523 -0.00042672653 -0.0004327392 -0.0003630535 -0.00041257238 -3.822232e-05
2.5985777e-05 2.8593301e-25 -2.4963913e-06 3.093754e-09 -1.2278839e-05 -2.964733e-06 -2.0928666e-05 3.5262485e-05
-2.150991e-05 -5.565215e-37 -2.1642712e-05 1.5441929e-05 -1.9819516e-05 -3.3003128e-06 -2.1059546e-05 7.707836e-06
-0.11238652 -9.038861e-07 0.02539399 -3.0457968e-05 -0.09486332 0.12259946 0.076662995 -0.029848073
0.099310316 0.0002967484 -0.06896433 -0.053390756 0.046054374 -0.0063399943 -0.13710445 -0.030908316
0.005583781 -2.465738e-07 -0.011006047 -7.7607206e-07 0.020785542 0.0009329179 -0.019440172 -0.0019552251
0.005099102 -4.1663955e-07 0.0054717716 0.008632207 -0.012432353 -0.0036346128 -0.0014595956 -0.010579264
-0.08591226 -9.037491e-07 0.033333 -2.7223788e-05 -0.0610392 -0.04730943 0.1517891 -0.16533476
0.13074325 0.0002966399 -0.039168324 -0.07408777 0.08232267 0.0029005518 -0.14206788 -0.050287563
0.060857497 -2.4642864e-07 0.0044398326 -7.75491e-07 0.008315731 0.009392197 0.005883823 0.011777804
-0.03642075 -4.422835e-07 0.003040294 -0.050774924 -0.06920088 -0.0052189725 0.03689209 -0.0038182968
9.05726e-05 -4.2970487e-06 0.028663488 -3.436635e-05 0.039271597 0.07198217 -0.15392208 0.10543786
0.1509785 -0.000102926344 0.119515665 -0.06835467 -0.08457657 0.10708506 0.04798733 -0.07143133
0.0074095256 2.3778277e-07 -0.006558678 1.7030047e-06 0.0066876477 -0.0008620157 0.0036035944 0.040276047
-0.014465378 6.93215e-07 0.0035211528 0.033200204 -0.01208131 -0.010051667 -0.0009224678 -0.0035954225
00000000: cd77 d53c 435d d636 0831 abbd 235e c539
00000010: 72a8 df3d d36c 893d 523f 09be 7ec8 e8bd
00000020: 9253 ea3d fdaf c139 30b3 1dbe 30e4 283e
00000030: ef82 f13d 66b5 8a3d c15b 963d 68c7 483e
00000040: 384c 0ebd 6f3e 73b5 86a1 113d d11f 69b6
00000050: b005 db3c 91ec 163b 8544 bfbc 0686 3ebc
00000060: d983 b5bb bc57 09b5 2a0a c23d 4dda e13b
00000070: bbac 973d 5b1c 6e3d 7805 983c 14aa 8b3c
00000080: 495c 673d 1ea4 0bb7 b7a2 11be 80e6 8639
00000090: c8cb e63d 4a70 f03d 9ef4 5dbd e368 463b
000000a0: 0c78 043e 60d1 9839 e29b 1a3e affa 943d
000000b0: cc52 05be 8734 8fbd 2fbe 10be a6ef c2bc
000000c0: a745 b1bd 9d63 2ab5 49c8 5ebc 4dc4 a036
000000d0: 96f9 5a3c c5b5 473b 06ee bebc bf73 e0bd
000000e0: da18 30bd e8f0 e135 1dfe 3d3d 5f71 a6bd
000000f0: beec b23c b7b6 c33c c9ff 4ebd 0cd8 9f3b
00000100: 0e4e d5b9 f98e d2b2 42cc 66b9 8a7f 749e
00000110: 1540 c3b9 e8e0 ceb9 77a9 9ab9 a628 bcb9
00000120: fc53 90b9 3a7d 6db6 3927 c4b9 2bbe b1b9
00000130: 3066 5ab9 7352 8bb9 ccf8 b7b9 abe1 95b8
00000140: 40ae 9eb9 d687 93b0 82bf dbb8 c976 551c
00000150: 32bc 8cb9 5197 f537 6848 38b9 7fa6 a8b9
00000160: f613 66b9 3df3 e3b1 2c8f 74b9 dd94 9ab9
00000170: 33ff 5db9 3257 0cb9 d213 60b9 232b 0938
00000180: 7a36 4f3e 72d6 2c38 fc38 553e b8c9 aeb9
00000190: 1790 1ebe bbc6 04bd 504a 233e d642 8c3d
000001a0: e43d d2bc c342 e3b9 11ec ffbc 7868 1ebd
000001b0: 37c5 533d 6259 953d 99d8 a0bd 5a39 cd3d
000001c0: 598d 653d 76c9 51b5 d2da 24bd 52b5 9036
000001d0: bcd5 403d 61f4 f03b 0ccb 293e 00ff 493e
000001e0: ef3c 9338 0638 9c37 f251 cabd fa0d bdbc
000001f0: 4701 32bd 2298 243d 45b1 77bd d2ca cdbc
00000200: 81ca d4b9 fa7d 5a9b af58 b1b9 bef2 d035
00000210: dbe3 deb9 f49f acb9 6ead bfb9 177a dfb9
00000220: 4d24 e0b9 e7b6 af05 6929 dcb9 44ba dfb9
00000230: 46e1 e2b9 3758 beb9 874e d8b9 e750 20b8
00000240: 08fc d937 e5fb b016 ad87 27b6 e599 5431
00000250: 3601 4eb7 baf5 46b6 f88f afb7 cee6 1338
00000260: 2e70 b4b7 dc5f 3d83 5f8d b5b7 4a89 8137
00000270: 1642 a6b7 f17a 5db6 08a9 b0b7 e750 0137
00000280: e72a e6bd 94a2 72b5 0f07 d03c fd7f ffb7
00000290: b347 c2bd 6d15 fb3d 7d01 9d3d f283 f4bc
000002a0: 3563 cb3d e594 9b39 2c3d 8dbd 44b0 5abd
000002b0: 83a3 3c3d babf cfbb 1c65 0cbe 7033 fdbc
000002c0: 26f8 b63b d860 84b4 b552 34bc 4453 50b5
000002d0: 7146 aa3c 0f8f 743a ff40 9fbc 3c23 00bb
000002e0: 5e16 a73b 81ae dfb4 8c4c b33b 1a6e 0d3c
000002f0: 11b1 4bbc af32 6ebb e74f bfba a654 2dbc
00000300: c4f2 afbd 2a99 72b5 2f88 083d a45e e4b7
00000310: 3d04 7abd 88c7 41bd 9a6e 1b3e 844d 29be
00000320: 8fe1 053e 5586 9b39 f76e 20bd 54bb 97bd
00000330: ca98 a83d 2f17 3e3b 3e7a 11be 55fa 4dbd
00000340: b645 793d e54c 84b4 047c 913b 562b 50b5
00000350: b43e 083c bbe1 193c 16cd c03b b1f7 403c
00000360: ed2d 15bd fb72 edb4 ab3f 473b 5ef9 4fbd
00000370: 31b9 8dbd ea03 abbb 291c 173d 643c 7abb
00000380: cbf1 bd38 5e2f 90b6 b1cf ea3c 9624 10b8
00000390: 41db 203d 636b 933d c09d 1dbe ceef d73d
000003a0: 1c9a 1a3e 29da d7b8 a1c4 f43d 89fd 8bbd
000003b0: 7b36 adbd 694f db3d 5d8e 443d 974a 92bd
000003c0: 9bcb f23b 3b51 7f34 2eea d6bb cc92 e435
000003d0: 0e24 db3b e5f8 61ba 482a 6c3b 7ff8 243d
000003e0: 3100 6dbc 5f15 3a35 24c3 663b f0fc 073d
000003f0: b0f0 45bc bfaf 24bc c4d1 71ba 2ea1 6bbb

model.fc.0.bias f4 [128]
-0.10044998 -0.10219425 -0.00034973727 0.16571198 -5.4113585e-05 0.051753722 0.106711164 -0.07508779
-0.0004424323 -0.08712678 0.116180986 0.14050218 -5.0705617e-05 0.010435927 -0.10585029 -0.0060468195
0.013248715 0.122192584 -0.00030312067 0.052320484 0.08082846 0.17282185 -0.0006399324 0.017723199
0.13274512 0.07266843 0.054576658 0.073221095 -0.016881868 -0.00026886808 0.08109608 0.017259361
-8.781826e-05 0.12919568 -0.018878065 0.00023431475 0.009716602 0.1279481 0.12763914 -0.00038772824
-0.117446825 0.113476604 -0.16629627 0.114644565 7.877486e-06 -0.029626073 0.12515022 -0.00030742583
-0.021791676 -0.099955834 -0.00031271268 0.074463926 0.04901267 0.025277399 -0.037144843 -0.05236792
-0.00025192965 0.05179299 -0.0004202295 -0.00024544643 0.053950593 0.13023229 0.13063829 -0.015240487
3.323254e-05 -0.00024102922 -0.12437428 -0.09658581 0.03498416 -0.00032052278 0.11710545 0.017027266
0.07344942 -0.000567399 0.028506678 -1.0417328e-05 0.034982834 0.097757645 -0.103213444 -0.0018978887
0.032271884 -0.0003817142 0.08857383 -0.06792137 0.052123703 0.033234786 -0.00029337386 0.034498762
0.016336413 -0.00030660824 0.02274921 -5.7297326e-05 0.12296844 0.01977507 0.039124694 0.003088448
0.09008789 0.032132775 0.12644756 -8.851273e-05 0.13597676 0.032296162 0.08012794 1.4039466e-05
-0.0060379794 -0.1305402 -0.0004766502 0.112042814 -0.16510865 -0.00036164507 -9.056805e-05 -0.00036217994
-8.7826724e-05 -0.021355186 -0.00037905882 0.13246751 1.1050385e-06 -8.69026e-05 -0.1298226 -0.067917675
-0.00043322545 0.07014094 0.0036160715 0.03664156 0.1679831 0.06674766 0.0877047 -8.782442e-05
00000000: b8b8 cdbd 384b d1bd f15c b7b9 67b0 293e
00000010: 05f8 62b8 b6fb 533d 628b da3d a1c7 99bd
00000020: 42f6 e7b9 866f b2bd 4cf0 ed3d cedf 0f3e
00000030: beac 54b8 73fb 2a3c 09c8 d8bd 6624 c6bb
00000040: 2311 593c 1b40 fa3d 2bec 9eb9 014e 563d
00000050: 6489 a53d 36f8 303e 23c1 27ba 3e30 913c
00000060: 56ee 073e 30d3 943d c68b 5f3d f1f4 953d
00000070: d84b 8abc ddf6 8cb9 b415 a63d 8163 8d3c
00000080: 122b b8b8 df4b 043e 2ca6 9abc 63b2 7539
00000090: 6232 1f3c d404 033e d6b3 023e 0148 cbb9
000000a0: f687 f0bd 6c66 e83d 9249 2abe c5ca ea3d
000000b0: 8b29 0437 61b2 f2bc 6127 003e ff2d a1b9
000000c0: 7584 b2bc a5b5 ccbd 96f3 a3b9 8b80 983d
000000d0: 82c1 483d 8c12 cf3c 3125 18bd be7f 56bd
000000e0: 6d15 84b9 e324 543d 4052 dcb9 43af 80b9
000000f0: 4cfb 5c3d 9d5b 053e 0bc6 053e 3cb3 79bc
00000100: 2b63 0b38 cabc 7cb9 f1b7 febd c8ce c5bd
00000110: 8d4b 0f3d d70b a8b9 fbd4 ef3d c47c 8b3c
00000120: a66c 963d 81bd 14ba d686 e93c 15c6 2eb7
00000130: 294a 0f3d 2935 c83d 9261 d3bd 94c2 f8ba
00000140: 862f 043d d020 c8b9 3266 b53d 5c1a 8bbd
00000150: aa7f 553d 3321 083d f9cf 99b9 934e 0d3d
00000160: f1d3 853c 43c0 a0b9 8d5c ba3c 8952 70b8
00000170: e1d6 fb3d 54ff a13c 3741 203d 8f67 4a3b
00000180: 0080 b83d a89d 033d 787b 013e e99f b9b8
00000190: 7e3d 0b3e fb48 043d 1e1a a43d 0c8b 6b37
000001a0: 3eda c5bb 55ac 05be e8e6 f9b9 b476 e53d
000001b0: 3e12 29be 2e9b bdb9 5aef bdb8 f8e2 bdb9
000001c0: 9d2f b8b8 12f1 aebc 6abc c6b9 90a5 073e
000001d0: d550 9435 7a3f b6b8 37f0 04be 6c18 8bbd
000001e0: 8922 e3b9 0ea6 8f3d 9dfb 6c3b 7615 163d
000001f0: c303 2c3e ffb2 883d 869e b33d 602e b8b8

model.fc.2.weight f4 [1, 128]
0.06668393 0.030504052 -0.00036939944 -0.15417904 0.0004594176 -0.2555454 -0.25517654 -0.010537154
0.00038150587 0.02792646 -0.05249997 0.07346001 -0.00016409517 -0.14936551 -0.068657674 -0.2948699
-0.00027469057 -0.027349396 -0.00043572945 0.2102102 -0.28492376 0.12136063 -0.10677787 -0.010937544
0.039337292 -0.054660507 0.054187085 0.0735065 -0.18059362 -0.0002709359 0.07362806 -0.066861786
0.0003322721 -0.041892316 -0.030985119 0.0003922563 -0.027079301 0.064627096 -0.057931863 0.00032896205
-0.053457186 -0.07857581 -0.056059234 -0.28058642 0.00027253694 0.019032892 -0.10264904 -0.0003617235
-0.26765925 0.045793302 0.0002313213 -0.036612023 0.06885611 -0.035331737 -0.10218276 -0.10731994
-0.0005464322 0.008064759 0.00037030267 -0.0002616407 -0.31657505 -0.035780158 -0.09138173 0.06870175
0.0004870406 0.00045830198 -0.074174926 0.07360933 -0.015594839 -0.00034878706 -0.23818864 0.12109385
-0.018164445 0.0005546546 0.015772063 -1.6433387e-06 0.053357903 0.106463306 -0.03326835 -0.087612376
-0.018476848 0.00031760248 -0.05519366 -0.0075438092 -0.25111657 -0.0231549 -0.00034109098 0.054069407
-0.27129287 0.00022857086 0.032146506 0.00043010627 -0.076963685 -0.008574798 -0.11679992 -0.13973664
-0.20795204 0.0536006 -0.3314705 -7.545585e-05 -0.05117927 0.0036867536 0.11737266 0.00048477526
-0.030799428 -0.08816138 0.00041996097 -0.33859873 -0.09350343 -0.00036160083 -0.00075294706 0.0003741473
0.00035738215 -0.08961793 0.00028797894 -0.055698834 8.547668e-06 0.00021855354 0.068902664 0.028590374
0.0003681545 -0.089247525 -0.008833993 -0.20224036 0.10265204 -0.23073816 0.008593771 0.00038596624
00000000: 9691 883d a2e3 f93c f4ab c1b9 1ce1 1dbe
00000010: fddd f039 d9d6 82be 80a6 82be 07a4 2cbc
00000020: da04 c839 08c6 e43c 350a 57bd 3472 963d
00000030: f610 2cb9 46f3 18be 659c 8cbd 30f9 96be
00000040: 5804 90b9 d70b e0bc 9e72 e4b9 5841 573e
00000050: 87e1 91be ec8b f83d 5bae dabd 6233 33bc
00000060: 2420 213d b2e3 5fbd 47f3 5d3d 938a 963d
00000070: 89ed 38be 670c 8eb9 4fca 963d d5ee 88bd
00000080: ce34 ae39 4797 2bbd 81d4 fdbc c0a7 cd39
00000090: 69d5 ddbc 365b 843d f649 6dbd 8a78 ac39
000000a0: ecf5 5abd 5bec a0bd 5e9e 65bd 06a9 8fbe
000000b0: 4ae3 8e39 deea 9b3c a939 d2bd b5a5 bdb9
000000c0: a20a 89be c291 3b3d d78e 7239 7df6 15bd
000000d0: 6f04 8d3d 03b8 10bd 3245 d1bd 8fca dbbd
000000e0: 723e 0fba 0d22 043c 2f25 c239 d22c 89b9
000000f0: 2016 a2be 378e 12bd 5826 bbbd 81b3 8c3d
00000100: 7c59 ff39 4048 f039 06e9 97bd 7dc0 963d
00000110: 7f81 7fbc 68dd b6b9 b9e7 73be 0d00 f83d
00000120: 9acd 94bc 3d66 113a 6a34 813c b090 dcb5
00000130: d18d 5a3d 6f09 da3d 6544 08bd 1e6e b3bd
00000140: c25c 97bc e283 a639 bf12 62bd 0f32 f7bb
00000150: 5a92 80be 58af bdbc 75d4 b2b9 e277 5d3d
00000160: e6e6 8abe 86ac 6f39 0eac 033d e37f e139
00000170: 239f 9dbd 4f7d 0cbc cc34 efbd 1f17 0fbe
00000180: 61f1 54be 4e8c 5b3d 80b6 a9be 0d3e 9eb8
00000190: 5ba1 51bd 769d 713b 1461 f03d 6f29 fe39
000001a0: 154f fcbc f48d b4bd 352e dc39 d05c adbe
000001b0: ba7e bfbd 3e95 bdb9 6c61 45ba 3329 c439
000001c0: 055f bb39 9b89 b7bd e1fb 9639 7624 64bd
000001d0: f467 0f37 852b 6539 d71c 8d3d 5c36 ea3c
000001e0: dc04 c139 68c7 b6bd 74bc 10bc 1918 4fbe
000001f0: 3c3b d23d a046 6cbe e3cc 0c3c 835b ca39

model.feature.0.weight f4 [128, 32]
-0.03937565 0.13426882 -0.14126274 0.121153645 0.031915892 0.11060555 0.08446142 0.09614219
0.0003982034 0.10027216 -0.010154018 0.16490582 -0.019848384 -0.029185828 -0.16349868 0.024121674
-0.04140734 0.106828816 0.15309346 -0.12756895 0.0891861 0.11469352 -0.13556749 0.025120996
0.035679456 0.10725686 -0.02613467 0.07464386 0.16916196 0.11911639 0.17366132 0.044936802
0.05621831 0.052754577 -0.0032745993 -0.17628092 -0.07699652 -0.038580425 0.042402152 -0.118243635
0.061748274 0.16106291 -0.16585653 0.049495995 0.12346171 -0.16491455 0.055127613 0.08992607
0.157241 -0.16269802 -0.08940973 0.09740236 0.11768692 0.11564442 0.16170216 -0.1505766
-0.10105229 0.094576895 0.11064422 -0.08456839 -0.056834582 0.027277209 0.16316627 0.063922964
0.16053732 -0.033981867 0.03529729 0.055484638 -0.051712453 0.099205606 0.044822413 -0.04850845
-0.025363762 -0.09732244 -0.14403811 -0.089150906 -0.15787832 0.06503202 0.00900086 -0.06795524
0.0386805 -0.0027841998 0.10565477 0.17358953 0.15280358 -0.16022497 -0.021454852 0.15549624
-0.07878548 -0.1427691 -0.03278401 -0.029289361 -0.11550883 -0.15564783 0.1344564 -0.028159805
-0.12957302 -0.061806794 -0.16021404 -0.14438447 -0.06704805 -0.07503819 0.15607332 0.038975507
-0.10233811 0.08310792 0.15554605 0.040543098 -0.07223344 -0.07802852 -0.16192417 -0.17530067
0.04581556 0.006863867 -0.065719076 0.11227589 0.1415636 -0.16152337 0.05456765 -0.07140538
0.0025020686 -0.04544507 -0.1707596 0.15147237 -0.12561767 0.11427909 -0.073127374 0.011220144
0.06601174 0.09217731 -0.10184379 0.029799845 0.030823844 0.124338575 0.12591702 -0.111341774
0.09325926 -0.009701888 -0.092044525 -0.16483767 -0.07072755 0.12850237 -0.051418226 -0.08118071
-7.908856e-05 0.00034891267 0.0025264295 0.019503307 -0.110905215 -0.11135625 0.13998766 0.15096961
0.15227683 0.028636465 -0.040129445 -0.079087466 0.15455352 -0.0143808415 -0.16798726 0.04156364
-0.08993726 -0.10144594 -0.03208357 0.16147575 -0.098103 -0.093948126 -0.15098743 0.050430473
-0.16347753 -0.10795306 0.098097675 0.14415857 0.15132208 0.07601491 -0.07412303 -0.15480518
-0.057775933 0.09502736 -0.12905973 -0.10601536 -0.106480934 0.17273502 -0.07422726 0.041880164
0.11864289 0.027414037 0.111967 0.13953726 3.4602563e-05 0.08398166 -0.05083207 -0.14233299
-0.084639825 0.17655334 0.058733467 0.16088702 -0.06641532 -0.06553262 0.15736526 -0.09339841
0.1108602 0.04053359 0.047823124 0.1619786 -0.06717929 -0.07917043 0.021274233 0.03081944
-0.16262223 -0.08024037 0.17655489 0.016273847 -0.083737634 0.05592893 -0.14606068 -0.14042306
-0.07535515 -0.031601053 0.063295335 0.016880065 0.14634095 0.16405682 -0.17000838 -0.06256704
-0.052324828 0.16072534 0.17317615 0.12807004 0.09751885 0.019428812 -0.058812216 0.059338946
-0.17150946 -0.10851648 -0.030606156 0.009509383 -0.051118057 -0.108413346 -0.16354792 -0.029654775
0.029926222 -0.035744406 -0.07665064 -0.02271498 0.037284702 -0.16978437 -0.017105868 0.086427525
0.15055218 -0.14756754 -0.048078764 0.07959032 -0.11630871 -0.061590075 0.09241425 -0.08341363
00000000: 5d48 21bd c47d 093e 2ea7 10be 671f f83d
00000010: 3dba 023d 2a85 e23d 1cfa ac3d 32e6 c43d
00000020: f5c5 d039 7d5b cd3d 0a5d 26bc 12dd 283e
00000030: 1499 a2bc 1e17 efbc 336c 27be d19a c53c
00000040: be9a 29bd 11c9 da3d 88c4 1c3e 6fa1 02be
00000050: 34a7 b63d 70e4 ea3d 34d2 0abe 8cca cd3c
00000060: 9f24 123d 7ca9 db3d 6018 d6bc e1de 983d
00000070: cb38 2d3e 4bf3 f33d 46d4 313e a70f 383d
00000080: 2c45 663d 2f15 583d a99a 56bb fc82 34be
00000090: 5ab0 9dbd 8206 1ebd e1ad 2d3d b829 f2bd
000000a0: c2eb 7c3d aded 243e 4bd6 29be 50bc 4a3d
000000b0: 7ed9 fc3d 5cdf 28be 7ecd 613d 292b b83d
000000c0: c903 213e 4f9a 26be 731c b7bd e37a c73d
000000d0: d705 f13d fbd6 ec3d 4095 253e c130 1abe
000000e0: 81f4 cebd 88b1 c13d 7099 e23d 3132 adbd
000000f0: 61cb 68bd 7474 df3c 0f15 273e 0bea 823d
00000100: e563 243e 9230 0bbd e493 103d dc43 633d
00000110: 70d0 53bd 4f2c cb3d b597 373d ccb0 46bd
00000120: aac7 cfbc fd50 c7bd ba7e 13be c094 b6bd
00000130: dbaa 21be 822f 853d 5878 133c 1e2c 8bbd
00000140: 726f 1e3d 1f77 36bb 8761 d83d 74c1 313e
00000150: 8b78 1c3e 0412 24be 16c2 afbc 683a 1f3e
00000160: 485a a1bd 1032 12be 8748 06bd 3ef0 efbc
00000170: e58f ecbd 2562 1fbe f0ae 093e 64af e6bc
00000180: caae 04be 1f29 7dbd 260f 24be 86d9 13be
00000190: 7d50 89bd 9fad 99bd afd1 1f3e c8a4 1f3d
000001a0: a596 d1bd 7c34 aa3d 7747 1f3e 8510 263d
000001b0: 20ef 93bd 6bcd 9fbd 73cf 25be 0582 33be
000001c0: 19a9 3b3d 4aea e03b b997 86bd e7f0 e53d
000001d0: 0cf6 103e 6266 25be 5482 5f3d fc3c 92bd
000001e0: bff9 233b 9c24 3abd 9bdb 2ebe 931b 1b3e
000001f0: eba1 00be 280b ea3d cec3 95bd b2d4 373c
00000200: 2a31 873d 75c7 bc3d 7a93 d0bd ce1e f43c
00000210: 4982 fc3c 39a5 fe3d 64f0 003e 2807 e4bd
00000220: b6fe be3d abf4 1ebc d781 bcbd 35cb 28be
00000230: 9bd9 90bd 2096 033e eb9b 52bd 1242 a6bd
00000240: 59dc a5b8 44ee b639 7492 253b 66c5 9f3c
00000250: 4622 e3bd bf0e e4bd ed58 0f3e c797 1a3e
00000260: 75ee 1b3e 0597 ea3c c65e 24bd 9cf8 a1bd
00000270: 4743 1e3e 9f9d 6bbc da04 2cbe a33e 2a3d
00000280: 0731 b8bd e4c2 cfbd 106a 03bd e659 253e
00000290: 3aea c8bd e067 c0bd 739c 1abe 2f90 4e3d
000002a0: a766 27be 7e16 ddbd 6fe7 c83d 4e9e 133e
000002b0: 2df4 1a3e b5ad 9b3d d1cd 97bd 4085 1ebe
000002c0: 75a6 6cbd b49d c23d 3c28 04be 951e d9bd
000002d0: ad12 dabd 73e1 303e 7604 98bd 898a 2b3d
000002e0: 0bfb f23d 6793 e03c f44e e53d dbe2 0e3e
000002f0: 3822 1138 94fe ab3d 4a35 50bd bdbf 11be
00000300: a557 adbd 66ca 343e 8192 703d 91bf 243e
00000310: c104 88bd f735 86bd 5c24 213e aa47 bfbd
00000320: ac0a e33d 8d06 263d 2ee2 433d b8dd 253e
00000330: 4c95 89bd 1b24 a2bd 4d47 ae3c 0d79 fc3c
00000340: 7186 26be 1055 a4bd ceca 343e bb50 853c
00000350: a37e abbd bc15 653d ee90 15be 10cb 0fbe
00000360: cd53 9abd 1b70 01bd fca0 813d 1048 8a3c
00000370: 67da 153e 83fe 273e ad16 2ebe 2623 80bd
00000380: 8f52 56bd 2f95 243e 1755 313e cb24 033e
00000390: f6b7 c73d 2c29 9f3c 14e5 70bd 650d 733d
000003a0: 2da0 2fbe e33d debd c3b9 fabc 3ecd 1b3c
000003b0: 2b61 51bd d107 debd 1b79 27be 92ee f2bc
000003c0: d627 f53c ba68 12bd 03fb 9cbd c414 babc
000003d0: d8b7 183d f4db 2dbe 9b21 8cbc ea00 b13d
000003e0: 5a2a 1a3e f21b 17be 3dee 44bd 4000 a33d
000003f0: 4333 eebd e045 7cbd af43 bd3d c4d4 aabd

model.feature.0.bias f4 [128]
-0.015084294 -0.044631638 0.06364747 0.11913329 -0.03121937 0.024264405 -0.072587095 -0.122392885
-0.008811346 0.070492856 0.094544314 0.17053522 0.16719633 0.141906 -0.17342287 -0.04313201
-0.124046855 -0.087702446 0.084463865 -0.10321619 0.1023109 0.02745041 0.1042799 0.015693273
-0.027390542 0.03417772 0.012990038 0.1367176 -0.07043185 0.13860196 0.100272216 -0.115331985
-0.15940934 -0.033680327 0.11120258 -0.0074618887 0.007519461 -0.08939534 0.10437165 -0.008159946
0.0026602459 -0.17415328 -0.10108694 0.1308566 0.08865788 0.038432825 0.07748913 -0.14715317
0.09108825 0.10759483 0.1417877 -0.15294598 -0.001714028 0.08277494 0.079323314 0.13759373
0.07725538 -0.10715041 -0.037492655 -0.12162628 0.015698794 0.06583913 0.041313056 0.018082073
0.12878507 -0.004998595 -0.14322181 -0.034757137 0.16250782 0.050300345 -0.15783353 0.060828164
-0.16407649 -0.14377695 -0.073147684 0.09293639 -0.12048688 -0.12036625 0.15147974 0.09451808
0.15453258 0.0072906883 -0.05225162 -0.13305001 0.07245808 -0.09276696 0.15340447 -0.13625252
-0.17247826 0.069724925 0.07690586 -0.062026862 -0.13242601 0.15863028 -0.10108531 -0.05646483
0.07254119 0.070028946 -0.15559529 -0.10479051 -0.120723784 0.029547133 -0.13507044 0.13592646
-0.09886633 0.03505834 0.003348525 0.07945446 -0.08044687 -0.13596912 -0.15351538 -0.030723935
0.01988052 -0.1632354 -0.06391386 0.07200926 0.1351766 -0.117685065 0.16812187 -0.122290514
0.023469092 -0.05197467 -0.064337395 -0.08764277 0.008377929 -0.1094196 -0.06782869 0.16126159
00000000: 1d24 77bc aacf 36bd 9b59 823d 28fc f33d
00000010: c4bf ffbc 25c6 c63c 8ba8 94bd 1fa9 fabd
00000020: 775d 10bc 8f5e 903d 73a0 c13d c9a0 2e3e
00000030: 8435 2b3e ce4f 113e c495 31be 31ab 30bd
00000040: 470c febd 579d b3bd 64fb ac3d 0363 d3bd
00000050: 6188 d13d afdf e03c b390 d53d 2e8f 803c
00000060: 2162 e0bc f0fd 0b3d 2bd4 543c b3ff 0b3e
00000070: 933e 90bd aced 0d3e 855b cd3d 2d33 ecbd
00000080: 343c 23be 62f4 09bd 2ebe e33d dc82 f4bb
00000090: d065 f63b e714 b7bd cec0 d53d 4bb1 05bc
000000a0: 8557 2e3b 3d55 32be ab06 cfbd 46ff 053e
000000b0: 4392 b53d bd6b 1d3d 9fb2 9e3d 52af 16be
000000c0: 7a8c ba3d ae5a dc3d cb30 113e df9d 1cbe
000000d0: 3ca9 e0ba e885 a93d 4374 a23d 5fe5 0c3e
000000e0: 1238 9e3d ad71 dbbd e691 19bd 3317 f9bd
000000f0: c29a 803c aad6 863d e137 293d db20 943c
00000100: 3ce0 033e 41cb a3bb bda8 12be 805d 0ebd
00000110: 7368 263e bc07 4e3d 1d9f 21be f426 793d
00000120: ab03 28be 443a 13be 74ce 95bd 6f55 be3d
00000130: d3c1 f6bd 9582 f6bd 811d 1b3e b292 c13d
00000140: ca3d 1e3e bae6 ee3b cb05 56bd 433e 08be
00000150: e764 943d 9bfc bdbd 1016 1d3e c885 0bbe
00000160: 249e 30be f1cb 8e3d d280 9d3d e10f 7ebd
00000170: af9a 07be fa6f 223e d105 cfbd aa47 67bd
00000180: 7a90 943d 566b 8f3d 5f54 1fbe 689c d6bd
00000190: 083e f7bd d40c f23c e84f 0abe 4e30 0b3e
000001a0: 6e7a cabd 5599 0f3d ed72 5b3b 05b9 a23d
000001b0: 54c1 a4bd 7d3b 0bbe 2333 1dbe c3b0 fbbc
000001c0: 79dc a23c 2e27 27be 45e5 82bd 9779 933d
000001d0: bc6b 0a3e de04 f1bd 2428 2c3e 7373 fabd
000001e0: 4142 c03c 64e3 54bd 53c3 83bd 0d7e b3bd
000001f0: 9543 093c 6217 e0bd c5e9 8abd c221 253e

exp_avg f4 [4]
-0.030436317 0.051577356 0.0044108345 0.044305667
00000000: 9555 f9bc c742 533d c388 903b dc79 353d

exp_avg_sq f4 [4]
0.0009335681 0.002461436 3.528886e-05 0.0011922272
00000000: b2ba 743a 0b50 213b 2003 1438 8244 9c3a

exp_avg f4 [4, 4]
-0.0055901823 -0.0037263462 -0.0142799 -0.0069489456 0.022470407 0.014980943 0.0063336887 0.0077307136
0.0007308511 2.6065116e-05 0.0030956462 0.00037456272 0.019060202 0.018963981 0.0039796312 0.001703962
00000000: d92d b7bb b735 74bb 3ef6 69bc fbb3 e3bb
00000010: dc13 b83c a172 753c d58a cf3b ed51 fd3b
00000020: 9696 3f3a 69a6 da37 53e0 4a3b f560 c439
00000030: 2424 9c3c 5a5a 9b3c 9167 823b 7a57 df3a

exp_avg_sq f4 [4, 4]
1.8491373e-05 8.804519e-06 0.00023879066 0.000105110834 0.0002359995 0.0001545959 0.00032250347 9.74858e-05
3.6845364e-07 7.818082e-09 2.130142e-05 5.288184e-07 0.00027876094 0.00016352313 1.0188378e-05 4.043359e-06
00000000: ec1d 9b37 1fb7 1337 e163 7a39 f36e dc38
00000010: a276 7739 051b 2239 af15 a939 4a71 cc38
00000020: e2cf c534 4a50 0632 73b0 b237 20f4 0d35
00000030: a926 9239 6877 2b39 c0ee 2a37 30ac 8736

exp_avg f4 [8]
-0.062807225 0.014609562 0.04726024 0.32685274 0.060013734 0.00045879724 -0.19609398 -0.27792063
00000000: 13a1 80bd f25c 6f3c f493 413d 3e59 a73e
00000010: f6d0 753d b98a f039 dccc 48be 9d4b 8ebe

exp_avg_sq f4 [8]
0.0016863196 0.0001088532 0.0015844986 0.04257372 0.015345484 3.7698105e-06 0.035502173 0.028866282
00000000: 7f07 dd3a 1e48 e438 f3ae cf3a c861 2e3d
00000010: a06b 7b3c dafc 7c36 ba6a 113d fb78 ec3c

exp_avg f4 [8, 4]
-0.0038592597 -0.013691461 -0.00011182405 -0.0005392049 0.00012829993 0.005330616 5.208887e-07 0.0005034577
0.0032023485 0.018573655 5.8005044e-05 0.0020913808 0.011771208 0.09297995 0.00019808274 0.0072020423
0.0057787695 0.005325597 2.2543294e-05 0.00011733308 5.546899e-05 0.00069295656 5.0293934e-08 4.0148017e-05
-0.009973019 -0.057686023 -0.00012692824 -0.004183241 -0.017781105 -0.06131188 -0.00032335846 -0.0029029031
00000000: a2eb 7cbb 2652 60bc 1483 eab8 6e59 0dba
00000010: 4088 0639 73ac ae3b 33d3 0b35 79fa 033a
00000020: 7ede 513b c727 983c 714a 7338 8c0f 093b
00000030: 06dc 403c 466c be3d 6eb4 4f39 1cff eb3b
00000040: d55b bd3b 5882 ae3b 5b1b bd37 b810 f638
00000050: 60a7 6838 87a7 353a c402 5833 9b64 2838
00000060: e065 23bc 2e48 6cbd 0a18 05b9 9213 89bb
00000070: aea9 91bc 2a22 7bbd 7088 a9b9 a23e 3ebb

exp_avg_sq f4 [8, 4]
8.864825e-06 8.796172e-05 5.4212963e-09 3.2453934e-07 8.715218e-09 1.6228658e-05 3.2734617e-13 2.0905345e-07
9.626622e-06 0.00023624343 4.5631423e-09 2.8108057e-06 6.879863e-05 0.004000883 2.6883384e-08 3.547055e-05
0.00039239178 6.571842e-05 1.6694737e-07 1.1920106e-08 1.0405048e-08 4.616055e-07 9.5942575e-14 1.8861432e-09
0.00018383036 0.002501283 7.0357814e-08 1.7236278e-05 0.0001496294 0.0016443161 5.8206716e-08 4.1174944e-06
00000000: 22ba 1437 1778 b838 3a46 ba31 593c ae34
00000010: efb9 1532 c722 8837 8e47 b82a 2d78 6034
00000020: 0782 2137 1db8 7739 d3c9 9c31 46a1 3c36
00000030: fc47 9038 d719 833b 30ed e632 37c6 1438
00000040: efb9 cd39 4fd2 8938 2542 3334 2ec9 4c32
00000050: e3c1 3232 94d2 f734 210b d829 629d 0131
00000060: 96c2 4039 91ec 233b 9e17 9733 a096 9037
00000070: d6e5 1c39 1886 d73a f6fe 7933 0229 8a36

exp_avg f4 [16]
0.1910048 -3.327309e-08 0.2533096 1.321192e-07 -0.002138686 -0.17506337 0.31652352 -0.025681563
-0.117311485 6.72373e-08 -0.016584584 -0.022240879 -0.23400263 0.1196189 0.06954022 -0.26749116
00000000: c396 433e 26e8 0eb3 ccb1 813e a6dc 0d34
00000010: 3229 0cbb d043 33be 5f0f a23e 2462 d2bc
00000020: 0141 f0bd 1964 9033 65dc 87bc 8132 b6bc
00000030: 639e 6fbe c1fa f43d 1a6b 8e3d 9af4 88be

exp_avg_sq f4 [16]
0.022852654 1.8005716e-14 0.047322363 1.7799351e-10 0.0050581465 0.016105622 0.057525475 0.0032765442
0.0059702606 2.1483898e-11 0.0054730163 0.0016830096 0.023273109 0.021371007 0.00224155 0.035317186
00000000: 7d35 bb3c 5b2e a228 18d5 413d b8b4 432f
00000010: cfbe a53b f0ef 833c d59f 6b3d 4abb 563b
00000020: 2da2 c33b 70f9 bc2d fd56 b33b 6e98 dc3a
00000030: 3fa7 be3c 4012 af3c f8e6 123b c1a8 103d

exp_avg f4 [16, 8]
0.021749938 0.00064429303 0.0032785607 0.03387903 0.0011884201 0.0012999541 0.026628934 0.0049128826
-1.7593997e-08 -7.297447e-10 -4.1645003e-09 -2.2765084e-08 -3.463735e-10 -9.102625e-10 -1.3133649e-09 -1.6362005e-10
0.023302369 0.0006601576 0.0058409753 0.036147483 0.007269942 0.0015036605 0.03450172 0.0074612116
-3.539643e-08 -2.8977223e-09 -4.0915133e-08 -3.1080692e-08 -3.4653926e-08 -1.9727475e-08 -2.257844e-08 -3.7361374e-08
-0.0021511698 -0.00010103684 -0.00013623168 -0.0029673255 0.0012502465 -7.429891e-05 -0.0010487064 0.00023598089
-0.015169742 -0.00044490956 -0.0037414106 -0.024056958 -0.004970586 -0.0010984361 -0.022601256 -0.0050781113
0.028977761 0.0008770798 0.0074161603 0.045271557 0.008750722 0.0019875607 0.042116344 0.009140806
9.355824e-05 6.414556e-05 0.00027973074 -0.00070246524 -0.000840961 -0.00012284872 -0.0020271745 -0.0010326287
-0.010822225 -0.00033538617 -0.0029656705 -0.016793158 -0.0037296223 -0.0007388962 -0.015633533 -0.0033137412
1.0061204e-08 -1.0782004e-08 -1.3469255e-08 3.2961754e-08 -4.727591e-09 -3.1520069e-09 1.9352374e-08 -2.208989e-08
-0.003564124 -0.00011496207 -0.0006300047 -0.004888058 0.00024437238 -9.80089e-05 -0.0035734975 -0.00036564507
-0.0016153373 -3.4589764e-05 -0.00036145368 -0.002658819 -0.00047679228 -0.00012154558 -0.0027479301 -0.0007618421
-0.020590119 -0.00058628694 -0.005585633 -0.032309424 -0.007361847 -0.0014059987 -0.03114013 -0.006900066
0.005662427 8.4737265e-05 0.0020468018 0.010364723 0.004150991 0.0007032317 0.013145456 0.0040822746
0.0047569904 0.00013405416 0.0018382475 0.0077707726 0.0031869833 0.00040842133 0.0085848095 0.00217525
-0.018226735 -0.00057393394 -0.0047044796 -0.031832393 -0.003603274 -0.0021016148 -0.028117737 -0.007253753
00000000: ed2c b23c c6e5 283a 1fdd 563b bdc4 0a3d
00000010: c3c4 9b3a 3963 aa3a ec24 da3c 3ffc a03b
00000020: 9c21 97b2 3897 48b0 5517 8fb1 f38c c3b2
00000030: bd6b beaf 0736 7ab0 eb81 b4b0 f3e6 33af
00000040: 9ce4 be3c 6d0e 2d3a a765 bf3b 620f 143d
00000050: b238 ee3b 7916 c53a ad51 0d3d 2e7d f43b
00000060: c906 18b3 4521 47b1 aaba 2fb3 957d 05b3
00000070: 65d6 14b3 2d75 a9b2 84f2 c1b2 4477 20b3
00000080: a4fa 0cbb bee3 d3b8 6ad9 0eb9 7677 42bb
00000090: 50df a33a ecd0 9bb8 bf74 89ba a371 7739
000000a0: 828a 78bc c042 e9b9 7432 75bb 1913 c5bc
000000b0: 4ce0 a2bb 66f9 8fba 4526 b9bc 4966 a6bb
000000c0: c562 ed3c d4eb 653a 4303 f33b ab6e 393d
000000d0: 305f 0f3c bc41 023b 3082 2c3d 52c3 153c
000000e0: b334 c438 e385 8638 d3a8 9239 a525 38ba
000000f0: f073 5cba f4d0 00b9 58da 04bb 4559 87ba
00000100: b44f 31bc c5d6 afb9 b25b 42bb ce91 89bc
00000110: ae6c 74bb 7cb2 41ba e511 80bc 5a2b 59bb
00000120: a5d9 2c32 c13b 39b2 6966 67b2 d591 0d33
00000130: 5570 a2b1 b19a 58b1 523c a632 2fc0 bdb2
00000140: 1494 69bb cb17 f1b8 e626 25ba 012c a0bb
00000150: 1b1f 8039 218a cdb8 5731 6abb 0db4 bfb9
00000160: bab9 d3ba 7a14 11b8 7e81 bdb9 953f 2ebb
00000170: faf9 f9b9 49e6 feb8 9e16 34bb 5cb6 47ba
00000180: 9cac a8bc 0db1 19ba b007 b7bb e356 04bd
00000190: a63b f1bb 7d49 b8ba 9619 ffbc f319 e2bb
000001a0: e18b b93b f9b4 b138 a323 063b cdd0 293c
000001b0: 0905 883b 1559 383a 0a60 573c 9ac4 853b
000001c0: 87e0 9b3b e490 0c39 5af1 f03a f7a1 fe3b
000001d0: b5dc 503b 6221 d639 4da7 0c3c a48e 0e3b
000001e0: 3c50 95bc 0e74 16ba 0928 9abb af62 02bd
000001f0: e824 6cbb 3fbb 09bb 2b57 e6bc e4b0 edbb

exp_avg_sq f4 [16, 8]
0.00034057425 3.2946593e-07 1.0727473e-05 0.0007901511 1.1145628e-06 1.0839854e-06 0.00047628785 1.4000803e-05
2.7081894e-15 2.488271e-17 6.502278e-16 5.501679e-15 2.2673672e-18 1.9318213e-17 4.259119e-16 4.0542024e-17
0.000343529 2.769454e-07 4.114207e-05 0.0008032762 9.282809e-05 1.4403585e-06 0.00088525965 4.7434907e-05
6.643963e-13 6.2850427e-16 3.1549703e-13 1.3385604e-12 1.0242767e-12 3.4110807e-15 3.2751193e-12 2.3778234e-13
2.2354987e-05 1.84092e-08 5.378922e-06 5.387815e-05 2.1796848e-05 1.3705169e-07 8.178426e-05 6.243593e-06
0.00013789495 1.1952011e-07 1.0117488e-05 0.00032627583 1.7649478e-05 5.7180966e-07 0.00029587696 1.4450238e-05
0.0004523468 4.0222906e-07 4.6514862e-05 0.0010621528 9.174327e-05 1.945675e-06 0.0010603359 5.4394033e-05
1.7169088e-05 1.2809892e-08 2.5417785e-06 4.256536e-05 8.084896e-06 9.377968e-08 5.4562533e-05 3.8360586e-06
6.477392e-05 6.195454e-08 5.110443e-06 0.00014769033 8.1395765e-06 2.2089561e-07 0.00012176479 5.1121797e-06
1.984591e-12 1.6390467e-15 2.2698167e-14 3.4174991e-12 4.2590712e-16 1.2679583e-16 1.8750067e-12 1.4066587e-14
3.0729094e-05 2.483831e-08 5.9760996e-06 7.0918206e-05 1.8021752e-05 1.5259818e-07 9.654747e-05 6.228285e-06
5.1084007e-06 3.2918992e-09 2.1518465e-06 1.2775994e-05 8.957796e-06 3.92725e-08 2.7129478e-05 2.3093023e-06
0.00021848864 1.9123893e-07 1.5289019e-05 0.000514616 2.2061495e-05 8.4602055e-07 0.0004447921 1.9958976e-05
2.8117354e-05 4.538201e-09 1.8230534e-05 8.971113e-05 9.799868e-05 4.990876e-07 0.00028646723 3.0397227e-05
5.815831e-06 4.915465e-09 3.7647494e-06 1.4406194e-05 1.5949996e-05 5.205493e-08 3.621732e-05 3.313326e-06
0.0002479198 2.8759607e-07 2.1867992e-05 0.0006511849 6.6402167e-06 1.9617214e-06 0.00049593335 2.5259007e-05
00000000: 1a8f b239 74e1 b034 25fa 3337 2522 4f3a
00000010: 1698 9535 747d 9135 46b6 f939 fee4 6a37
00000020: 4725 4327 a380 e523 586a 3b26 0838 c627
00000030: 5b4d 2722 d72d b223 8185 f525 93f7 3a24
00000040: af1b b439 16af 9434 f68f 2c38 f492 523a
00000050: b4ac c238 5752 c135 c510 683a d8f4 4638
00000060: cd02 3b2b 6e27 3526 ea9b b12a b962 bc2b
00000070: 7527 902b 55cb 7527 4e77 662c 0cdc 852a
00000080: f886 bb37 4222 9e32 977c b436 39fb 6138
00000090: 60d8 b637 7b28 1334 9783 ab38 0e80 d136
000000a0: e597 1039 7055 0034 48be 2937 0010 ab39
000000b0: f70d 9437 767e 1935 ef1f 9b39 4d6f 7237
000000c0: f628 ed39 f1f1 d734 f418 4338 ef37 8b3a
000000d0: 4b66 c038 7192 0236 f8fa 8a3a 2625 6438
000000e0: 5606 9037 8012 5c32 6c93 2a36 3588 3238
000000f0: 5da4 0737 ed63 c933 13da 6438 7eb7 8036
00000100: 3cd7 8738 de0b 8533 5f7a ab36 52dd 1a39
00000110: 378f 0837 532f 6d34 f95b ff38 4a89 ab36
00000120: 37a7 0b2c 2636 ec26 6972 cc28 317c 702c
00000130: cc84 f525 862f 1225 1ef1 032c af66 7d28
00000140: 1de3 0038 055c d532 4e86 c836 ecb9 9438
00000150: 6b2d 9737 ded9 2334 8779 ca38 90fc d036
00000160: d468 ab36 b437 6231 7168 1036 7a58 5637
00000170: 7149 1637 92ac 2833 1c94 e337 83f9 1a36
00000180: 191a 6539 5b57 4d34 eb40 8037 4ce7 063a
00000190: b310 b937 171a 6335 fc32 e939 936d a737
000001a0: 8fdd eb37 70ee 9b31 c6ed 9837 4c23 bc38
000001b0: a484 cd38 0af9 0535 fb30 9639 8cfd fe37
000001c0: 9c25 c336 e3e4 a831 e7a5 7c36 22b2 7137
000001d0: 5bcc 8537 0093 5f33 0de8 1738 825a 5e36
000001e0: 3bfb 8139 e766 9a34 2871 b737 47b4 2a3a
000001f0: 07cf de36 1ea6 0336 8601 023a 4ee3 d337

exp_avg f4 [128, 32]
-0.008310453 9.187667e-10 -0.0029868812 3.6774434e-08 -0.015338304 -0.0035042248 -0.004250314 -0.014917094
-0.014011938 2.731656e-08 -0.013212867 -0.015231585 -0.0063483934 -0.0037541366 -0.010542845 -0.00049744395
-0.00019041773 3.6525498e-11 -6.353786e-05 -3.9374046e-10 -0.00016934644 -3.22321e-05 -8.865346e-05 -0.00023506393
-0.00013752263 -1.6076407e-10 -0.00012296005 -0.00021497613 -0.00012050589 -8.747317e-05 -0.00011927605 -3.0299912e-05
-0.0037720723 -2.8283845e-10 -0.0013673917 2.9464235e-08 -0.006963637 -0.0015838916 -0.0019306161 -0.006772528
-0.006358894 2.7311916e-08 -0.0059819994 -0.006920966 -0.0029022882 -0.0017160863 -0.0048080753 -0.00023738827
-9.3572795e-05 6.2880313e-12 -3.184828e-05 7.704451e-11 -7.683045e-05 -1.44565265e-05 -4.154252e-05 -0.00011720863
-6.654229e-05 4.101029e-11 -5.5537566e-05 -0.00010610713 -5.5945846e-05 -4.0017552e-05 -6.0088783e-05 -1.4060805e-05
1.7593743e-07 -2.0379109e-13 5.1090176e-08 2.0031607e-25 3.6021294e-07 4.7232348e-08 7.818423e-08 3.55328e-07
3.2634824e-07 -1.8032384e-10 3.0812166e-07 3.6585735e-07 1.3592512e-07 5.2186373e-08 2.3713932e-07 -1.4784187e-09
-2.726047e-08 -9.7081606e-15 -1.5254193e-08 -1.0930625e-26 -2.4887603e-08 -4.0163317e-09 -2.1466835e-08 -2.7027589e-08
-2.1733653e-08 -4.990748e-13 -2.3700869e-08 -2.533906e-08 -2.1315072e-08 -1.6075271e-08 -2.2718057e-08 -2.595026e-09
0.011177644 8.1526574e-10 0.003938238 -2.6886804e-08 0.01734974 0.0031692022 0.0054865824 0.018172454
0.01497802 -7.672377e-09 0.014492125 0.018453494 0.0063673225 0.0032568094 0.011810111 0.00042690765
0.0002337258 3.13862e-10 8.0384525e-05 -7.3133033e-10 0.00018168734 3.3192922e-05 0.00012720833 0.00029297252
0.00014299691 1.0124299e-09 0.00012276744 0.00023765532 0.00013184964 8.810133e-05 0.00012880522 3.902019e-05
-3.365652e-08 2.7970227e-27 -3.3625376e-08 -9.267546e-12 -3.117427e-08 -3.5092167e-08 -3.4461372e-08 -3.001551e-08
-3.2402113e-08 -2.55727e-40 -3.2591466e-08 -3.0094917e-08 -3.9719183e-08 -3.8197676e-08 -3.365655e-08 -1.1069314e-08
2.6492737e-09 -4.42511e-30 -9.06737e-10 3.9305037e-13 1.3733402e-09 2.8897781e-10 2.962523e-10 2.3357167e-09
-1.8003245e-10 8.611e-42 -5.8266926e-11 2.6130331e-09 -5.516752e-10 -9.279963e-10 2.7332753e-10 -5.583753e-10
-0.0001567109 2.6087351e-11 -0.00039335413 -2.4221147e-09 -0.00092362094 -0.0005558703 -0.00025426285 -0.0005490475
-0.0017661765 3.0588254e-08 -0.00073502597 -0.00082582835 -0.0013446498 -0.0012439407 -0.0005938897 -3.4989436e-05
-1.0689722e-05 -4.720939e-13 -1.0327828e-05 -1.35832465e-11 -1.1137211e-05 -4.464416e-06 -8.074426e-06 -1.7588449e-05
-1.9081863e-05 8.267112e-10 -1.0788606e-05 -1.5278665e-05 -2.1387215e-05 -1.3170352e-05 -1.0826737e-05 -3.4156383e-06
-0.0001087132 2.6063561e-11 -0.00025427324 -3.0874276e-09 -0.00074247085 -0.000534791 -0.00015494865 -0.00034338204
-0.0013120485 3.0582505e-08 -0.0005763142 -0.00052228285 -0.00095386134 -0.0010993911 -0.00044521026 -4.8117712e-05
-4.641639e-06 -4.7281124e-13 -6.7920505e-06 -1.35871965e-11 -1.2012711e-05 -3.2277035e-06 -4.331047e-06 -1.4804432e-05
-1.9231451e-05 8.261049e-10 -1.0360326e-05 -2.0494466e-05 -2.3015096e-05 -1.1412076e-05 -5.9681206e-06 -2.3842479e-06
0.0013649211 -4.78031e-11 0.0004927351 -1.07066045e-08 0.0025250767 0.00058369 0.0006807892 0.0024596963
0.0023200894 -1.6322478e-08 0.0021797877 0.0024989792 0.001038383 0.00062871823 0.0017379877 7.766245e-05
3.150441e-05 5.133968e-13 1.0376155e-05 -4.320764e-11 2.8951927e-05 5.2518512e-06 1.4583287e-05 4.2492436e-05
2.1054235e-05 -1.2796156e-11 2.2134187e-05 3.876715e-05 1.9805037e-05 1.4314537e-05 1.9821411e-05 4.904247e-06
00000000: 9128 08bc 758c 7c30 8dbf 43bb ebf1 1d33
00000010: 834d 7bbc 23a7 65bb 3846 8bbb d466 74bc
00000020: 5492 65bc c0a5 ea32 c87a 58bc e68d 79bc
00000030: 2f06 d0bb f607 76bb e6bb 2cbc e666 02ba
00000040: dfaa 47b9 0ea4 202e a13f 85b8 0b76 d8af
00000050: 9792 31b9 f430 07b8 77eb b9b8 7e7b 76b9
00000060: f333 10b9 10c3 30af d6ee 00b9 376b 61b9
00000070: 1bb8 fcb8 cd71 b7b8 d723 fab8 912c feb7
00000080: df34 77bb f97d 9baf 0d3a b3ba 8a18 fd32
00000090: 392f e4bb 959a cfba ba0c fdba 15ec ddbb
000000a0: 455e d0bb 8a9b ea32 a604 c4bb 45c9 e2bb
000000b0: 5134 3ebb 4dee e0ba 0f8d 9dbb 6eeb 78b9
000000c0: 833c c4b8 8d3d dd2c d594 05b8 346c a92e
000000d0: 0920 a1b8 4f8a 72b7 f13d 2eb8 e7cd f5b8
000000e0: 9f8c 8bb8 7b5d 342e 02f1 68b8 d585 deb8
000000f0: 65a7 6ab8 85d8 27b8 d707 7cb8 b3e6 6bb7
00000100: 50e9 3c34 c872 65aa 3e6e 5b33 b2fa 7716
00000110: 4a63 c134 84dc 4a33 3ce6 a733 e9c3 be34
00000120: f634 af34 a644 46af eb6b a534 0d6b c434
00000130: d0f2 1134 8623 6033 5ca0 7e34 3c31 cbb0
00000140: 682a eab2 fde2 2ea8 5308 83b2 da80 5894
00000150: 6bc8 d5b2 0700 8ab1 1266 b8b2 4c2a e8b2
00000160: cfb0 bab2 217a 0cab c396 cbb2 2fa9 d9b2
00000170: 5718 b7b2 e515 8ab2 8925 c3b2 2e54 32b1
00000180: 7022 373c 3a19 6030 560c 813b b5f4 e6b2
00000190: 0b21 8e3c 64b2 4f3b cac8 b33b 66de 943c
000001a0: 5f66 753c 79cf 03b2 6170 6d3c c82b 973c
000001b0: f9a4 d03b 3270 553b 327f 413c 93d2 df39
000001c0: 4b14 7539 268c ac2f 1d94 a838 cc06 49b0
000001d0: 5383 3e39 a138 0b38 3a63 0539 1b9a 9939
000001e0: 71f1 1539 b625 8b30 22bb 0039 1d33 7939
000001f0: 1e41 0a39 0bc3 b838 e30f 0739 9ca9 2338
00000200: bc8d 10b3 5c9a 5d13 7e6b 10b3 5109 23ad
00000210: 79e4 05b3 3fb8 16b3 ae02 14b3 67ea 00b3
00000220: 802a 0bb3 ddc8 0280 b2fa 0bb3 b641 01b3
00000230: b497 2ab3 ca0e 24b3 c58d 10b3 5c2b 3eb2
00000240: 840e 3631 f880 b38e f23d 79b0 8744 dd2a
00000250: 1dc0 bc30 03de 9e2f cedd a22f 5d82 2031
00000260: a1f2 45af 0118 0000 5d21 80ae f790 3331
00000270: b1a4 17b0 ef15 7fb0 6e43 962f 2b7c 19b0
00000280: c352 24b9 7e77 e52d 193b ceb9 4b72 26b1
00000290: 271f 72ba d3b7 11ba 954e 85b9 f4ed 0fba
000002a0: 0d7f e7ba 2460 0333 c2ae 40ba 677c 58ba
000002b0: f63e b0ba b90b a3ba 43af 1bba 9fc1 12b8
000002c0: 0258 33b7 f3e1 04ab af45 2db7 81f5 6ead
000002d0: f5d9 3ab7 0bcd 95b6 6577 07b7 e88a 93b7
000002e0: fd11 a0b7 a13e 6330 b600 35b7 af2a 80b7
000002f0: b268 b3b7 3bf6 5cb7 7ba4 35b7 3838 65b6
00000300: f4fc e3b8 ec41 e52d fa4f 85b9 9a2a 54b1
00000310: 60a2 42ba 3731 0cba b679 22b9 f507 b4b9
00000320: 0bf9 abba d259 0333 cb13 17ba cfe9 08ba
00000330: 8d0c 7aba 7219 90ba 1c6b e9b9 00d2 49b8
00000340: 60bf 9bb6 a415 05ab 45e7 e3b6 4b07 6fad
00000350: 338a 49b7 869b 58b6 6953 91b6 8d60 78b7
00000360: 3a53 a1b7 f713 6330 43d1 2db7 88eb abb7
00000370: 8b10 c1b7 7e76 3fb7 c441 c8b6 1101 20b6
00000380: 27e7 b23a 813d 52ae e52a 013a 25f0 37b2
00000390: c27b 253b c602 193a fd76 323a db32 213b
000003a0: a40c 183b 8235 8cb2 c5da 0e3b eac5 233b
000003b0: 5a1a 883a 91d0 243a 31cd e33a b6de a238
000003c0: 9a23 0438 2382 102b 3f15 2e37 7a07 3eae
000003d0: cadd f237 0f39 b036 beaa 7437 e839 3238
000003e0: a09d b037 c31c 61ad ceac b937 e999 2238
000003f0: fe22 a637 7828 7037 2846 a637 298f a436
